solutions/Computer Vision/1_Facial Keypoint Detection/saved_models/keypoints_model_1.pt (torch_old, 550447 bytes, 12 tensors)

conv_1.weight f4 [32, 1, 5, 5]
-0.27990592 -0.13123786 -0.15951431 -0.11105068 -0.21398123 -0.044506982 -0.19152336 -0.18918455
-0.15350915 -0.076905765 0.11567754 0.071873434 -0.033834722 0.02925577 -0.07523887 -0.048705816
-0.0068130633 0.019233601 0.120153226 0.031253215 0.19780919 0.063112915 0.2923963 0.11819064
0.28438464 0.0003772416 -0.24662212 0.11046362 -0.20480989 -0.040873524 0.030860653 0.076590374
-0.15471847 0.051296636 0.07945716 0.012601727 0.05979999 0.123452924 0.0570826 -0.20748822
-0.08787283 0.09989451 -0.012386453 -0.21921207 0.013686055 -0.23410556 0.0882557 -0.011117937
0.008115916 -0.1375481 -0.21300258 -0.22843261 0.0301481 -0.016680252 -0.19235206 -0.035626795
-0.23498045 0.064242005 0.08175739 -0.17313729 0.10075358 0.02456557 -0.09410708 0.064795636
-0.20775336 0.14669867 0.015199473 -0.06820184 0.06802218 -0.0061130803 0.16729769 -0.14492199
0.09251123 0.1447301 0.14183106 -0.18289402 0.002991839 -0.15265313 -0.15663715 0.120241195
0.06306812 -0.1442328 0.16304518 -0.029537821 -0.052286264 0.17650649 -0.07921184 -0.12286402
0.033683382 0.080890454 -0.058541987 -0.06776853 -0.10497232 -0.10570716 0.008412753 -0.14563076
0.12025125 0.024724392 0.079712 -0.11004293 0.20638518 0.015894331 0.089683115 -0.13670757
-0.28780568 0.20168173 0.12298205 0.07873144 -0.063836314 -0.20112911 0.20056055 0.07304764
0.09629396 -0.19854705 -0.29667446 0.15899971 0.17164397 -0.16978851 0.1235427 -0.2773872
0.26200882 -0.11328126 0.06443193 0.082534984 -0.21386218 -0.39314625 -0.34780043 -0.046821225
0.20075841 0.29648 -0.10313957 -0.05166143 -0.14265658 0.22142462 0.281096 0.0513192
0.031023014 -0.2250465 0.07817088 0.16911022 -0.27503404 0.10480929 0.042362798 -0.15665089
0.11681029 -0.092673965 0.0052993195 0.069609605 -0.14416847 0.11416632 0.11338694 -0.18686453
-0.031481665 -0.20454353 0.03997595 -0.2088228 -0.21137267 -0.009678506 0.10002453 -0.014461591
-0.15710396 0.1536787 -0.16648073 0.0038473469 0.18502942 0.16930436 0.0075005237 -0.105532505
0.0855555 0.06951887 -0.1466939 -0.17596488 0.12348829 -0.13015474 0.09238906 0.102220036
0.10378284 0.14947912 0.09196433 -0.21208876 -0.056866366 0.0053964215 0.15045594 -0.10550626
-0.004481287 0.18779132 -0.16032337 0.037551124 -0.12440446 0.08553885 0.23965868 0.1153713
0.16152741 -0.25745645 -0.15162177 0.17692986 -0.08394958 -0.15724517 -0.29642636 -0.29462597
-0.25187436 -0.042623762 -0.1992059 -0.32592726 0.03974766 -0.26569578 -0.25878704 -0.1664148
-0.091802485 -0.25917816 0.14678106 0.058650322 0.033503033 -0.10183605 0.15725349 0.23445019
0.028375642 0.0009241661 0.2888508 0.21063706 0.097419605 0.21827425 0.3079859 -0.075397804
0.28445357 -0.13579364 -0.111714885 -0.018786957 0.08816074 -0.1977806 -0.21811464 -0.21565829
0.14739332 -0.017147215 -0.10588211 -0.15562567 -0.14028348 -0.19127923 0.13676359 -0.103296995
0.014427358 -0.07687851 -0.0798319 0.02216808 -0.2202854 0.1525851 -0.16062987 -0.060830675
0.0854279 -0.12503599 0.16739479 -0.11142441 0.014474568 -0.11393169 0.022234382 0.118233256
00000000: d44f 8fbe 3863 06be b857 23be 8a6e e3bd
00000010: e51d 5bbe f44c 36bd b31e 44be 98b9 41be
00000020: 8131 1dbe c580 9dbd 59e8 ec3d 6132 933d
00000030: 4796 0abd cca9 ef3c d616 9abd c07f 47bd
00000040: 1e40 dfbb c98f 9d3c e512 f63d 5f03 003d
00000050: 7e8e 4a3e 5841 813d f8b4 953e ef0d f23d
00000060: dd9a 913e 83c8 c539 828a 7cbe c03a e23d
00000070: afb9 51be ff6a 27bd 7bcf fc3c 6adb 9c3d
00000080: 856e 1ebe 6c1c 523d 6fba a23d 7977 4e3c
00000090: d6f0 743d e3d4 fc3d 72cf 693d cb77 54be
000000a0: acf6 b3bd 7e95 cc3d 8df0 4abc 2179 60be
000000b0: 7a3b 603c 5eb9 6fbe 68bf b43d 0228 36bc
000000c0: 9ef8 043c 69d9 0cbe 591d 5abe 3dea 69be
000000d0: 26f9 f63c 06a5 88bc f0f7 44be 67ed 11bd
000000e0: b79e 70be 5091 833d 6b70 a73d e74a 31be
000000f0: e557 ce3d bc3d c93c 36bb c0bd 93b3 843d
00000100: 4cbd 54be 2d38 163e 3607 793c 68ad 8bbd
00000110: 364f 8b3d 3c50 c8bb 1650 2b3e 6e66 14be
00000120: 8776 bd3d 2134 143e 293c 113e 9248 3bbe
00000130: bb12 443b 1a51 1cbe 7d65 20be 0441 f63d
00000140: dc29 813d c3b1 13be 51f5 263e 4df9 f1bc
00000150: 1f2a 56bd 1ebe 343e d139 a2bd 22a0 fbbd
00000160: 96f7 093d e5a9 a53d b9c9 6fbd 3aca 8abd
00000170: bafb d6bd ff7c d8bd a5d5 093c 3b20 15be
00000180: 4a46 f63d cf8a ca3c 0c40 a33d 305e e1bd
00000190: a356 533e d434 823c c8ab b73d 12fd 0bbe
000001a0: 445b 93be a885 4e3e 03de fb3d f33d a13d
000001b0: 9dbc 82bd caf4 4dbe bf5f 4d3e 009a 953d
000001c0: c535 c53d eb4f 4bbe b7e5 97be d2d0 223e
000001d0: 70c3 2f3e 0add 2dbe f503 fd3d b205 8ebe
000001e0: 0526 863e 0100 e8bd e3f4 833d 1a08 a93d
000001f0: b0fe 5abe 774a c9be e612 b2be 9dc7 3fbd
00000200: 9d93 4d3e 3acc 973e d73a d3bd f09a 53bd
00000210: 9114 12be 23bd 623e d1eb 8f3e 1534 523d
00000220: fa23 fe3c 9772 66be 0e18 a03d 3b2b 2d3e
00000230: 43d1 8cbe 41a6 d63d 9d84 2d3d 1769 20be
00000240: 3c3a ef3d d9cb bdbd eaa5 ad3b 7b8f 8e3d
00000250: e6a0 13be 08d0 e93d 6937 e83d 6a59 3fbe
00000260: ebf2 00bd dc73 51be d2bd 233d a5d5 55be
00000270: 1472 58be 9992 1ebc a9d9 cc3d 4ff0 6cbc
00000280: dcdf 20be f35d 1d3e ed79 2abe c523 7c3b
00000290: 5a78 3d3e 1f5e 2d3e f4c6 f53b 6d21 d8bd
000002a0: b937 af3d e95f 8e3d ed36 16be 2330 34be
000002b0: 6ee7 fc3d 4947 05be 7a36 bd3d bd58 d13d
000002c0: 198c d43d 0e11 193e cb57 bc3d cc2d 59be
000002d0: b5ec 68bd 77d4 b03b 1f11 1a3e ab13 d8bd
000002e0: c3d7 92bb 5e4c 403e cf2b 24be 35cf 193d
000002f0: c4c7 febd fe2e af3d 1669 753e ca47 ec3d
00000300: 7167 253e 55d1 83be bd42 1bbe 1a2d 353e
00000310: c2ed abbd e104 21be 32c5 97be 37d9 96be
00000320: adf5 80be 4196 2ebd a2fc 4bbe f0df a6be
00000330: 71ce 223d 4709 88be bc7f 84be a468 2abe
00000340: f102 bcbd 00b3 84be c64d 163e 523b 703d
00000350: 7a3a 093d 6b8f d0bd 0f07 213e b613 703e
00000360: 0974 e83c bd43 723a 41e4 933e 3eb1 573e
00000370: ee83 c73d 4983 5f3e 54b0 9d3e 2a6a 9abd
00000380: e6a3 913e 7d0d 0bbe c6ca e4bd 1be7 99bc
00000390: 9e8d b43d ff86 4abe 7259 5fbe 87d5 5cbe
000003a0: 46ee 163e 5178 8cbc b8d8 d8bd 565c 1fbe
000003b0: 79a6 0fbe b4de 43be c10b 0c3e 608d d3bd
000003c0: ba60 6c3c 7b72 9dbd e87e a3bd d599 b53c
000003d0: 7f92 61be 453f 1c3e 287c 24be 9629 79bd
000003e0: d3f4 ae3d 6f09 00be 8a69 2b3e 7b32 e4bd
000003f0: bd26 6d3c 0555 e9bd e124 b63c 4724 f23d

conv_1.bias f4 [32]
-0.08919599 -0.008340183 0.13345768 -0.15473114 -0.00856139 0.0046297098 -0.14433013 0.05402771
0.078632325 0.061619107 -0.13117276 0.090903655 0.18400311 -0.021798838 -0.16409609 0.16442317
-0.12519042 0.06539775 0.22090115 -0.21381922 -0.028082564 -0.14191361 -0.15546311 0.086797364
-0.12596132 0.00068609207 -0.064695835 -0.09019776 0.11233659 0.06326269 0.0027035023 -0.13905273
00000000: 63ac b6bd 43a5 08bc 21a9 083e d771 1ebe
00000010: 1345 0cbc d2b4 973b 47cb 13be 294c 5d3d
00000020: fc09 a13d 5164 7c3d 2752 06be b22b ba3d
00000030: 506b 3c3e 7a93 b2bc ce08 28be 8c5e 283e
00000040: eb31 00be 41ef 853d e933 623e 6df3 5abe
00000050: 680d e6bc cd51 11be b931 1fbe d1c2 b13d
00000060: 01fc 00be dcda 333a 407f 84bd 9ab9 b8bd
00000070: ba10 e63d df8f 813d 3e2d 313b d763 0ebe

conv_2.weight f4 [32, 32, 5, 5]
-0.039213248 -0.046786357 0.0004190992 0.0064639025 -0.0016836398 0.0023412502 0.031154595 -0.027814958
-0.008890462 0.027125884 -0.026871001 -0.032140624 0.017175429 -0.035190187 0.033629198 0.0005017451
0.023860427 -0.03313863 0.022924075 -0.004287788 0.010074426 -0.027201433 0.030177047 -0.004599546
-0.027698213 0.030409513 -0.013629932 0.00031720754 0.0040736333 -0.024842154 -0.012984085 0.014410658
-0.014894277 -0.039100178 -0.018744733 -0.030736027 -0.026980016 0.024403498 0.012769839 -0.00089937047
-0.019310128 -0.033077665 -0.016051136 0.027257184 0.01115988 0.009260704 0.009136247 -0.014751722
0.010425338 0.007254072 0.0006730084 -0.026965758 0.0015928805 -0.016692666 -0.053932875 -0.0337977
0.010926448 -0.011212877 0.0054356973 0.0043665245 -0.0369545 -0.03678271 0.030010305 0.005496053
-0.012434261 -0.014574597 -0.016449964 0.00092494086 -0.015531979 -0.014587706 0.027576013 -0.021888463
-0.027074382 0.0034766505 -0.010542059 -0.030619893 0.02575352 -0.019229986 -0.029111356 -0.006016489
-0.007938735 0.031113487 -0.033877954 0.019114759 0.029530335 0.0018719696 -0.018529024 -0.016578127
-0.016486103 0.023371283 0.020897955 0.011905327 0.00024247542 0.014772244 0.032250125 -0.025523253
0.011384577 0.03495941 -0.023017002 0.034265842 0.024885168 0.007200236 0.013001291 -0.031111777
-0.025057372 -0.007735411 0.018194739 -0.03221404 -0.042236917 -0.017622825 -0.019048648 -0.021291785
-0.011274137 -0.010448758 0.0052632773 -0.034880072 -0.0043085692 0.0063311793 0.03168262 -0.028104816
-0.038636815 -0.0078250505 -0.01867643 -0.030430296 -0.0011737505 -0.019442301 -0.021103425 0.015065266
-0.038218338 -0.017947905 0.005927822 -0.011053089 -0.02121237 0.012458839 -0.041921392 -0.02998904
-0.025092205 0.019963235 0.008869834 -0.037976988 0.0016972552 -0.036666963 0.0014161442 -0.034910925
0.012908287 0.025208853 -0.03513355 -0.0059632463 -0.004948274 0.001830901 -0.016121186 0.037187386
-0.023555992 -0.00898801 0.019255087 -0.033400692 0.020434508 0.02965569 -0.024054926 -0.0090952
-0.029913515 -0.006197561 -0.003553764 -0.022024192 0.016533699 -0.019860163 0.011361606 -0.030484874
-0.023213468 0.0024104123 0.02702994 0.021987442 -0.020842476 0.018233934 0.027735556 -0.023201663
0.024030173 -0.026985029 0.0036291962 0.018826827 0.020870585 0.008558529 0.014192896 -0.008782295
0.0022141482 0.0077297217 -0.010426317 -0.03651787 -0.017577369 0.0075141466 -0.026596837 0.010318115
0.012652909 -0.008146894 -0.011993275 -0.03388691 -0.0009238319 0.022168979 -0.004885452 -0.0148940245
-0.028911283 -0.031240577 -0.0025342666 -0.0030280552 -0.050464086 -0.045911364 -0.04611049 -0.00965261
-0.035557415 -0.0233404 -0.04923695 -0.005016754 -0.0335528 0.009859437 -0.028166993 -0.032920595
-0.014803638 -0.036570627 0.0037955572 -0.051128503 -0.04706868 -0.0049713408 -0.015093668 -0.0023302778
-0.035388254 0.009284049 -0.021718746 -0.011355971 -0.030906327 0.003770808 0.021727093 -0.010081834
0.007855897 0.028758926 0.0073561496 -0.025062732 0.003314083 -0.011816658 -0.016983122 -0.00439373
0.021315992 0.00847106 -0.03170479 0.017630305 -0.025814287 -0.005852024 0.00074449996 -0.0126119545
-0.011354519 -0.00861338 -0.058219492 -0.032877326 -0.05102559 -0.003040039 0.0015493376 -0.033497777
00000000: 129e 20bd 0da3 3fbd 8bba db39 25cf d33b
00000010: 94ad dcba a96f 193b ec37 ff3c 32dc e3bc
00000020: 4da9 11bc 1a37 de3c 9320 dcbc e3a5 03bd
00000030: 7cb3 8c3c 9623 10bd c5be 093d 8b87 033a
00000040: f176 c33c 5fbc 07bd 45cb bb3c 9380 8cbb
00000050: 350f 253c 8ad5 debc db35 f73c cab7 96bb
00000060: 5de7 e2bc 5f1d f93c 1450 5fbc e04e a639
00000070: 1d7c 853b c681 cbbc 33bb 54bc ae1a 6c3c
00000080: 2007 74bc 8227 20bd 8e8e 99bc 1fca fbbc
00000090: 3205 ddbc d8e9 c73c 9638 513c bbc3 6bba
000000a0: 4630 9ebc 727c 07bd ac7d 83bc 754a df3c
000000b0: eed7 363c 35ba 173c 33b0 153c 35b1 71bc
000000c0: 09cf 2a3c 91b3 ed3b d46c 303a 4be7 dcbc
000000d0: 33c8 d03a 0fbf 88bc b8e8 5cbd 756f 0abd
000000e0: d804 333c 37b6 37bc ef1d b23b 1015 8f3b
000000f0: 9a5d 17bd 78a9 16bd 2cd8 f53c 3c18 b43b
00000100: 12b9 4bbc 4aca 6ebc 13c2 86bc bb77 723a
00000110: d779 7ebc 4601 6fbc 17e7 e13c 6f4f b3bc
00000120: 18cb ddbc 84d8 633b 9ab8 2cbc 92d6 fabc
00000130: 0cf9 d23c 3488 9dbc f07a eebc f825 c5bb
00000140: 7811 02bc b6e1 fe3c 9cc3 0abd 8e96 9c3c
00000150: 9ae9 f13c e05c f53a 2eca 97bc dace 87bc
00000160: dd0d 87bc 2275 bf3c 3032 ab3c 900e 433c
00000170: 0041 7e39 4807 723c b518 043d 2416 d1bc
00000180: 6086 3a3c 9931 0f3d 278e bcbc 575a 0c3d
00000190: fbdb cb3c f5ef eb3b 5e03 553c 20de febc
000001a0: 1e45 cdbc 5579 fdbb 220d 953c dff2 03bd
000001b0: 9e00 2dbd be5d 90bc e90b 9cbc 1c6c aebc
000001c0: 28b7 38bc 4431 2bbc 9277 ac3b 68de 0ebd
000001d0: e62e 8dbb c875 cf3b a3c5 013d 123c e6bc
000001e0: a341 1ebd a434 00bc 50ff 98bc f548 f9bc
000001f0: 88d8 99ba 7645 9fbc 17e1 acbc 4ed4 763c
00000200: d58a 1cbd 7c07 93bc 2d3e c23b 0418 35bc
00000210: 90c5 adbc 2920 4c3c c4b5 2bbd 93ab f5bc
00000220: 2b8e cdbc f089 a33c c852 113c c28d 1bbd
00000230: 6f76 de3a 1930 16bd ea9d b93a c2fe 0ebd
00000240: 487d 533c cc82 ce3c 33e8 0fbd 5667 c3bb
00000250: 2225 a2bb d8fa ef3a 9410 84bc cd51 183d
00000260: 7ff8 c0bc 7242 13bc d8bc 9d3c 2acf 08bd
00000270: 4566 a73c 7df0 f23c d60e c5bc 0904 15bc
00000280: 300d f5bc e914 cbbb 44e6 68bb 146c b4bc
00000290: ae71 873c c8b1 a2bc 0826 3a3c 6abb f9bc
000002a0: 2c2a bebc 02f8 1d3b e56d dd3c 021f b43c
000002b0: d7bd aabc 555f 953c ad35 e33c 6a11 bebc
000002c0: edda c43c b50f ddbc cfd7 6d3b b83a 9a3c
000002d0: caf8 aa3c 1339 0c3c 5289 683c 9de3 0fbc
000002e0: 3e1b 113b 9b49 fd3b 25d3 2abc c393 15bd
000002f0: 6afe 8fbc 3b39 f63b 9ce1 d9bc 500d 293c
00000300: 264e 4f3c 8d7a 05bc 717f 44bc 00cd 0abd
00000310: 4f2d 72ba b89b b53c 2416 a0bb 1106 74bc
00000320: 5bd7 ecbc 3dec ffbc f015 26bb 5672 46bb
00000330: 6eb3 4ebd 8e0d 3cbd 5ade 3cbd fb25 1ebc
00000340: a7a4 11bd 5e34 bfbc afac 49bd 9563 a4bb
00000350: a96e 09bd 7a89 213c 77be e6bc bfd7 06bd
00000360: f58a 72bc 15cb 15bd e2be 783b 1f6c 51bd
00000370: 17cb 40bd a1e6 a2bb 6f4b 77bc 93b7 18bb
00000380: 46f3 10bd 201c 183c 83eb b1bc 650e 3abc
00000390: 442f fdbc a91f 773b 04fd b13c 472e 25bc
000003a0: 05b6 003c d797 eb3c db0b f13b 5c50 cdbc
000003b0: 1631 593b a89a 41bc 3020 8bbc 47f9 8fbb
000003c0: e09e ae3c 33ca 0a3c e2dc 01bd 6e6d 903c
000003d0: 7c78 d3bc 56c2 bfbb 8c2a 433a 5fa2 4ebc
000003e0: 4e08 3abc 221f 0dbc 9077 6ebd 60aa 06bd
000003f0: 3600 51bd 643b 47bb 2513 cb3a f734 09bd

conv_2.bias f4 [32]
-0.026069794 0.017819636 -0.01392891 -0.028272571 0.0067193327 -0.016239157 -0.049173184 0.017978692
-0.046599105 -0.008175144 -0.007059565 -0.043451305 -0.07079902 -0.01974797 0.009804674 -0.0072862618
0.022048807 -0.0011214503 -0.03349307 -0.05154053 -0.00022900943 -0.012869859 -0.010227902 -0.03280703
-0.0120587265 0.013713173 -0.011368531 -0.039744843 -0.0179665 -0.037028987 0.13615957 -0.04196585
00000000: 5290 d5bc 7cfa 913c 1536 64bc e19b e7bc
00000010: d92d dc3b fb07 85bc d269 49bd 0d48 933c
00000020: b4de 3ebd 0af1 05bc ec53 e7bb fff9 31bd
00000030: 14ff 90bd 7fc6 a1bc c9a3 203c 98c1 eebb
00000040: b39f b43c a1fd 92ba 0830 09bd 2a1c 53bd
00000050: 4022 70b9 1adc 52bc ee92 27bc aa60 06bd
00000060: f791 45bc 37ad 603c 1343 3abc 7dcb 22bd
00000070: 7b2e 93bc b5ab 17bd 6a6d 0b3e 62e4 2bbd

conv_3.weight f4 [16, 32, 3, 3]
0.008388698 0.0064605447 0.01985475 0.033071287 -0.020742929 0.021942861 0.023729881 -0.018831547
0.04107102 -0.02815559 0.011472797 0.054721262 -0.046204086 -0.034186225 -0.05674679 0.024701811
0.024722738 0.051786076 0.008821235 -0.038852964 -0.012174605 0.0011006461 0.056213222 -0.04231157
0.01897403 0.059111714 -0.04597986 -0.01663195 0.03789531 0.040723294 0.0547213 0.05280692
-0.068654776 -0.00988901 -0.032908168 -0.021553107 0.009243438 0.0319148 0.027954808 0.04009478
0.01611847 0.016660145 -0.035000496 -0.035921324 -0.04262473 -0.062093295 -0.029268205 -0.05516276
-0.006558159 -0.07987825 -0.10236252 0.010779624 -0.06198831 -0.101822615 0.030479422 -0.056840517
-0.10429948 -0.018204855 -0.038183317 -0.030484859 0.07442506 0.054517396 -0.027633464 -0.022425227
-0.0034904522 0.005571504 -0.029595964 -0.07854019 -0.07436045 -0.03976143 -0.05065057 0.00024908403
-0.018803751 -0.051458202 0.03772138 -0.0071274485 0.036760017 0.025429629 -0.05639206 -0.05108155
0.008787381 -0.024983764 0.040743645 -0.03814166 -0.072380826 0.013284544 -0.0041497326 -0.02579496
0.005558675 0.0008095958 0.010302922 0.017605573 0.0028566748 0.0017741612 -0.05219111 -0.009643351
-0.04310629 -0.043111347 0.0071141156 -0.076380566 -0.0058077066 -0.013824788 -0.012781748 -0.043877468
-0.07342682 0.0605642 -0.033426642 0.030227218 0.041272253 -0.03405501 0.025950845 -0.0089426
0.018429587 0.031189479 -0.06711762 0.020998405 -0.0029789736 0.03870155 0.03469815 0.020008566
0.045554638 0.009066209 -0.023993611 0.07459725 0.016217772 0.023590626 0.00243351 -0.013852949
0.016244467 -0.007870803 -0.040738843 0.0450319 -0.034438707 0.039749105 0.053850044 0.030560426
-0.011200358 -0.047712777 -0.03154051 -0.057534594 0.0007696913 -0.014561024 -0.06324661 0.03151243
0.013453608 0.010022319 0.046374336 0.034088798 0.031498767 -0.042399824 0.017750455 -0.03865823
0.010141358 -0.009732247 0.004348373 0.06142941 -0.009718274 0.0047597643 0.058612693 -0.029233396
0.054521143 -0.04270861 0.023789564 0.04010927 -0.06705538 0.010853169 -0.061226923 -0.03427619
-0.033165038 -0.010741575 0.006528935 -0.019113394 0.04649033 0.058008038 0.019498924 0.023852063
-0.03200732 -0.07319195 -0.07452272 -0.01112477 -0.047519416 -0.011811351 0.040380083 -0.19193222
-0.05661736 0.042124886 -0.20120952 -0.14540626 -0.057504646 -0.0060421303 -0.034611426 -0.0019114582
0.052951485 -0.04316384 0.043228664 -0.06202553 0.05040816 -0.05172784 -0.04903225 -0.025561156
0.03727491 -0.026531953 0.012092607 -0.059837416 -0.028818343 -0.015587059 0.03611879 -0.058200385
0.03541395 -0.024314418 0.03309534 -0.012464534 0.050052308 -0.0594773 0.048558135 -0.007033573
0.006733615 -0.038059533 -0.06832595 0.05497782 0.058140125 -0.015057398 0.100648604 0.018363357
-0.00251708 -0.024064979 0.002649437 -0.042422343 -0.027960854 0.027997969 -0.03172511 0.018543137
0.0023945468 -0.03325461 0.008823548 -0.0062928633 0.0075348048 -0.017778741 -0.031933445 -0.027142685
0.0006987126 -0.01978054 0.030880574 0.044074554 0.0030149703 0.07238392 0.030841153 0.003329862
0.021451544 0.035047896 0.038603466 -0.012206455 -0.078011736 -0.06522478 -0.06341913 -0.011693807
00000000: c070 093c fab2 d33b 6ea6 a23c c275 073d
00000010: 13ed a9bc 84c1 b33c 2b65 c23c 9e44 9abc
00000020: 163a 283d 8da6 e6bc 66f8 3b3c 6723 603d
00000030: 7f40 3dbd db06 0cbd 526f 68bd 745b ca3c
00000040: 5787 ca3c a31d 543d f186 103c 4924 1fbd
00000050: ff77 47bc 8e43 903a d63f 663d e64e 2dbd
00000060: 6d6f 9b3c 201f 723d 6155 3cbd ba3f 88bc
00000070: 1d38 1b3d 78cd 263d 7123 603d 124c 583d
00000080: e09a 8cbd 8405 22bc b7ca 06bd 2490 b0bc
00000090: ca71 173c 18b9 023d 7b01 e53c 6d3a 243d
000000a0: e20a 843c db7a 883c ae5c 0fbd 3d22 13bd
000000b0: 4597 2ebd 8a55 7ebd e0c3 efbc 59f2 61bd
000000c0: d3e5 d6bb 3597 a3bd 71a3 d1bd 059d 303c
000000d0: 74e7 7dbd 6088 d0bd fbaf f93c 9ad1 68bd
000000e0: f79a d5bd 5922 95bc 1c66 1cbd 62bb f9bc
000000f0: 2a6c 983d a24d 5f3d 935f e2bc 1cb5 b7bc
00000100: 12c0 64bb 2a91 b63b 3c73 f2bc aed9 a0bd
00000110: 4b4a 98bd e2dc 22bd f976 4fbd 7e97 8239
00000120: 530a 9abc d6c5 52bd bc81 1a3d 5f8d e9bb
00000130: ac91 163d cc51 d03c 5cfb 66bd e33a 51bd
00000140: f3f8 0f3c c0aa ccbc cfe2 263d 6e3a 1cbd
00000150: 663c 94bd 6ba7 593c 7bfa 87bb f44f d3bc
00000160: 8c25 b63b 0e3b 543a 96cd 283c 9039 903c
00000170: 0d37 3b3b f98a e83a 58c6 55bd 25ff 1dbc
00000180: 3990 30bd 8695 30bd 871d e93b 6a6d 9cbd
00000190: 934e bebb 5d81 62bc 896a 51bc dcb8 33bd
000001a0: cd60 96bd 2b12 783d 60ea 08bd 129f f73c
000001b0: 180d 293d 447d 0bbd de96 d43c fc83 12bc
000001c0: a5f9 963c 1481 ff3c f674 89bd d904 ac3c
000001d0: e23a 43bb 8485 1e3d a61f 0e3d 01e9 a33c
000001e0: 8097 3a3d 708a 143c 408e c4bc 71c6 983d
000001f0: 22db 843c 2141 c13c 867b 1f3b 7bf7 62bc
00000200: 1e13 853c 8af4 00bc c6dd 26bd 5f73 383d
00000210: 9a0f 0dbd f5cf 223d dd91 5c3d dc59 fa3c
00000220: b581 37bc 796e 43bd 9f30 01bd 65a9 6bbd
00000230: 1cc5 493a 5c91 6ebc 7087 81bd 2e13 013d
00000240: 866c 5c3c a734 243c 04f3 3d3d b2a0 0b3d
00000250: da04 013d 70ab 2dbd 6769 913c 1858 1ebd
00000260: f027 263c 0174 1fbc cc7c 8e3b 689d 7b3d
00000270: 6539 1fbc ccf7 9b3b dd13 703d e07a efbc
00000280: 9051 5f3d 39ef 2ebd 55e2 c23c 9e49 243d
00000290: 5554 89bd 7dd1 313c 15c9 7abd 3165 0cbd
000002a0: 10d8 07bd 6efd 2fbc adf0 d53b b193 9cbc
000002b0: a56c 3e3d d699 6d3d 35bc 9f3c 6765 c33c
000002c0: 1c1a 03bd a9e5 95bd 5e9f 98bd ab44 36bc
000002d0: b8a3 42bd 6684 41bc 9665 253d e189 44be
000002e0: 9be7 67bd 258b 2c3d de09 4ebe 61e5 14be
000002f0: fe89 6bbd 10fd c5bb b6c4 0dbd e589 faba
00000300: a8e3 583d 91cc 30bd 8a10 313d 7b0e 7ebd
00000310: c978 4e3d 92e0 53bd 0ad6 48bd a165 d1bc
00000320: 93ad 183d 8a59 d9bc 1220 463c 1418 75bd
00000330: 7214 ecbc dd60 7fbc 4cf1 133d 8763 6ebd
00000340: 380e 113d 082f c7bc fb8e 073d 0b38 4cbc
00000350: a603 4d3d 789e 73bd e5e4 463d e379 e6bb
00000360: a8a5 dc3b 50e4 1bbd 7aee 8bbd 6c30 613d
00000370: 5724 6e3d 4eb3 76bc db20 ce3d c06e 963c
00000380: 98f5 24bb eb23 c5bc 2da2 2d3b 0dc3 2dbd
00000390: 290e e5bc ff5b e53c 30f2 01bd c7e7 973c
000003a0: d4ed 1c3b fc35 08bd a590 103c 5d34 cebb
000003b0: 86e6 f63b b9a4 91bc a5cc 02bd 565a debc
000003c0: cf29 373a cd0a a2bc 42f9 fc3c 8587 343d
000003d0: cf96 453b 053e 943d 96a6 fc3c d039 5a3b
000003e0: 26bb af3c 628e 0f3d ab1e 1e3d 95fd 47bc
000003f0: 9ec4 9fbd 9294 85bd e4e1 81bd 6297 3fbc

conv_3.bias f4 [16]
-0.034687936 0.0023315353 -0.0005350226 -0.024508161 -0.07806151 -0.09009636 -0.067927234 -0.014499781
-0.012343421 -0.14948075 -0.100552194 0.16028295 -0.0116024595 -0.10745649 -0.1809181 -0.08389731
00000000: f014 0ebd accc 183b c240 0cba 57c5 c8bc
00000010: b7de 9fbd 7184 b8bd 6f1d 8bbd 7d90 6dbc
00000020: 0f3c 4abc 7b11 19be 4fee cdbd 3721 243e
00000030: 3e18 3ebc 2612 dcbd 9842 39be 5ad2 abbd

conv_4.weight f4 [16, 16, 3, 3]
-0.047332875 -0.05705889 -0.11322818 0.14554591 0.116917096 0.12023975 0.010801957 0.17394888
0.09604876 -0.13501842 -0.06023127 0.06742915 -0.17449248 -0.08696183 0.019145707 -0.07341195
-0.057672624 0.14547963 -0.142164 0.08246616 -0.11549459 -0.02155329 -0.0063975966 -0.050095756
0.22833762 0.09359714 -0.002786685 -0.31250483 -0.16601332 -0.14537942 -0.013060319 0.059372958
0.045433912 0.06081756 0.1996083 0.04943263 -0.0031695333 -0.08562614 -0.008281723 0.006523881
0.0016329023 -0.04937817 0.06651359 0.18926933 0.023532115 -0.03551611 -0.048472364 0.038501628
-0.06736604 -0.092231914 0.08797695 0.009384233 -0.04401019 -0.03785807 -0.09702188 -0.24621671
-0.20649992 -0.01483061 -0.15299003 0.006301334 0.006678653 -0.0935101 0.04055521 -0.10247959
0.091855995 0.11235785 -0.017348176 0.21817614 0.26733944 0.020691432 -0.005749798 0.030671654
-0.24879229 -0.06122118 0.008766524 -0.08206586 0.042482585 0.08351063 -0.040601533 -0.02396016
0.107852496 -0.17552188 0.058508676 0.05236422 -0.08547487 0.1841492 0.06334412 -0.3564725
-0.108324505 -0.30187094 0.061511014 0.11170297 -0.018965282 0.0065370332 0.01813575 0.0037876118
0.003380788 -0.008227786 -0.034286104 0.12123041 0.1339477 0.25538975 0.083892606 -0.19840446
-0.08472429 -0.06315317 -0.17027244 -0.28043917 -0.3889066 -0.070687875 0.09077155 -0.30354255
-0.17292033 0.18227224 -0.080929324 -0.034990985 0.2356615 0.014949761 0.05874843 0.031955846
-0.07282075 0.074807115 0.028663993 -0.046874017 0.0022792146 0.070430465 -0.008200609 -0.10427484
-0.09607682 -0.27227226 -0.08055753 -0.28190967 -0.18691479 -0.17546447 -0.23023194 -0.27998757
-0.049011577 -0.07804393 0.018158153 -0.22002386 -0.050126135 -0.015142409 -0.10284078 -0.12504181
0.06051677 -0.10111767 -0.13001163 0.020140339 -0.056301273 -0.06251628 0.043313652 -0.096319504
-0.04119442 -0.009263294 0.054959502 0.03198588 -0.0011990105 -0.06309145 -0.06295585 -0.084641986
-0.08899987 -0.037548594 0.07020403 0.0011571232 0.07822905 0.074460305 0.011662803 -0.023264032
0.016291052 -0.10455019 0.008691547 0.07774622 -0.050080445 -0.1281417 0.06683082 0.012077877
-0.048601948 -0.08731514 -0.0356435 -0.065064415 -0.082937896 0.007201344 -0.05562536 -0.08162749
0.024721883 0.06839562 0.054332487 0.07694165 0.05070675 -0.021984719 0.019448042 0.044225432
-0.03971842 0.06961099 -0.040170323 0.008315332 0.018959856 -0.045646876 0.005549514 -0.14051804
-0.028911918 0.040849928 0.07234614 -0.035873994 -0.14437634 -0.0867283 -0.022537556 -0.03614743
0.0086773895 -0.006607009 -0.07020922 0.016042776 -0.13194235 -0.016869057 -0.09988727 -0.064492956
-0.10438366 -0.0017937765 -0.08062497 0.038611446 -0.09094325 -0.08555454 -0.03851971 0.005513975
0.05516436 -0.07124769 -0.0493162 -0.16267605 -0.11706278 -0.040501725 0.015155938 -0.07298073
-0.1420084 -0.006145464 -0.0076735914 -0.035394013 -0.08099409 0.061889865 -0.040282488 -0.052725047
-0.028416017 -0.043662578 -0.03502731 -0.027113685 -0.03047606 -0.105328195 0.022133669 0.022647878
-0.13681175 -0.03531073 -0.062702686 -0.05510798 -0.035163056 -0.004155784 0.021804722 0.053977437
00000000: 1ee0 41bd 95b6 69bd 2de4 e7bd fd09 153e
00000010: 3b72 ef3d 4240 f63d b1fa 303c a81f 323e
00000020: 36b5 c43d 4542 0abe 10b5 76bd 4b18 8a3d
00000030: 28ae 32be 0b19 b2bd 75d7 9c3c 0159 96bd
00000040: 213a 6cbd 9df8 143e 7193 11be 05e4 a83d
00000050: 6d88 ecbd 8690 b0bc eea2 d1bb 3531 4dbd
00000060: 56d1 693e dbaf bf3d d1a0 36bb a200 a0be
00000070: 65ff 29be 58de 14be f3fa 55bc 0f31 733d
00000080: e918 3a3d d51b 793d 1e66 4c3e df79 4a3d
00000090: f2b7 4fbb c25c afbd 10b0 07bc 48c6 d53b
000000a0: 1c07 d63a c440 4abd 4738 883d d2cf 413e
000000b0: 6cc6 c03c 5779 11bd f58a 46bd e2b3 1d3d
000000c0: 35f7 89bd 16e4 bcbd 422d b43d 53c0 193c
000000d0: 0744 34bd 1011 1bbd 68b3 c6bd 3c20 7cbe
000000e0: b774 53be 16fc 72bc 6ba9 1cbe 6c7b ce3b
000000f0: 9ad8 da3b 3982 bfbd 381d 263d d2e0 d1bd
00000100: ff1e bc3d df1b e63d c31d 8ebc 9169 5f3e
00000110: b7e0 883e 1481 a93c cd68 bcbb 1f43 fb3c
00000120: 68c3 7ebe 0fc3 7abd 77a1 0f3c 2512 a8bd
00000130: 3802 2e3d 9f07 ab3d cb4d 26bd 1948 c4bc
00000140: c5e1 dc3d 02bc 33be cba6 6f3d dd7b 563d
00000150: 730d afbd 9c91 3c3e 90ba 813d 9083 b6be
00000160: 3dd9 ddbd d48e 9abe f9f2 7b3d 87c4 e43d
00000170: 145d 9bbc 9c34 d63b 6d91 943c 9539 783b
00000180: 3690 5d3b d6cd 06bc 966f 0cbd a647 f83d
00000190: 9629 093e 72c2 823e e3cf ab3d 8a2a 4bbe
000001a0: ee83 adbd 7356 81bd e65b 2ebe b995 8fbe
000001b0: c41e c7be cec4 90bd 6fe6 b93d ee69 9bbe
000001c0: 0712 31be 93a5 3a3e 46be a5bd b552 0fbd
000001d0: 4051 713e d8ef 743c 32a2 703d 22e4 023d
000001e0: 0c23 95bd 7934 993d c0d0 ea3c f8fe 3fbd
000001f0: e05e 153b d93d 903d d95b 06bc 0c8e d5bd
00000200: ecc3 c4bd 4567 8bbe 59fb a4bd 7756 90be
00000210: 9766 3fbe f5ac 33be ecc1 6bbe 885a 8fbe
00000220: 5dc0 48bd 7fd5 9fbd 68c0 943c ef4d 61be
00000230: 1051 4dbd de17 78bc 309e d2bd f60a 00be
00000240: 6fe0 773d c816 cfbd c521 05be 5afd a43c
00000250: 2a9c 66bd 8908 80bd a869 313d 2943 c5bd
00000260: 7bbb 28bd 12c5 17bc 371d 613d a003 033d
00000270: 1e28 9dba 1736 81bd ffee 80bd c758 adbd
00000280: 9045 b6bd 8ecc 19bd 21c7 8f3d 9daa 973a
00000290: 8d36 a03d a57e 983d 5715 3f3c 3694 bebc
000002a0: d074 853c 691e d6bd fe66 0e3c 6939 9f3d
000002b0: 2721 4dbd 9437 03be 99de 883d 4ae2 453c
000002c0: d612 47bd 48d2 b2bd ebfe 11bd 7e40 85bd
000002d0: 58db a9bd 40f9 eb3b 6bd7 63bd 502c a7bd
000002e0: 8c85 ca3c 0113 8c3d be8b 5e3d 9593 9d3d
000002f0: e2b1 4f3d 4c19 b4bc 8051 9f3c ba25 353d
00000300: c8af 22bd 3590 8e3d a389 24bd 083d 083c
00000310: b351 9b3c 38f8 3abd b3d8 b53b f6e3 0fbe
00000320: b0d8 ecbc 4152 273d 372a 943d 9cf0 12bd
00000330: 64d7 13be 9b9e b1bd aea0 b8bc 540f 14bd
00000340: 9c2b 0e3c 9c7f d8bb dac9 8fbd 246c 833c
00000350: e51b 07be fa30 8abc b291 ccbd e214 84bd
00000360: 1ac7 d5bd 271d ebba b41e a5bd 0927 1e3d
00000370: 7440 babd 3837 afbd d8c6 1dbd 93ae b43b
00000380: 06f4 613d 4fea 91bd c9ff 49bd 8d94 26be
00000390: 9cbe efbd 23e5 25bd 9d50 783c ec76 95bd
000003a0: a66a 11be e35f c9bb c072 fbbb 50f9 10bd
000003b0: 3be0 a5bd 3a80 7d3d 40ff 24bd 38f6 57bd
000003c0: b5c8 e8bc 88d7 32bd cc78 0fbd 851d debc
000003d0: eea8 f9bc 4fb6 d7bd ab51 b53c 0b88 b93c
000003e0: 6118 0cbe fca1 10bd 446a 80bd e8b8 61bd
000003f0: 2307 10bd 3e2d 88bb d19f b23c 7217 5d3d

conv_4.bias f4 [16]
-0.035305094 -0.08881944 0.036385953 0.055894278 0.053778987 -0.019823644 -0.1311854 -0.1570842
-0.042116333 -0.10646313 -0.018592814 -0.08500913 -0.026708351 -0.04767996 -0.16025376 -0.05586311
00000000: 139c 10bd f7e6 b5bd 7009 153d 66f1 643d
00000010: 5b47 5c3d 3265 a2bc 7755 06be aeda 20be
00000020: 2d82 2cbd 5709 dabd f54f 98bc 4419 aebd
00000030: 79cb dabc 104c 43bd 9019 24be b7d0 64bd

fc_1.weight f4 [50, 1936]
0.012259556 -0.044453517 -0.029848985 -0.04486154 -0.026823482 -0.024364851 -0.031306624 -0.030650344
-0.009447729 -0.020082003 -0.023179997 0.0070036077 -0.039893452 -0.039809953 -0.013329691 -0.020407563
-0.022780653 -0.035256956 -0.039221168 -0.008985452 -0.037131563 0.008384786 -0.01965292 -0.010184158
-0.016225794 -0.010200598 -0.029618641 -0.04134899 -0.04550124 -0.0131993415 -0.04833816 -0.017210685
-0.040422823 -0.012936812 -0.012874755 -0.020760693 -0.02180932 -0.02913215 -0.015101918 -0.0048761168
-0.029058525 -0.006160481 -0.01473428 -0.02030376 -0.004289435 -0.032968882 -0.03792421 -0.00974042
-0.026117349 -0.013308575 0.017013289 -0.004734077 -0.032421682 -0.0488815 -0.03584472 -0.0070574917
-0.05033886 -0.046791364 -0.037540644 -0.0483589 -0.006158598 -0.01426531 -0.0007094424 -0.02688419
-0.03904435 -0.016318923 -0.04037557 -0.018585721 -0.022415604 -0.030128513 -0.041501738 -0.024826836
-0.023562947 -0.043604586 -0.0072424416 -0.050186757 -0.008650966 -0.023515211 -0.02584455 -0.029126428
-0.03591867 -0.028778067 -0.013425556 -0.046599668 -0.026596392 -0.04762907 -0.035111755 -0.048017707
-0.0066817356 -0.04870194 -0.0353258 -0.03760433 -0.025750257 -0.05047228 -0.02289009 -0.03540144
-0.0067066886 -0.013907364 -0.039197374 0.007522976 0.0053733345 -0.0068992656 -0.0172146 -0.020509785
-0.023410745 -0.04269166 -0.009112358 -0.026152955 -0.036978777 -0.021167217 -0.01025681 -0.013956482
-0.04927774 -0.03190913 -0.047939166 -0.035796434 -0.023030104 0.00033801235 -0.010634581 -0.026671177
-0.04814348 0.01181066 -0.019396026 0.0060351975 0.020671722 -0.0065447967 -0.015382491 0.0023306478
-0.01276142 -0.0120692225 0.016993351 -0.012676172 0.01293708 -0.016712353 0.013503719 0.0031555537
0.005206598 0.0031578355 -0.0047271717 0.0015089139 -0.018051237 -0.0055894423 0.009582616 -0.0022670645
-0.009279224 -0.01841962 -0.018921249 0.011890538 -0.0038266461 0.016700558 0.002124887 -0.007818748
0.009349592 0.01891889 0.017039321 0.014686115 0.02107203 0.017198972 -0.021687308 0.018011063
0.022459883 0.0058971047 -0.003887331 0.015179466 0.0055515096 -0.010506503 -0.0031007156 -0.014853565
-0.0023744646 0.021463268 -0.021310603 0.021959625 -0.01037327 0.011578634 0.008163154 -0.020447845
0.0020435825 -0.0050459616 -0.0024792738 0.012645572 0.003324084 -0.014089157 0.015969273 0.007685745
-0.016946726 -0.021210479 -0.009354733 0.014948238 0.012225319 0.021389224 0.009954486 -0.009473451
-0.012676071 0.02121013 -0.00063770823 -0.0078116283 0.016915388 0.009665843 0.0049495623 -0.014999642
0.01842421 0.01047172 -0.00038455613 0.0028305873 0.022399552 -0.0003483966 -0.01851561 -0.009098073
0.017204482 -0.022052309 0.02183913 0.007876193 0.009911038 -0.020789115 0.0019955821 0.020107139
0.0057660043 -0.019414932 -0.015636813 -0.021177027 0.0007392708 -0.0050261393 -0.017333262 -0.0012269318
-0.0007061977 0.020220738 0.002055617 -0.018797772 0.007943822 -0.009658315 -0.0083144205 0.015747827
-0.017879436 -0.0091203265 0.022599965 -0.009472273 -0.017214859 0.0057834797 -0.01750627 -0.0031879898
0.018406395 -0.009172508 -0.025018355 -0.046752196 -0.03460983 0.013801672 -0.008815484 -0.01362708
-0.024330247 -0.022501381 -0.020274123 -0.026258435 -0.014218195 -0.020802401 -0.01607364 -0.01631124
00000000: 4edc 483c e414 36bd dc85 f4bc bcc0 37bd
00000010: ebbc dbbc cc98 c7bc 603b 00bd 6e16 fbbc
00000020: a6ca 1abc 0383 a4bc fae3 bdbc 857e e53b
00000030: 5167 23bd c30f 23bd c764 5abc c32d a7bc
00000040: 7e9e babc 9969 10bd 60a6 20bd b837 13bc
00000050: 4417 18bd 5760 093c 29ff a0bc 74db 26bc
00000060: f5eb 84bc 6920 27bc cba2 f2bc 8f5d 29bd
00000070: 825f 3abd 0d42 58bc 3cfe 45bd 6cfd 8cbc
00000080: 6792 25bd ecf4 53bc a3f0 52bc 5412 aabc
00000090: 76a9 b2bc 8ca6 eebc 096e 77bc d5c7 9fbb
000000a0: 250c eebc dcdd c9bb 0d68 71bc 1254 a6bc
000000b0: 648e 8cbb 610a 07bd 6b56 1bbd 4896 1fbc
000000c0: 0df4 d5bc 360c 5abc 745f 8b3c 5120 9bbb
000000d0: 99cc 04bd f837 48bd ead1 12bd 8842 e7bb
000000e0: 1f30 4ebd 4da8 3fbd 38c4 19bd fb13 46bd
000000f0: 10ce c9bb 0cb9 69bc e0f9 39ba 3c3c dcbc
00000100: f8ec 1fbd 43af 85bc db60 25bd 1541 98bc
00000110: eea0 b7bc 12d0 f6bc bafd 29bd a661 cbbc
00000120: 1507 c1bc b99a 32bd 0152 edbb a190 4dbd
00000130: c8bc 0dbc f9a2 c0bc f3b7 d3bc 8c9a eebc
00000140: 751f 13bd fbbf ebbc ddf6 5bbc 4bdf 3ebd
00000150: ade0 d9bc b316 43bd 58d1 0fbd 37ae 44bd
00000160: 76f2 dabb af7b 47bd c9b1 10bd ff06 1abd
00000170: 34f2 d2bc 05bc 4ebd ff83 bbbc 1a01 11bd
00000180: c8c3 dbbb b6db 63bc 6d8d 20bd 4c83 f63b
00000190: cc12 b03b 3c13 e2bb a205 8dbc 2304 a8bc
000001a0: e4c7 bfbc 73dd 2ebd 004c 15bc b93e d6bc
000001b0: 0f77 17bd df66 adbc 2e0c 28bc baa9 64bc
000001c0: 75d7 49bd 26b3 02bd dc5b 44bd 489f 12bd
000001d0: a1a9 bcbc 4037 b139 aa3c 2ebc 837d dabc
000001e0: 1932 45bd 8081 413c 6ae4 9ebc e8c2 c53b
000001f0: be57 a93c bc75 d6bb d806 7cbc c8bd 183b
00000200: 4615 51bc fdbd 45bc a435 8b3c b8af 4fbc
00000210: 0cf6 533c 58e8 88bc b43e 5d3c 68cd 4e3b
00000220: 1c9c aa3b b0f3 4e3b 64e6 9abb c0c6 c53a
00000230: 30e0 93bc a427 b7bb 6800 1d3c 0893 14bb
00000240: e307 18bc bee4 96bc bc00 9bbc 88d0 423c
00000250: 78c8 7abb 9ccf 883c b041 0b3b 351a 00bc
00000260: 082f 193c cafb 9a3c 0c96 8b3c 089e 703c
00000270: 409f ac3c dce4 8c3c 95a9 b1bc f08b 933c
00000280: cafd b73c 803c c13b 98c2 7ebb 4cb3 783c
00000290: 70e9 b53b 7823 2cbc 6035 4bbb 5e5c 73bc
000002a0: e89c 1bbb bcd3 af3c 9393 aebc ace4 b33c
000002b0: a6f4 29bc 50b4 3d3c c0be 053c 3d82 a7bc
000002c0: a0ed 053b 9858 a5bb 507b 22bb 602f 4f3c
000002d0: e0d8 593b 35d6 66bc fed1 823c b4d8 fb3b
000002e0: dcd3 8abc 99c1 adbc 9844 19bc 74e9 743c
000002f0: b44c 483c 7438 af3c 2418 233c 8936 1bbc
00000300: 4caf 4fbc dec0 ad3c e02b 27ba b0f8 ffbb
00000310: 2492 8a3c 7c5d 1e3c f02f a23b 0fc1 75bc
00000320: 5eee 963c 9491 2b3c 409e c9b9 6081 393b
00000330: 447f b73c 00a9 b6b9 0cae 97bc 1510 15bc
00000340: 6af0 8c3c 0ba7 b4bc fae7 b23c 260b 013c
00000350: e861 223c ef4d aabc 50c8 023b bab7 a43c
00000360: c0f0 bc3b 100c 9fbc c618 80bc 727b adbc
00000370: a0cb 413a 50b2 a4bb 7cfe 8dbc 00d1 a0ba
00000380: 2020 39ba f6a5 a53c 88b7 063b c9fd 99bc
00000390: ce26 023c e93d 1ebc 3539 08bc 9601 813c
000003a0: e577 92bc 6c6d 15bc 9023 b93c 9831 1bbc
000003b0: 2d06 8dbc 5883 bd3b 4f69 8fbc 98ed 50bb
000003c0: 02c9 963c 4948 16bc 4bf3 ccbc 3b7f 3fbd
000003d0: 09c3 0dbd 6820 623c d26e 10bc 1e44 5fbc
000003e0: 3a50 c7bc d154 b8bc eb15 a6bc ee1b d7bc
000003f0: 6ff3 68bc cc69 aabc deac 83bc 269f 85bc

fc_1.bias f4 [50]
-0.051157072 -0.024405768 -0.041854832 0.0036238257 -0.02644331 0.1288433 -0.008952509 0.109556496
0.1368569 -0.013276313 0.015222718 0.13773108 0.13093951 0.013832893 -0.036449987 -0.019755187
0.11768477 -0.040374868 0.1468674 0.11522394 0.0026209587 -0.0014556814 0.12858853 -0.028717134
0.015324735 0.0060116523 0.110671274 -0.006160445 -0.026938306 0.0069949636 0.12723032 0.13749276
-0.018398894 0.1208246 -0.034772754 -0.02369992 -0.028798936 0.002538059 0.13483682 0.0043887864
-0.005252935 -0.016752379 -0.018864112 0.0029725065 -0.031209636 0.14635488 -0.0037160062 -0.023265233
0.008612199 0.13706446
00000000: 148a 51bd 9bee c7bc f96f 2bbd b57d 6d3b
00000010: a49f d8bc 7fef 033e 8bad 12bc 285f e03d
00000020: 3724 0c3e e584 59bc b568 793c 6009 0d3e
00000030: 0215 063e 5ca3 623c 954c 15bd a1d5 a1bc
00000040: b604 f13d 1e60 25bd 6864 163e 87fa eb3d
00000050: 64c4 2b3b 90cc beba b6ac 033e 3240 ebbc
00000060: 9914 7b3c 65fd c43b 9fa7 e23d 8fdd c9bb
00000070: b9ad dcbc 0236 e53b aa48 023e e7ca 0c3e
00000080: 47b9 96bc e372 f73d e06d 0ebd 5626 c2bc
00000090: bfeb ebbc 9055 263b aa12 0a3e cfcf 8f3b
000000a0: d020 acbb 493c 89bc e988 9abc 62ce 423b
000000b0: 5aab ffbc 0ede 153e 3d88 73bb bb96 bebc
000000c0: 2e1a 0d3c a05a 0c3e

fc_2.weight f4 [136, 50]
0.079589136 0.12543684 -0.113496855 -0.052414037 0.0784015 0.1122797 0.03088893 -0.07991068
0.05235755 0.034145195 0.04450536 0.1481129 -0.09321265 0.12145929 -0.03462331 -0.13441595
0.09810863 -0.15143257 -0.014197873 0.08546329 0.0063855955 0.024506075 -0.0407709 0.042626258
0.012548971 0.019472566 -0.05285354 -0.0045432923 -0.15102787 0.0389314 -0.011604928 0.118424185
0.018895246 -0.047864284 0.004387721 -0.07844503 0.09970879 -0.05229926 0.041190993 0.08905229
0.07573619 -0.13503785 -0.14672787 -0.084967256 -0.13636255 -0.077006325 -0.011676464 -0.064453594
0.06303476 0.16139553 -0.11223462 0.08362231 0.025377562 0.042066604 -0.12176069 -0.14643832
-0.08832475 -0.0027793874 0.057004876 -0.10474371 0.07636484 -0.06358211 -0.0038184715 0.07215969
-0.0053500375 -0.008502534 0.070114575 0.082638055 0.110709764 0.017879507 0.12853187 -0.056081776
0.08156607 -0.1425306 -0.012424008 -0.1253813 -0.10746351 0.08142196 0.039310068 -0.04869777
-0.20508151 0.058778416 -0.083635725 0.09743589 0.063801 -0.02225451 -0.07758734 -0.08028422
0.057972733 -0.04213134 0.01988909 -0.1419711 0.053910863 0.09702237 -0.060565658 0.10691905
0.13297428 -0.015716283 -0.03838558 -0.018159939 -0.07537869 0.0001814585 0.1444592 -0.053924005
-0.078389384 0.11127508 0.0700882 -0.08601321 0.051909145 0.13139668 0.004929426 0.14738391
-0.09652411 -0.056816407 -0.0057867207 -0.1075864 0.09967907 -0.1386619 -0.017315147 0.08970402
-0.11835069 0.08969141 -0.043737393 -0.18493825 -0.09466427 0.044243153 -0.056587126 -0.07245954
0.089682125 -0.07991366 -0.012273407 0.11928766 -0.017677944 -0.05157617 -0.108667314 -0.03147858
-0.12888226 0.03280816 0.04073398 0.13391283 -0.0031404244 0.10425716 -0.014907398 0.13315976
0.058600854 -0.0769983 -0.054431222 -0.049208183 0.12317297 0.16270755 -0.13458042 -0.12123212
-0.07781861 -0.004519685 -0.09502822 -0.14858587 0.14054424 -0.0053979754 0.056657594 0.050745834
0.13756637 -0.06887598 -0.0062999404 0.14324047 0.015881129 -0.0817156 0.067843474 -0.04903578
0.11003082 0.022397507 0.10490147 -0.045825668 0.083220534 0.0054185176 -0.07826319 0.14094296
-0.11192444 0.016476462 -0.009726266 0.12316122 -0.19515356 0.05024984 0.08722538 0.095112495
0.049148206 -0.074595265 0.01335724 -0.10971072 0.05484662 0.04165102 0.062653795 0.061813276
0.045089785 0.055676334 0.021529134 0.102702074 0.0029253992 0.08121048 0.14412715 -0.022523476
-0.065316655 -0.081505924 -0.08966867 -0.11883761 -0.052931305 0.10859754 -0.09920452 -0.089514896
0.049345158 -0.1254223 0.03730144 0.1446574 -0.1003096 -0.041529626 -0.10279603 0.12970942
0.09817775 -0.06292387 -0.01819398 0.09237494 0.066578574 -0.06980664 -0.04619391 -0.06800758
0.11498347 0.070480764 -0.06022132 0.1192337 0.055541772 -0.0977642 -0.011570384 0.11682767
0.023516474 -0.050951134 -0.07426008 0.060082033 -0.045131903 -0.10694362 0.039361317 -0.009852409
0.056276366 0.10136901 -0.0070183785 -0.009411229 -0.13772862 -0.07935158 -0.04303125 -0.10971306
0.082834706 0.16115399 -0.12950413 0.016328087 0.15521394 -0.094700046 0.037867453 -0.1470565
00000000: a1ff a23d 8472 003e 0a71 e8bd 1ab0 56bd
00000010: f790 a03d e6f2 e53d c80a fd3c 36a8 a3bd
00000020: df74 563d d5db 0b3d 414b 363d e8aa 173e
00000030: 46e6 bebd a6bf f83d 2cd1 0dbd 56a4 09be
00000040: 2ded c83d 2411 1bbe 329e 68bc 6107 af3d
00000050: 423e d13b f7c0 c83c 63ff 26bd df98 2e3d
00000060: 339a 4d3c ee84 9f3c f47c 58bd e6df 94bb
00000070: 0da7 1abe 8876 1f3d 9922 3ebc 6188 f23d
00000080: 34ca 9a3c 570d 44bd dfc6 8f3b caa7 a0bd
00000090: 1f34 cc3d c037 56bd e3b7 283d 0c61 b63d
000000a0: 931b 9b3d 5d47 0abe d53f 16be 5003 aebd
000000b0: a0a2 0bbe 7eb5 9dbd a44e 3fbc 3f00 84bd
000000c0: 5e18 813d df44 253e 44db e5bd 2c42 ab3d
000000d0: 9be4 cf3c 084e 2c3d ab5d f9bd edf3 15be
000000e0: 9be3 b4bd 6226 36bb f27d 693d df83 d6bd
000000f0: 2b65 9c3d 5637 82bd 523f 7abb 76c8 933d
00000100: 5e4f afbb 364e 0bbc 3b98 8f3d 243e a93d
00000110: cdbb e23d 0b78 923c dc9d 033e 01b6 65bd
00000120: 1d0c a73d 8bf3 11be 118e 4bbc f563 00be
00000130: d415 dcbd 8ec0 a63d 9803 213d 5077 47bd
00000140: e300 52be a3c1 703d 3549 abbd 788c c73d
00000150: 19aa 823d 174f b6bc 1ce6 9ebd 0e6c a4bd
00000160: d174 6d3d e991 2cbd 72ee a23c df60 11be
00000170: a3d1 5c3d aab3 c63d b213 78bd 60f8 da3d
00000180: 692a 083e 6fbf 80bc 333a 1dbd 27c4 94bc
00000190: 2560 9abd e545 3e39 1ded 133e 6bdf 5cbd
000001a0: 9d8a a0bd 30e4 e33d 678a 8f3d b227 b0bd
000001b0: af9e 543d da8c 063e 0687 a13b cfeb 163e
000001c0: 6fae c5bd 52b8 68bd 889e bdbb 4256 dcbd
000001d0: 8a24 cc3d 63fd 0dbe 7fd8 8dbc beb6 b73d
000001e0: d961 f2bd 21b0 b73d fb25 33bd 7460 3dbe
000001f0: 57df c1bd 4f38 353d e7c7 67bd ab65 94bd
00000200: 43ab b73d c6a9 a3bd 6616 49bc 174d f43d
00000210: 56d1 90bc 8941 53bd f88c debd afef 00bd
00000220: b6f9 03be d961 063d acd8 263d 7220 093e
00000230: 94cf 4dbb c784 d53d 293e 74bc 085b 083e
00000240: 7307 703d 49b1 9dbd 46f3 5ebd 858e 49bd
00000250: 1c42 fc3d cf9c 263e 73cf 09be 8c48 f8bd
00000260: 5d5f 9fbd de19 94bb 289e c2bd e526 18be
00000270: d4ea 0f3e 80e1 b0bb cb11 683d ddda 4f3d
00000280: 33de 0c3e da0e 8dbd bb6f cebb a1ad 123e
00000290: 2419 823c 825a a7bd 85f1 8a3d bed9 48bd
000002a0: d757 e13d fa7a b73c 95d6 d63d b2b3 3bbd
000002b0: 876f aa3d d28d b13b 7448 a0bd 5a53 103e
000002c0: a438 e5bd a5f9 863c eb5a 1fbc f33b fc3d
000002d0: 56d6 47be c7d2 4d3d 38a3 b23d 57ca c23d
000002e0: a14f 493d 67c5 98bd 53d8 5a3c 04b0 e0bd
000002f0: d9a6 603d 439a 2a3d a250 803d eb2f 7d3d
00000300: 11b0 383d de0c 643d de5d b03c 7755 d23d
00000310: 0eb8 3f3b ae51 a63d 1196 133e 2783 b8bc
00000320: bdc4 85bd 94ec a6bd 35a4 b7bd 2261 f3bd
00000330: 7fce 58bd 6368 de3d bd2b cbbd 9653 b7bd
00000340: 261e 4a3d b46e 00be 65c9 183d 1221 143e
00000350: 1f6f cdbd f81a 2abd ba86 d2bd 8cd2 043e
00000360: 6b11 c93d 3bde 80bd 8b0b 95bc 132f bd3d
00000370: 595a 883d c9f6 8ebd d335 3dbd 8f47 8bbd
00000380: 747c eb3d 3858 903d a1aa 76bd cc30 f43d
00000390: c57f 633d 9938 c8bd b591 3dbc 5843 ef3d
000003a0: 9fa5 c03c 23b2 50bd ab15 98bd 9418 763d
000003b0: 3bdc 38bd 4205 dbbd 5539 213d 006c 21bc
000003c0: 0c82 663d 8e9a cf3d 6dfa e5bb 8e31 1abc
000003d0: bb08 0dbe 1583 a2bd 8941 30bd 3eb1 e0bd
000003e0: 3ea5 a93d 8d05 253e bb9c 04be 7bc2 853c
000003f0: 67f0 1e3e 19f2 c1bd e71a 1b3d fb95 16be

fc_2.bias f4 [136]
-0.8826155 -0.14027111 -0.85853875 0.117274016 -0.80416495 0.35194665 -0.74125004 0.5829404
-0.6407185 0.83104134 -0.4768647 1.0429114 -0.2965485 1.1788614 -0.06290178 1.3002152
0.28318924 1.3710581 0.62192214 1.2827634 0.8383827 1.1589136 1.0007387 1.0165476
1.1480662 0.8096824 1.230759 0.55428547 1.2767391 0.32787967 1.3151085 0.09316624
1.3178626 -0.16796681 -0.61177284 -0.3913144 -0.48332444 -0.47323748 -0.3207242 -0.4968763
-0.17166518 -0.48425266 -0.036265403 -0.45088866 0.50145936 -0.45687246 0.6274118 -0.49088883
0.77606547 -0.50321126 0.93624175 -0.4790271 1.0630271 -0.40367573 0.23950547 -0.17125335
0.24497627 0.0018438771 0.25615433 0.16500202 0.263006 0.30750507 0.07565231 0.41373917
0.15374638 0.43216825 0.25941417 0.45241463 0.35828122 0.42808026 0.43231955 0.4076171
-0.4005871 -0.18444827 -0.29697967 -0.21967696 -0.16578165 -0.22161251 -0.048078544 -0.17279445
-0.1567751 -0.13945131 -0.294855 -0.1361048 0.5160482 -0.1783591 0.639259 -0.2276852
0.77021194 -0.23040973 0.87193376 -0.19441016 0.76638573 -0.14667329 0.63147897 -0.14416406
-0.12550512 0.73863065 0.0074225226 0.66550636 0.17511818 0.61953616 0.2622771 0.63345563
0.3448581 0.61800516 0.50479287 0.6605282 0.62732255 0.73134613 0.500774 0.8335082
0.39138 0.8912786 0.26799634 0.9052694 0.13803232 0.8961143 0.01630371 0.84099483
-0.099408016 0.734632 0.14850181 0.7052962 0.2608652 0.7011373 0.3714584 0.70580286
0.6001262 0.72794247 0.36821595 0.774886 0.26304784 0.78528565 0.14823696 0.777861
00000000: 17f3 61bf 3ba3 0fbe 32c9 5bbf 5c2d f03d
00000010: c1dd 4dbf 5a32 b43e 90c2 3dbf 953b 153f
00000020: 2106 24bf 20bf 543f 9c27 f4be 1f7e 853f
00000030: 34d5 97be eee4 963f a6d2 80bd 746d a63f
00000040: 2efe 903e d57e af3f 4a36 1f3f 9731 a43f
00000050: 40a0 563f 4857 943f 3518 803f 3b1e 823f
00000060: d5f3 923f 5947 4f3f 8389 9d3f a7e5 0d3f
00000070: 306c a33f d8df a73e 7a55 a83f f1cd be3d
00000080: b9af a83f 7eff 2bbe 259d 1cbf 5c5a c8be
00000090: 4d76 f7be 2f4c f2be f635 a4be 9266 febe
000000a0: ffc8 2fbe f7ef f7be 088b 14bd e1da e6be
000000b0: a45f 003f 30eb e9be 0f9e 203f c855 fbbe
000000c0: 3aac 463f 74d2 00bf 8aad 6f3f 0a43 f5be
000000d0: 4611 883f 96ae cebe ec40 753e 0a5d 2fbe
000000e0: 0fdb 7a3e 40ae f13a a926 833e 4af6 283e
000000f0: b9a8 863e 4e71 9d3e 99ef 9a3d 9fd5 d33e
00000100: b16f 1d3e 2845 dd3e efd1 843e e4a2 e73e
00000110: a370 b73e 562d db3e fd58 dd3e 30b3 d03e
00000120: c119 cdbe 02e0 3cbe b80d 98be fff2 60be
00000130: aac2 29be 64ee 62be 02ee 44bd 07f1 30be
00000140: a789 20be 53cc 0ebe 3cf7 96be 0f5f 0bbe
00000150: bc1b 043f c5a3 36be 7aa6 233f 4f26 69be
00000160: 9c2c 453f 87f0 6bbe 0d37 5f3f 7513 47be
00000170: db31 443f 8631 16be 9ba8 213f be9f 13be
00000180: 6a84 00be e616 3d3f a238 f33b a05e 2a3f
00000190: 2e52 333e ec99 1e3f 2f49 863e 262a 223f
000001a0: 3e91 b03e 9635 1e3f 1b3a 013f 6018 293f
000001b0: 3698 203f 8039 3b3f ba32 003f cb60 553f
000001c0: f662 c83e d62a 643f d136 893e bcbf 673f
000001d0: 5858 0d3e bf67 653f 5c8f 853c 704b 573f
000001e0: 6e96 cbbd d810 3c3f dc10 183e 4b8e 343f
000001f0: 2090 853e bc7d 333f cc2f be3e 7faf 343f
00000200: dfa1 193f 705a 3a3f cd86 bc3e ee5e 463f
00000210: 35ae 863e 7b08 493f 6ecb 173e e621 473f
