solutions/Deep Reinforcement Learning/3_Collaboration and Competition/checkpoint_actor_0.pth (torch_old, 593725 bytes, 18 tensors)

states_normalizer.weight f4 [24]
0	0x3e84a5d1	0.25907758
1	0x3e9d4f42	0.3072453
2	0x3e3c1406	0.18367013
3	0x3e898eec	0.26866853
4	0x3f4a00a0	0.78907204
5	0x3f3227a1	0.6959172
6	0x3d7efca5	0.06225266
7	0x3d13a8fa	0.03604982
8	0x3e581587	0.21101962
9	0x3d6539ba	0.055963255
10	0x3e0502b2	0.1298931
11	0x3e09dbd8	0.1346277
12	0x3eb5b336	0.3548829
13	0x3f4a1e90	0.78952885
14	0x3e0177d6	0.1264337
15	0x3de522fd	0.11188314
16	0x3f0b7e46	0.5448955
17	0x3e980dc2	0.29697996
18	0x3e2a2439	0.1661538
19	0x3ea9be68	0.3315308
20	0x3ee6e366	0.45095366
21	0x3f424ee8	0.7590165
22	0x3e438931	0.19095303
23	0x3ea43a1e	0.3207559

states_normalizer.bias f4 [24]
0	0x39c85f49	0.00038217966
1	0xba20a84a	-0.00061285926
2	0xb980d210	-0.0002457057
3	0xb6a61dfb	-4.9506757e-06
4	0x3ae639fa	0.0017564886
5	0x39612677	0.00021472001
6	0xb9190db7	-0.00014596326
7	0xb9ea48b2	-0.0004468612
8	0xb9adaa8b	-0.00033124196
9	0xbadd7495	-0.0016895706
10	0x39a25685	0.0003096351
11	0x3909f391	0.00013156074
12	0xbaa31e04	-0.0012444858
13	0xb99a8db5	-0.0002947875
14	0xb9cce308	-0.00039079064
15	0x390c6aa4	0.00013391167
16	0x384c907c	4.877195e-05
17	0xba3d5cae	-0.0007223588
18	0x3a57cdbf	0.00082322577
19	0xb9bb9494	-0.0003577812
20	0x3be6c762	0.0070428113
21	0x3b2be975	0.002623168
22	0x398f45e8	0.0002732717
23	0x394db81b	0.00019618908

states_normalizer.running_mean f4 [24]
0	0xc0c0d2d4	-6.025736
1	0xbf3f685f	-0.7476863
2	0x40ba173a	5.8153353
3	0xbe1dbee4	-0.1540485
4	0x3ccf16a0	0.025279343
5	0x402360c2	2.5527806
6	0x40ba173a	5.8153353
7	0xbe1dbee4	-0.1540485
8	0xc0c2b357	-6.084392
9	0xbf3f2629	-0.746676
10	0x40a53464	5.1626453
11	0xbda64e13	-0.0812036
12	0x3d261a72	0.040552564
13	0x40237333	2.5539062
14	0x40a53464	5.1626453
15	0xbda64e13	-0.0812036
16	0xc0c404b0	-6.125572
17	0xbf3f7830	-0.74792767
18	0x40b178ea	5.54601
19	0xbd8f24cf	-0.069894426
20	0x3d8d8d09	0.06911666
21	0x402405b2	2.5628476
22	0x40b178ea	5.54601
23	0xbd8f24cf	-0.069894426

states_normalizer.running_var f4 [24]
0	0x41818a23	16.19245
1	0x3f90a724	1.1301007
2	0x43c03dfa	384.4842
3	0x41420789	12.12684
4	0x41e02182	28.016361
5	0x404dc536	3.2151618
6	0x43c03dfa	384.4842
7	0x41420789	12.12684
8	0x41819d87	16.201918
9	0x3f911bcb	1.1336607
10	0x43c364bd	390.78702
11	0x413f3e6a	11.952738
12	0x41e39ec9	28.452532
13	0x404fb9ea	3.2457223
14	0x43c364bd	390.78702
15	0x413f3e6a	11.952738
16	0x41833ccc	16.404686
17	0x3f926706	1.143769
18	0x43c5d65d	395.6747
19	0x413d3a3c	11.826717
20	0x41e71016	28.882854
21	0x40502061	3.2519763
22	0x43c5d65d	395.6747
23	0x413d3a3c	11.826717

layers.0.weight f4 [512, 24]
0	0x3d88a2d2	0.066716805
1	0x3d390045	0.045166273
2	0xbd989d0f	-0.074518315
3	0x3c6c0045	0.014404361
4	0xbd1ba5c2	-0.037999876
5	0xbd89d6b4	-0.067304045
6	0xbd162ab8	-0.036661834
7	0x3bdac1eb	0.006675949
8	0x3d4b5b0a	0.04964737
9	0x3de11d8b	0.10991963
10	0x3cb44421	0.022005143
11	0xbe4780fe	-0.194828
12	0xbd0690ea	-0.032853045
13	0xbc87d1f3	-0.016579604
14	0x3ca66012	0.020309482
15	0xbe44779c	-0.19186252
16	0x3d86e124	0.06585911
17	0x3da567ff	0.08076476
18	0xbc8b1d00	-0.016981602
19	0xbe3e2123	-0.18567328
20	0xbda34af8	-0.079732835
21	0x3d34dd9e	0.044156663
22	0xbcc24a28	-0.023717001
23	0xbe7583d7	-0.23976074
24	0xbc25ca04	-0.010118965
25	0x3d23447f	0.039860245
26	0xbd70683f	-0.058693167
27	0x3dad020a	0.084476545
28	0x3cb1a46c	0.021684848
29	0xbe305c1c	-0.17222637
30	0xbca7a95f	-0.020466505
31	0x3cbdf136	0.023186307
32	0xbd4b025a	-0.04956279
33	0xbcf8b7fc	-0.030361168
34	0xbb0271be	-0.0019904221
35	0x3ddc0871	0.107437976
36	0xbca8a5a4	-0.020586796
37	0xbddc34ac	-0.10752234
38	0xbcdfcd24	-0.027319498
39	0x3da9c8a8	0.08290225
40	0xbd980b56	-0.07424037
41	0x3cb94d6c	0.022619925
42	0x3a39b98b	0.0007084838
43	0x3ded62fc	0.115911454
44	0x3cc5d0ad	0.024147356
45	0x3c9c119e	0.01905137
46	0xbcd2f607	-0.02575208
47	0x3e0cc64b	0.13747518
48	0x3d335a8f	0.043787535
49	0x3c5365ce	0.01290269
50	0x3d29b8a0	0.041435838
51	0xbd2fc3ca	-0.04291133
52	0xbd8429b5	-0.064532675
53	0xbd879259	-0.066197105
54	0x3d2483fe	0.04016494
55	0xbdbbe28a	-0.09174068
56	0x3d918f7b	0.07107445
57	0xbba0a072	-0.004901939
58	0x3e1c47c2	0.15261748
59	0x3d6f1304	0.058367744
60	0xbdd2ca88	-0.10292536
61	0x3caa3e10	0.020781547
62	0x3dd45779	0.103682466
63	0x3ce964da	0.028490473
64	0x3d9403ab	0.07227262
65	0xbc889a4a	-0.016675133
66	0x3dc2580f	0.09489452
67	0x3cb61709	0.02222778
68	0xbe12d43f	-0.14338778
69	0x3e14ca9d	0.14530416
70	0x3d6a5d24	0.057217732
71	0xbb7fcf9a	-0.0039033652
72	0x3d0b768c	0.034048602
73	0xbbbe91cc	-0.00581572
74	0x3c760888	0.015016682
75	0x3dab68d6	0.08369605
76	0x3d01744e	0.031605057
77	0x3e8d9c75	0.2765843
78	0xbd4aaa1e	-0.049478643
79	0x3db4aabd	0.08821628
80	0x3d82ee8c	0.063931555
81	0xbcd8d743	-0.026469832
82	0xbcfa101d	-0.030525262
83	0xbbc3d9cc	-0.005976891
84	0xbc8cacbb	-0.017172208
85	0x3d0742bf	0.03302264
86	0xbcf30d18	-0.02966933
87	0xbd0437c8	-0.03227976
88	0x3ca703dc	0.020387582
89	0xbd120406	-0.03564837
90	0xbe0f9e3b	-0.14025204
91	0xbbe2aa26	-0.006917256
92	0x3c3c36bc	0.011487659
93	0xbd341053	-0.04396088
94	0xbdf45d3e	-0.11931847
95	0xbd5a8694	-0.053351
96	0xbd44f05c	-0.048080787
97	0x3b98075b	0.0046395487
98	0xbc408650	-0.011750773
99	0xbb8d0933	-0.004304075
100	0x3dd01915	0.10161034
101	0xbe08a585	-0.1334439
102	0xbaca52b5	-0.0015436026
103	0xbb8bd93b	-0.0042678392
104	0x3d2dcde2	0.042432673
105	0x3d01951a	0.031636335
106	0xbcd99fac	-0.026565395
107	0x3a0cb533	0.0005367577
108	0xbd0489b7	-0.032357898
109	0xbd97b156	-0.07406871
110	0xba899a47	-0.0010498249
111	0x3bd35f3e	0.0064505627
112	0xbca880bf	-0.020569203
113	0x3ceb64dd	0.028734619
114	0xbc3a5ebf	-0.011375128
115	0xbc5f940d	-0.013646138
116	0xbe590166	-0.2119194
117	0x3e64a219	0.2232746
118	0xbba32d50	-0.004979767
119	0xbc17200c	-0.009223949
120	0x3ccd4cb5	0.02506099
121	0xbd0c3928	-0.034234196
122	0xbcf3b902	-0.029751305
123	0x3d6bb3c3	0.05754448
124	0x3cf1ea00	0.029530525
125	0x3b8223cb	0.003971552
126	0xbca68def	-0.020331351
127	0x3d3a479c	0.04547845
128	0x3de4ce9c	0.1117222
129	0xbd4a6b75	-0.049418885
130	0x3db2aaca	0.08723982
131	0x3d302a66	0.043009184
132	0xbdbdb1b3	-0.09262409
133	0x3cefae4c	0.029257916
134	0x3e0ccb9b	0.13749544
135	0xbd1d1e24	-0.038358822
136	0x3e064433	0.13111953
137	0xbe0659fa	-0.13120261
138	0xbbc237b5	-0.005927051
139	0x3c86b006	0.016441356
140	0xbe53bf92	-0.20678547
141	0x3cfe44cf	0.03103867
142	0xbd96ed6a	-0.07369502
143	0xbd273b8c	-0.040828273
144	0x3bd27366	0.006422448
145	0xbdb7d5a4	-0.089762956
146	0x3b995905	0.0046798014
147	0xbb1ed2dc	-0.0024234569
148	0xbe3df01d	-0.18548627
149	0x3dd4b2cf	0.103856675
150	0x3bd70af9	0.0065625873
151	0xbc64e6c6	-0.013971036
152	0x3d2dda56	0.04244455
153	0xbd46e7fe	-0.04856109
154	0x3bac8d70	0.005265884
155	0x3c38681e	0.011255292
156	0x3d180398	0.037112802
157	0xbd343f0f	-0.04400545
158	0xbce2f691	-0.027705463
159	0x3b25e945	0.0025316041
160	0xbc6dd2fc	-0.014515635
161	0x3ace1ff0	0.0015726071
162	0x3b8a4047	0.0042190882
163	0xbd1a7c32	-0.037716098
164	0x3e318692	0.17336491
165	0xbda40f11	-0.08010686
166	0x3be5e40a	0.0070157098
167	0x3d00d3cd	0.03145199
168	0x3ddfa3bf	0.10919904
169	0xbb861665	-0.004092025
170	0xbd736f5d	-0.059432376
171	0xbd96086a	-0.073258236
172	0xbcc3e8b9	-0.023914682
173	0x3d63c7fd	0.055610646
174	0xbd346512	-0.0440417
175	0xbdf73b08	-0.12071806
176	0x3d786c61	0.060650233
177	0xbd60feed	-0.054930616
178	0x3d817e8c	0.06322965
179	0xbe387650	-0.18013883
180	0xbeaf202c	-0.34204233
181	0xbb38c1e1	-0.0028191733
182	0x3d32c4df	0.043644782
183	0xbe2de2c6	-0.16981038
184	0x3d8db5e5	0.06919459
185	0xba9828a3	-0.001160879
186	0x3c7eca08	0.015551098
187	0xbdd506a5	-0.10401658
188	0xbe8a3686	-0.26994723
189	0xbc3a2fd8	-0.011363946
190	0x3afed8a3	0.0019443225
191	0xbda4cfc8	-0.08047444
192	0xbd5fb1ba	-0.054612853
193	0x3d52dfba	0.051482894
194	0x3d4213e2	0.047382243
195	0xbc879ca9	-0.016554194
196	0xbd07de97	-0.033171263
197	0xbdb3a922	-0.08772494
198	0x3dd4ff40	0.104002476
199	0xbd4980f2	-0.049195237
200	0x3cbd146b	0.023081025
201	0x3d22b968	0.0397276
202	0x3e312585	0.17299469
203	0xbd1a06b6	-0.037604056
204	0x3da3aae3	0.079915784
205	0xbd9a2b02	-0.07527734
206	0x3e4e66e9	0.20156445
207	0xbd845aa6	-0.06462602
208	0x3dd49d58	0.103815734
209	0x3d82f228	0.06393844
210	0x3dc28ddd	0.094997145
211	0x3c4b4ff7	0.012409202
212	0x3daf8685	0.085705794
213	0x3d71a788	0.05899766
214	0x3de4e744	0.11176923
215	0x3c5e5c1c	0.013571765
216	0xbd33564d	-0.043783475
217	0x3c5318d8	0.012884341
218	0x3c1692f0	0.009190306
219	0xbcad1ad0	-0.02113095
220	0xbd9175bb	-0.071025334
221	0xbcf1cebb	-0.029517522
222	0x3c67441e	0.0141153615
223	0x3c85e682	0.016345266
224	0xbd4e6304	-0.050387397
225	0x3cd9cd46	0.02658714
226	0xbde5001f	-0.11181664
227	0xbd1a94ac	-0.03773944
228	0xbd8fff98	-0.070311725
229	0xbd000a61	-0.031259898
230	0xbd88b5a2	-0.06675269
231	0xbd4ac677	-0.049505677
232	0x3c85d354	0.01633612
233	0xbda1e98a	-0.07905872
234	0x3e32ac8b	0.17448632
235	0xbc63e8d8	-0.013910495
236	0xbd9c3914	-0.07628074
237	0x3e178f4b	0.14800756
238	0x3e2530ab	0.16131847
239	0x3c0e1d27	0.008673943
240	0xbd865759	-0.06559629
241	0xbce4c650	-0.027926594
242	0xbc8ced74	-0.01720307
243	0xbc53d996	-0.0129302945
244	0xbda80f3a	-0.08206029
245	0xbdc1db3e	-0.09465645
246	0xbd17c52f	-0.037053283
247	0x3d928ed3	0.07156148
248	0xbd6febb0	-0.05857438
249	0xbd445fac	-0.047942802
250	0xbd2a8bac	-0.041637108
251	0x3d2d0540	0.042241335
252	0xbd7d569d	-0.06185018
253	0xbd2f1a47	-0.04274967
254	0x39f2090d	0.0004616458
255	0x3d2e422d	0.04254358

layers.0.bias f4 [512]
0	0x3e37e35a	0.17957821
1	0x3e01001e	0.12597701
2	0x3d10c69a	0.03534565
3	0x3e2d6ff3	0.16937236
4	0x3e3ce817	0.1844791
5	0xbcd65a43	-0.026166087
6	0xbe4b666e	-0.19863293
7	0x3ce402b2	0.027833316
8	0x3d96b892	0.07359423
9	0x3d2c37d6	0.042045437
10	0x3c1aea98	0.009455346
11	0x3e32964b	0.17440145
12	0x3e095e66	0.13414916
13	0x3d2c7cee	0.04211133
14	0x3c2effaf	0.010681077
15	0x3dc98978	0.09840673
16	0xbe4e851e	-0.20167968
17	0xbe16716a	-0.14691702
18	0x3e45a86a	0.19302526
19	0x3dab70ed	0.08371148
20	0x3d8fee58	0.07027882
21	0x3c25c8a7	0.01011864
22	0xbd156ee9	-0.036482725
23	0x3d3d6b6d	0.046245027
24	0x3e243c65	0.16038664
25	0xbdb5f00c	-0.08883676
26	0x3d10cdd9	0.03535256
27	0xbe2e156e	-0.17000362
28	0xbde857a6	-0.113448426
29	0xbd3f73cb	-0.04674129
30	0x3d0af970	0.03392929
31	0xbdfc8824	-0.12330654
32	0x3e1432b2	0.14472464
33	0x3e26b800	0.16281128
34	0x3e0bcb6a	0.13651815
35	0x3d1789f0	0.03699678
36	0xbd2eacf4	-0.04264541
37	0x3db3e6a7	0.08784228
38	0xbdc42416	-0.09577195
39	0x3d4253d3	0.047443222
40	0xbe3d9cb5	-0.1851681
41	0x3ca17797	0.019710345
42	0xbd0a7fae	-0.03381317
43	0xbe302534	-0.17201692
44	0xbe00a56f	-0.12563108
45	0x3e3c0a98	0.18363416
46	0x3d74d853	0.059776615
47	0x3e04cc78	0.12968624
48	0xbde31ef3	-0.110898875
49	0x3e3452f9	0.17609777
50	0xbdee37ba	-0.11631723
51	0xbe4c0992	-0.19925526
52	0xbddcb252	-0.107761994
53	0x3dcc0af9	0.0996303
54	0x3dcde05a	0.10052557
55	0x3e1e7233	0.15473251
56	0x3d986187	0.07440477
57	0xbdb0899d	-0.08619998
58	0x3d11fa38	0.035639018
59	0x3df6ae35	0.12044946
60	0x3e0a7134	0.13519746
61	0x3e4f8e39	0.20269097
62	0xbdcf8488	-0.101327
63	0x3db30021	0.08740259
64	0x3de35429	0.11100037
65	0x3dcd8019	0.10034198
66	0xbd9eec0f	-0.07759868
67	0x3d4508a7	0.048103955
68	0x3c2b853c	0.010468777
69	0x3e48ef4d	0.19622536
70	0xbd965f67	-0.07342415
71	0xbe3deb96	-0.185469
72	0x3c3d27a3	0.011545095
73	0x3dced5b2	0.10099353
74	0xb99db936	-0.00030083366
75	0x3e3657a9	0.17806877
76	0x3d2bf82b	0.04198472
77	0xbd0e8fca	-0.034805097
78	0xbd857b2a	-0.06517632
79	0x3d546a02	0.05185891
80	0xbe3e06b0	-0.18557239
81	0xbc020b69	-0.007937291
82	0xbe086a26	-0.13321742
83	0x3d9e4853	0.077286385
84	0x3de520fa	0.111879304
85	0x3dedd74c	0.1161333
86	0xbdec32e6	-0.115331456
87	0xbe1aa25f	-0.15101002
88	0xbd9d3108	-0.076753676
89	0x3e380fa6	0.1797472
90	0x3e2bcd71	0.16777588
91	0x3da9bd7e	0.08288096
92	0x3e490e2f	0.19634317
93	0x3d9e435d	0.07727692
94	0x3d17f598	0.03709945
95	0xbda70503	-0.08155253
96	0x3d1c4882	0.038155086
97	0x3bf6e492	0.007534572
98	0x3c00f6fe	0.0078713875
99	0xbd37d310	-0.04487902
100	0xbdbdb755	-0.092634834
101	0xbb90c2c6	-0.00441775
102	0xbe265df0	-0.16246772
103	0x3e0f7947	0.14011107
104	0x3e3080cd	0.17236634
105	0xbdc2e07a	-0.09515472
106	0x3b1dbd09	0.0024068973
107	0x3e4e5835	0.20150836
108	0x3e3b16c4	0.18270403
109	0x3dff64aa	0.12470372
110	0xbdefbe02	-0.11706163
111	0x3de0ad05	0.10970501
112	0x3e48f709	0.19625486
113	0x3ce58929	0.028019505
114	0x3db26c41	0.08712054
115	0x3af6cde6	0.0018829673
116	0xbcb27e74	-0.021788813
117	0x3e204ddf	0.15654705
118	0x3d852316	0.06500833
119	0xbe4b9e5e	-0.19884631
120	0x3b9084e6	0.004410374
121	0x3e17ff4b	0.1484348
122	0xbcf0a737	-0.02937661
123	0xbe3fdfce	-0.18737718
124	0x3d757902	0.059929855
125	0xbe3d0d17	-0.18462025
126	0xbe2035b0	-0.1564548
127	0xbdaa554b	-0.083170496
128	0xbe3ee658	-0.18642557
129	0x3db8292f	0.0899223
130	0x3e00d656	0.12581763
131	0xbd45bd4d	-0.048276234
132	0x3e34df5f	0.17663334
133	0xbd97f551	-0.07419837
134	0x3dc88ff4	0.09793082
135	0xbe363db5	-0.17796977
136	0x3df45613	0.1193048
137	0xbd9600e2	-0.07324387
138	0xbd91c46f	-0.07117545
139	0xbdebff08	-0.11523253
140	0xbe126ca9	-0.14299263
141	0x3dd93fde	0.10607885
142	0x3e202a04	0.15641028
143	0x3c1ff2c0	0.009762466
144	0xbd97f88c	-0.074204534
145	0x3e01c1b7	0.12671553
146	0x3d830574	0.063975245
147	0x3e1540d2	0.14575508
148	0x3d0ee48f	0.03488594
149	0xbd504673	-0.050848436
150	0xbe1b163f	-0.15145205
151	0xbe4f5b86	-0.20249757
152	0x3cdd0172	0.026978228
153	0xbe36b48c	-0.1784231
154	0x3d366263	0.044527423
155	0x3e38d6c2	0.18050674
156	0xbc7cca37	-0.015429071
157	0xbd87ff03	-0.066404365
158	0x3dc3f894	0.09568897
159	0x3e451ccc	0.19249266
160	0x3e2899fa	0.16464987
161	0x3dfe4989	0.124163695
162	0xbe2f40c2	-0.17114547
163	0xbda69a45	-0.08134893
164	0xbe48f555	-0.19624837
165	0xbc9140b6	-0.017731052
166	0xbcd04505	-0.025423536
167	0xbe0de5e3	-0.13857226
168	0x3da1e982	0.07905866
169	0x3e13d915	0.14438279
170	0x3e147b51	0.14500166
171	0x3d91234b	0.0708681
172	0x3d3af1d2	0.045640774
173	0xbd20d316	-0.039263807
174	0xbd8efeaf	-0.06982171
175	0x3e391dee	0.18077824
176	0xbe0ddf59	-0.13854732
177	0x3bf27115	0.0073987343
178	0xbe4a4fe0	-0.19757032
179	0xbe1c739c	-0.15278476
180	0xbd8bb6e8	-0.06821996
181	0x3e026ba9	0.12736382
182	0x3def2164	0.11676291
183	0xbddc5b1f	-0.107595675
184	0x3d329b42	0.043605097
185	0x3c53784b	0.012907098
186	0x3d8ee389	0.06976993
187	0x3e2bbd0e	0.16771337
188	0x3e50f578	0.20406139
189	0x3caf09e7	0.021367026
190	0x3d0aa76f	0.033851083
191	0xbc67c45f	-0.01414594
192	0xbe4f99ac	-0.20273465
193	0x3ca0e91c	0.019642405
194	0xbd667ad7	-0.056269493
195	0x3c89f723	0.016841477
196	0x3e37ff35	0.17968448
197	0xbd91232b	-0.07086786
198	0x3e02db9b	0.12779085
199	0xbe330c23	-0.17485099
200	0x3df0b072	0.11752404
201	0xbc84de95	-0.016219417
202	0xbce82799	-0.028339194
203	0xbdaaf90d	-0.08348284
204	0xbd8d8c00	-0.069114685
205	0x3d29ccdd	0.04145514
206	0xbe037ac2	-0.12839797
207	0x3e0af838	0.1357125
208	0x3e44f09f	0.19232415
209	0x3e0c7a53	0.13718538
210	0xbd9749ad	-0.073870994
211	0x3e1c7cbb	0.15281956
212	0x3e46bf1a	0.19408837
213	0x3e1ec3c2	0.15504363
214	0xbe29b0f3	-0.16571407
215	0xbe16d4a3	-0.14729552
216	0x3c596b39	0.013270193
217	0xbe283b97	-0.16428982
218	0x3dc62945	0.0967584
219	0x3d8ac8a8	0.067765534
220	0xbbfb4cb6	-0.0076690568
221	0xbe227867	-0.15866242
222	0x3dda640c	0.10663614
223	0xbbeec717	-0.007286917
224	0x3e12d2a5	0.14338167
225	0xbe2a0df6	-0.16606888
226	0xbddfbc2b	-0.10924562
227	0xbe41034c	-0.18848914
228	0x3e422e4e	0.18962976
229	0x3dfe33b1	0.12412203
230	0xbd7b6af4	-0.061381295
231	0x3da4570e	0.08024417
232	0x3e3d5a4e	0.1849148
233	0x3d573faa	0.05255095
234	0x3e3d164b	0.18465535
235	0xbdd9a5ea	-0.10627349
236	0xbc97465b	-0.018466165
237	0x3d95cb5a	0.07314177
238	0x3dff2cab	0.124596916
239	0x3a3a3dc8	0.0007104543
240	0x3dce0bfc	0.100608796
241	0x3d14e8b4	0.036354735
242	0x3e2dbfc1	0.1696768
243	0xbe2e94bc	-0.17048925
244	0xbe097fef	-0.13427709
245	0x3e4c1924	0.19931465
246	0x3cefe93f	0.029286025
247	0xbdbd200f	-0.0923463
248	0xbe137803	-0.1440125
249	0x3e4986ae	0.19680282
250	0xbe19375d	-0.14962526
251	0xbe151a5c	-0.14560837
252	0x3d3a391f	0.04546463
253	0x3daba180	0.08380413
254	0x3da6b4ca	0.081399515
255	0xbe3df737	-0.18551336

layers.1.weight f4 [256, 512]
0	0x3d9fb451	0.077980645
1	0xbe39278b	-0.1808149
2	0xbea30c85	-0.3184549
3	0x3e8829e4	0.2659446
4	0xbe173795	-0.14767297
5	0xbcc67f04	-0.024230488
6	0x3d98f308	0.074682295
7	0xbc352c5f	-0.011057942
8	0xbdd42e88	-0.10360438
9	0x3d200855	0.039070446
10	0x3d32233c	0.043490633
11	0x3e0d7204	0.13813025
12	0x3d12c798	0.03583488
13	0x3ea02073	0.31274757
14	0xbe2d8e81	-0.16948892
15	0x3d818e30	0.06325948
16	0xbaace59d	-0.0013190989
17	0x3d78b530	0.06071967
18	0x3cd9c62f	0.02658376
19	0x3cc76c7d	0.024343723
20	0xbd9db361	-0.077002294
21	0xbd62c755	-0.05536588
22	0x3cdb55f3	0.026774382
23	0x3d516866	0.051124953
24	0x3d6c5cb5	0.0577056
25	0xb884ac8e	-6.326391e-05
26	0x3e9e5dda	0.30930978
27	0x3cd468b6	0.025928836
28	0xbd96e49a	-0.07367821
29	0xbe09b914	-0.13449508
30	0xbcc08e09	-0.023505228
31	0x3cd065da	0.025439192
32	0xbce068f8	-0.027393803
33	0xbd3c701e	-0.04600536
34	0x3db9f761	0.09080387
35	0xbc597bc6	-0.013274139
36	0xbaa0dced	-0.0012272872
37	0x3dd61ef1	0.1045512
38	0xbcd078a2	-0.025448147
39	0x3cd80b0b	0.026372453
40	0x3e2073b3	0.15669136
41	0x3e12420d	0.14283009
42	0x3ca39722	0.019969527
43	0x3dc11d30	0.09429395
44	0x3dcfa0a2	0.1013806
45	0xbd82ec4a	-0.06392725
46	0x3d9a527a	0.075352624
47	0xbdb94f7d	-0.09048364
48	0xbc41d575	-0.011830677
49	0xbe430cb6	-0.19047818
50	0x3dc61750	0.09672415
51	0x3ce2a061	0.027664365
52	0x3d6cfa4b	0.057855885
53	0xbe101093	-0.14068823
54	0x3e418596	0.18898615
55	0xbd7fefa9	-0.062484417
56	0x3e478d48	0.19487488
57	0x3d1b4a4b	0.03791265
58	0x3c31336d	0.0108154835
59	0x3da208c5	0.07911829
60	0xbcdc4a3c	-0.026890866
61	0xbe2799d7	-0.16367279
62	0xbdd92440	-0.10602617
63	0xbdf1e02a	-0.11810334
64	0x3cbfcc38	0.023412809
65	0xbd55e45f	-0.052219745
66	0xbd39998e	-0.045312457
67	0xbb0f1ef2	-0.0021838513
68	0xbb52bb0b	-0.0032154943
69	0xbdb08fa4	-0.08621147
70	0xbdfd3c32	-0.12364997
71	0xbda53643	-0.0806699
72	0x3d7a681b	0.06113444
73	0xbd3c41d9	-0.045961235
74	0x3dfebb86	0.12438111
75	0x3cefdac3	0.029279118
76	0x3e104934	0.14090425
77	0xbc85da36	-0.016339403
78	0xbdc6ba6f	-0.09703528
79	0x3e4e1218	0.2012409
80	0xbb1fefe6	-0.0024404465
81	0x3d4ccc9e	0.049999826
82	0x3ddc2f92	0.10751261
83	0x3c2be2ba	0.010491068
84	0x3da61a9a	0.081105426
85	0xbc36123b	-0.011112745
86	0xbe5fe848	-0.21865952
87	0x3c633175	0.013866772
88	0x3df209dd	0.118182875
89	0xbd641f64	-0.055694
90	0x3dcdb54d	0.10044346
91	0xbe8b0255	-0.27150217
92	0x3d9a00ee	0.075197086
93	0x3d391a47	0.045191076
94	0xbc875fd3	-0.016525185
95	0x3d389cbd	0.045071352
96	0x3d8f1f60	0.06988406
97	0x3e09ee74	0.13469869
98	0x3c2b982f	0.010473295
99	0xbd3bc63a	-0.04584334
100	0xbc1060bf	-0.008812129
101	0x3dbc5cd4	0.09197393
102	0x3ce560ae	0.028000202
103	0x3ccb9c45	0.024854789
104	0x3c8308db	0.015995434
105	0xbe2a8bd5	-0.16654904
106	0xbd375ca3	-0.04476608
107	0xba0fb38c	-0.00054817717
108	0x3c7d535d	0.01546177
109	0xbd564222	-0.052309163
110	0xbe890658	-0.26762652
111	0x3dd85654	0.10563341
112	0xbd461a75	-0.048365075
113	0x3d003004	0.03129579
114	0x3c78cdd8	0.015185796
115	0xbdec3a6f	-0.11534583
116	0x3d82687a	0.063675836
117	0xbe05255a	-0.1300253
118	0xbe5da14b	-0.2164356
119	0x3b196b8d	0.0023410053
120	0x3d2a7309	0.041613612
121	0xbe49a983	-0.1969357
122	0x3e046e7c	0.12932771
123	0xbd1dd962	-0.03853739
124	0xbdc103fd	-0.09424589
125	0x3c9b437e	0.018953081
126	0xbd36a5f8	-0.044591874
127	0x3d9b86d0	0.07594073
128	0xbe13bcee	-0.1442754
129	0xbe34e171	-0.17664124
130	0x3aac76f6	0.0013158012
131	0x3d95dfaa	0.07318051
132	0xbe110e6a	-0.14165655
133	0x3df5b8ce	0.11998139
134	0x3cb99bff	0.022657393
135	0xbe8fdb9c	-0.28097236
136	0x3d567ce1	0.052365188
137	0x3d88107f	0.066437714
138	0xbdd54590	-0.104136586
139	0x3cf83c85	0.030302295
140	0xbd2ca433	-0.04214878
141	0x3c6eff30	0.014587209
142	0xbd3f42ed	-0.046694685
143	0x3d96d978	0.073656976
144	0xbec6467c	-0.3872565
145	0xbe38dce3	-0.18053012
146	0x3e19435c	0.14967102
147	0x3dfc922f	0.1233257
148	0xbdf14e49	-0.1178251
149	0xbdf20768	-0.11817819
150	0xbe0cef63	-0.13763194
151	0xbd703e26	-0.05865302
152	0x3ccf6180	0.025315046
153	0xbd4b7fd5	-0.049682457
154	0xbd162462	-0.03665579
155	0xbc14f0b4	-0.009090591
156	0xbcb543cd	-0.022127056
157	0xbdff0a63	-0.12453153
158	0x39bae2bd	0.00035645618
159	0x3e0915fb	0.13387291
160	0x3cd5a0a6	0.02607758
161	0x3cb15b9d	0.02165013
162	0xbd603f4c	-0.054747865
163	0xbbfc3ec8	-0.007697914
164	0xbe032f72	-0.12811068
165	0xbc577368	-0.013150074
166	0xbdc3af2a	-0.09554894
167	0xbd652914	-0.05594738
168	0xbd9b57a6	-0.07585077
169	0xbe01d4c1	-0.12678815
170	0x3d27863c	0.0408995
171	0xbd62cab1	-0.055369083
172	0xbdc63719	-0.09678478
173	0xbe210203	-0.15723424
174	0xbeaa4969	-0.33259133
175	0x3dc71a46	0.09721808
176	0x3c66f833	0.014097261
177	0x3c236298	0.009972237
178	0x3dc325af	0.09528672
179	0xbd4c2d69	-0.049847994
180	0x3d8b6d63	0.06807973
181	0x3d6a023f	0.05713105
182	0xbd24764b	-0.040151875
183	0xbd5c4a2e	-0.05378168
184	0x3e4dfa66	0.2011505
185	0x3ce83aaf	0.028348295
186	0xbd02f372	-0.03197045
187	0xbcf741df	-0.030182777
188	0xbe65721e	-0.22406814
189	0xbdbf51a4	-0.093417436
190	0xbe185dc8	-0.14879525
191	0x3c0f3bd9	0.008742296
192	0xbe0034eb	-0.12520187
193	0x3e132676	0.1437014
194	0xbd741059	-0.059585903
195	0xbddd0f6c	-0.10793957
196	0x3e0af95b	0.13571684
197	0x3da8326e	0.08212744
198	0xbc6be55d	-0.014397946
199	0xbdf229bb	-0.11824366
200	0x3d7b9bfa	0.061428048
201	0x3df17036	0.11788981
202	0x3c38b854	0.011274416
203	0xbd9b52c4	-0.07584146
204	0x3ded4e9b	0.115872584
205	0xbd0a0249	-0.033693586
206	0x3e2f5d03	0.17125325
207	0x3e147aaf	0.14499925
208	0xbd43a14c	-0.047761247
209	0xbdbbebf2	-0.09175862
210	0x3e28b908	0.16476834
211	0xbe0846b2	-0.13308218
212	0xbdc3e95a	-0.09565993
213	0x3c1dc7d5	0.009630163
214	0x3ccd01d9	0.025025295
215	0xbd7ef65f	-0.062246677
216	0xbdbcf920	-0.09227204
217	0x3d018a5f	0.0316261
218	0xbca44db2	-0.02005658
219	0xbdff761f	-0.12473702
220	0xbcfcf4a4	-0.030878372
221	0x3d806dce	0.062709436
222	0x3c18cf11	0.009326712
223	0x3c4c5f65	0.012473916
224	0x3cb51ed9	0.022109436
225	0xbe102766	-0.1407753
226	0xbd3c1190	-0.045915186
227	0x3e02ac18	0.12760961
228	0xbd439728	-0.047751576
229	0xbd8b7c8c	-0.06810865
230	0x3cb2a65f	0.021807848
231	0x3cd8fc85	0.026487598
232	0x3e5c9c82	0.21544078
233	0xbd96e6b0	-0.07368219
234	0x3cd8d6e4	0.026469655
235	0x3d9d6943	0.07686093
236	0x3d5c42ce	0.053774647
237	0x3c0dd954	0.008657772
238	0xbdfe00c5	-0.124024905
239	0xbd707a51	-0.0587104
240	0x3c53007c	0.012878533
241	0x3da14af2	0.07875623
242	0xbe3be6ac	-0.18349713
243	0x3d63531c	0.05549918
244	0xbcba7b00	-0.02276373
245	0xbc24909a	-0.010044241
246	0xbd91e2e6	-0.071233556
247	0x3d827201	0.06369401
248	0x3d229fb1	0.039703075
249	0x3d33a944	0.043862596
250	0x3e24cbc7	0.1609336
251	0x3e0c3f84	0.13696104
252	0xbdbc30c8	-0.09188992
253	0x3c9b5944	0.018963464
254	0x3d08d915	0.03341015
255	0x3d0c482b	0.034248512

layers.1.bias f4 [256]
0	0xbcd8bde6	-0.026457738
1	0xbdb6d002	-0.08926393
2	0xbdde8497	-0.10865133
3	0x3db2041e	0.086921915
4	0x3d9ed60e	0.077556714
5	0x3d52056b	0.0512747
6	0xbd8e5cf2	-0.06951322
7	0xbd9de7a6	-0.07710199
8	0xbda6c894	-0.08143726
9	0x3d47baab	0.048762005
10	0xbdd291a5	-0.10281686
11	0xbe21410d	-0.15747471
12	0xbe4a8434	-0.19776994
13	0x3d65db0a	0.056117095
14	0x3d9f2171	0.0777005
15	0xbcb1049e	-0.021608647
16	0xbe6315ca	-0.2217628
17	0x3d178281	0.036989693
18	0x3dbf7d06	0.09350018
19	0x3b6a4abe	0.0035750116
20	0xbd2e39e1	-0.042535666
21	0x3d93d0d9	0.07217569
22	0x3cabc33b	0.020967117
23	0xbc061c16	-0.008185407
24	0xbe19c70a	-0.15017334
25	0x3d7cb295	0.061693747
26	0x3d0f669e	0.035009973
27	0x3cbd2f37	0.023093803
28	0xbe0564f3	-0.1302679
29	0xbd539ef7	-0.051665273
30	0x3d212c77	0.039349046
31	0x3b038314	0.0020067142
32	0xbdd254b5	-0.10270063
33	0x3dec2ae4	0.11531618
34	0xbe8b1688	-0.27165627
35	0xbe2e7e31	-0.17040326
36	0x3d39a2fb	0.045321446
37	0xbd8958a0	-0.06706357
38	0x3d3dd009	0.046340976
39	0x3dfd67aa	0.12373288
40	0xbe0acefe	-0.13555524
41	0x3e143d43	0.14476494
42	0xbe18c740	-0.14919758
43	0x3d6d1249	0.057878766
44	0x3e234fc3	0.15948395
45	0xbd6902f1	-0.05688757
46	0x3db6803b	0.08911177
47	0xbd8db1a4	-0.06918648
48	0xbd80a54b	-0.06281527
49	0xbe722006	-0.23645028
50	0xbd3c15d4	-0.045919254
51	0x3cc4c4d1	0.02401963
52	0x3e0f57cd	0.13998337
53	0x3daa55d3	0.08317151
54	0xbe3f9ad7	-0.1871141
55	0xbc2ff6a3	-0.010739955
56	0xbd27c613	-0.040960383
57	0x3d35124e	0.04420691
58	0xbdc42c63	-0.095787786
59	0xbe636c31	-0.2220924
60	0x3d106cdb	0.035260063
61	0x3da73394	0.081641346
62	0x3d90918f	0.07059013
63	0xbe556bb9	-0.20841874
64	0x3c75008a	0.014953742
65	0xbd780ba3	-0.060557973
66	0x3e10cbb0	0.141402
67	0x3d4574d6	0.048207127
68	0x3d7f2b48	0.062297136
69	0x3d6bcfb9	0.057571147
70	0xbd95208e	-0.072816
71	0xbe00b51a	-0.12569085
72	0xbde2b24e	-0.11069165
73	0xbd858101	-0.06518746
74	0xbdbe5868	-0.09294206
75	0xbd4eb786	-0.05046799
76	0xbbb8d2dd	-0.0056403712
77	0x3db27f97	0.08715742
78	0xbe06d8d0	-0.13168645
79	0x3df2886e	0.11842428
80	0x3d3fc5b6	0.04681941
81	0x3cb5e53a	0.02220403
82	0x3d1d061f	0.038335916
83	0xbdde09e5	-0.10841731
84	0xbe19560a	-0.14974228
85	0xbdb0013d	-0.08593986
86	0xbe49607a	-0.19665709
87	0xbe1b859d	-0.15187688
88	0xbc045373	-0.0080765365
89	0xbdaab915	-0.08336083
90	0x3decba9d	0.11559031
91	0x3c18e537	0.009331993
92	0xbe4956fb	-0.19662087
93	0xbdd12bab	-0.10213407
94	0x3dc36c6f	0.095421664
95	0x3dae3b34	0.08507386
96	0x3c83c0f6	0.016083222
97	0x3ce64b43	0.02811206
98	0x3da187be	0.07887219
99	0xbd49858f	-0.049199637
100	0xbe0e39d7	-0.13889252
101	0xbcc79740	-0.024364114
102	0x3debb221	0.11508585
103	0xbdb0efd4	-0.086394936
104	0xbd90137b	-0.070349656
105	0xbd528a41	-0.05140138
106	0xbe39210b	-0.18079011
107	0x3c82f6b6	0.015986782
108	0xbd357a6e	-0.04430621
109	0x3cdbfec1	0.026854875
110	0xbd3069e1	-0.043069724
111	0xbb7d2e63	-0.0038632385
112	0x3cb8a4d4	0.022539534
113	0x3ddfdc4d	0.10930691
114	0x3df08887	0.117447905
115	0xbd52a410	-0.051425993
116	0x3cf1a173	0.02949593
117	0xbddd2683	-0.10798361
118	0xbe7f2b33	-0.24918823
119	0xbd7e1272	-0.06202931
120	0xbc1fc0dc	-0.009750571
121	0xbd3275ef	-0.0435695
122	0x3cbb2dd2	0.022848997
123	0xbdbccf71	-0.09219254
124	0xbcd67c82	-0.026182417
125	0xbdffe595	-0.12494961
126	0x3d05bd3a	0.032651164
127	0x3d7413ab	0.05958907
128	0xbda1a8cd	-0.07893524
129	0x3d9fc410	0.07801068
130	0x3e06cf3e	0.13164994
131	0xbc8d747e	-0.017267462
132	0x3e101ab4	0.14072686
133	0x3e44eea6	0.19231662
134	0x3d7a2eaa	0.06107966
135	0x3c6622e0	0.014046401
136	0x3d1e3a69	0.038629923
137	0x3dad8def	0.08474337
138	0xbe6e9163	-0.23297648
139	0xbe3385da	-0.17531529
140	0xbe81513f	-0.25257298
141	0xbe14d3c3	-0.14533906
142	0x3d8cfc7f	0.06884097
143	0xbda901f7	-0.08252328
144	0xbcc24d19	-0.023718404
145	0x3dfbd930	0.122972846
146	0xbe562d5d	-0.20915742
147	0x3d82f566	0.06394462
148	0xbde97e6e	-0.11401068
149	0x3e1a4d58	0.15068567
150	0xbc13fee4	-0.009032939
151	0xbea41954	-0.32050574
152	0xbe1d0c37	-0.15336691
153	0x3d6c0a23	0.057626855
154	0xbb28d275	-0.0025760208
155	0x3dea9bae	0.11455475
156	0x3e05b8c5	0.13058765
157	0xbc5b48f1	-0.01338409
158	0xbddcb20b	-0.107761465
159	0x3dc37168	0.09543115
160	0xbe1b35be	-0.1515722
161	0xbd8194e2	-0.06327225
162	0xbd89cc6d	-0.06728444
163	0xbea97d38	-0.33103347
164	0x3df2c65e	0.11854242
165	0xbdb01f7f	-0.085997574
166	0xbe086154	-0.13318378
167	0x3d67871c	0.056525335
168	0xbc75a104	-0.014992002
169	0x3d99ca11	0.07509244
170	0x3a861afb	0.001023143
171	0xbd44f821	-0.048088197
172	0x3d9595f3	0.07303991
173	0x3d0ee30f	0.03488451
174	0x3d1413c5	0.036151666
175	0xbe3a7061	-0.18206932
176	0x3d0e4603	0.034734737
177	0xbd6b17a4	-0.057395592
178	0xbd2e871f	-0.04260933
179	0xbd6aa61c	-0.05728732
180	0xbdbedc69	-0.09319384
181	0x3d562d4c	0.052289292
182	0xbe102309	-0.14075865
183	0x3d0221e1	0.03177059
184	0x3d394260	0.045229316
185	0xbcfaafdd	-0.030601436
186	0xbdcb2d1b	-0.099207126
187	0x3cca6f6e	0.024711337
188	0xbd54e982	-0.051980503
189	0x3c95d888	0.018291727
190	0xbd9529ee	-0.07283388
191	0xbdff3f22	-0.124632135
192	0x3d07a924	0.03312029
193	0x3c4f2380	0.012642741
194	0x3db1cf85	0.08682159
195	0xbd1a8c07	-0.037731197
196	0x3e077747	0.13229094
197	0x3dbac261	0.09119106
198	0xbe11b7aa	-0.14230219
199	0xbe3b134b	-0.18269078
200	0xbd9509c1	-0.07277251
201	0x3d6e19f2	0.058130212
202	0xbe283df0	-0.16429877
203	0xbe23ce93	-0.1599677
204	0xbac95b67	-0.0015362323
205	0xbc9ce504	-0.019152172
206	0x3e0d4501	0.13795854
207	0x3d192cf2	0.03739638
208	0xbdb04c7f	-0.086083405
209	0xbc84c420	-0.016206801
210	0x3e054371	0.13014008
211	0xbe1cb83c	-0.15304655
212	0x3dcaabe0	0.09896064
213	0xbe0cc161	-0.13745643
214	0x3dc46c56	0.09590976
215	0x3d1d4747	0.038398053
216	0xbcb12821	-0.02162558
217	0xbcaaa7d2	-0.020831976
218	0xbd8b18d1	-0.06791843
219	0x3dfa17ff	0.12211608
220	0x3cff54c0	0.031168342
221	0xbe14edac	-0.1454379
222	0x3c878738	0.01654397
223	0x3d760190	0.060060084
224	0xbdd74edc	-0.10513088
225	0x3df3b3a3	0.11899497
226	0xbe2081e8	-0.15674555
227	0xbd739e7b	-0.05947731
228	0x3dbbe2bc	0.091741055
229	0xbd845029	-0.06460602
230	0x3d848364	0.06470373
231	0xbd1dde1f	-0.03854191
232	0xbd6e59e2	-0.058191188
233	0xbcad0ccb	-0.021124264
234	0x3d441011	0.047866885
235	0xbd95b4c6	-0.073098704
236	0x3dd2c5f5	0.102916636
237	0x3d50594f	0.05086642
238	0xbd63f874	-0.055656865
239	0x3d64af94	0.055831507
240	0xbcdbfeed	-0.026854957
241	0x3d97bf5a	0.07409544
242	0x3d76ff07	0.060301807
243	0x3dab82bc	0.08374545
244	0xbdb40f00	-0.087919235
245	0x3aa8a297	0.0012865838
246	0xbda22461	-0.07917095
247	0x3d57dbc4	0.05269982
248	0x3cc8f85e	0.024532493
249	0x3c87b26f	0.016564576
250	0xbd472a6a	-0.048624434
251	0xbc862e45	-0.016379485
252	0xbe3180fc	-0.1733436
253	0x3b2c41fc	0.0026284447
254	0xbc3a60bf	-0.011375605
255	0xbd17f655	-0.037100155

bn.0.weight f4 [512]
0	0x3f3498de	0.70545757
1	0x3ebe5d2f	0.37180468
2	0x3f8253f2	1.0181868
3	0x3eb61d16	0.35569066
4	0x3fbd29b4	1.4778352
5	0x3e0c4082	0.13696483
6	0x3f191afe	0.5980681
7	0x3ec9a2fe	0.39382166
8	0x3eedac6a	0.46420604
9	0x3f3ce233	0.7378265
10	0x3f74c076	0.9560617
11	0x3f7ebd3b	0.9950749
12	0x3f850685	1.0392615
13	0x3f3b225b	0.730993
14	0x3ef27549	0.47355106
15	0x3e4d5936	0.20053563
16	0x3f2ad07e	0.66724384
17	0x3f3e89bc	0.74428916
18	0x3e8e6e73	0.2781864
19	0x3ec13af8	0.37740302
20	0x3f7b01e9	0.9804979
21	0x3f65dba8	0.89788294
22	0x3f2d2858	0.67639685
23	0x3f1a676c	0.6031406
24	0x3f2dee69	0.6794191
25	0x3f2d07e6	0.6759018
26	0x3eaf279a	0.342099
27	0x3ee69cb9	0.45041445
28	0x3fa94c73	1.3226455
29	0x3f4d4571	0.80184084
30	0x3f34c812	0.70617783
31	0x3f7865b2	0.97030175
32	0x3ea2aba2	0.3177157
33	0x3f4b3b23	0.7938711
34	0x3e945ff8	0.28979468
35	0x3f483cd3	0.7821781
36	0x3f21ab31	0.6315184
37	0x3f1a1576	0.60188997
38	0x3f7ae5ab	0.98006696
39	0x3f897b96	1.074084
40	0x3f1e9f9a	0.6196228
41	0x3edf4b5c	0.43612182
42	0x3ef8fa6f	0.48628566
43	0x3f543b7e	0.8290328
44	0x3f421c35	0.7582429
45	0x3eb396ab	0.35075888
46	0x3f564924	0.83705354
47	0x3fa88400	1.3165283
48	0x3f9faaa0	1.2473946
49	0x3efd0697	0.4941909
50	0x3eef7ff0	0.46777296
51	0x3ee0b70d	0.43889657
52	0x3f48bd19	0.7841354
53	0x3f5fc9b2	0.8741714
54	0x3f8d174f	1.1022738
55	0x3e8d0f15	0.2755057
56	0x3f3f740d	0.74786454
57	0x3ec99586	0.3937189
58	0x3eb191ad	0.34681454
59	0x3f224c8a	0.6339804
60	0x3f2486fe	0.6426848
61	0x3f2a05e7	0.66415256
62	0x3ee9faaa	0.45699054
63	0x3e86785f	0.2626371
64	0x3f368c54	0.71307874
65	0x3f2d45b3	0.6768448
66	0x3f08fb38	0.5350833
67	0x3f51eddd	0.82003576
68	0x3e76dba8	0.2410723
69	0x3efced90	0.49399996
70	0x3f444fe8	0.7668443
71	0x3f92eb69	1.1478091
72	0x3ee42601	0.44560245
73	0x3f06e8f2	0.52699196
74	0x3f0d6b2c	0.55241656
75	0x3fba5ea3	1.4560131
76	0x3f085b47	0.5326428
77	0x3ebe6aa7	0.37190744
78	0x3f8e6755	1.1125284
79	0x3f779326	0.96708906
80	0x3f634e56	0.88791406
81	0x3f46a4bb	0.7759511
82	0x3f018124	0.5058768
83	0x3e8ad99e	0.27119154
84	0x3ed318ea	0.41229945
85	0x3f0656a1	0.52475935
86	0x3f2fbd82	0.6864854
87	0x3f2211fe	0.63308704
88	0x3f04ff86	0.519524
89	0x3f593f41	0.8486214
90	0x3f462115	0.7739423
91	0x3f2a67c7	0.665646
92	0x3f995ddc	1.1981769
93	0x3f870c94	1.0550714
94	0x3ebd5db2	0.36985546
95	0x3f050f2f	0.51976293
96	0x3f180024	0.59375215
97	0x3e9ef388	0.31045175
98	0x3f6b41dc	0.9189737
99	0x3f7401a1	0.95314986
100	0x3f0c61a8	0.5483651
101	0x3eed7ca3	0.46384153
102	0x3e4125e8	0.18862116
103	0x3f2acf3f	0.6672248
104	0x3ea43908	0.3207476
105	0x3ee8567d	0.45378485
106	0x3f5a70a2	0.85328114
107	0x3ecd836f	0.40139338
108	0x3f3f384a	0.74695265
109	0x3f4affbe	0.7929648
110	0x3e7be225	0.24597986
111	0x3f3d24e4	0.73884416
112	0x3f1db233	0.61600035
113	0x3f020efb	0.5080411
114	0x3eeeb4cd	0.46622315
115	0x3ed34628	0.41264462
116	0x3f22a17c	0.63527656
117	0x3f18f91a	0.597551
118	0x3e79dcaa	0.24400583
119	0x3e057fcb	0.1303703
120	0x3f695b40	0.9115486
121	0x3e3d533b	0.18488781
122	0x3ec24979	0.3794668
123	0x3e8d492d	0.2759489
124	0x3df05335	0.117346205
125	0x3f09a2bb	0.5376393
126	0x3f709288	0.9397359
127	0x3f07eae3	0.53092784
128	0x3ed4ad1c	0.41538322
129	0x3ee77cc3	0.45212373
130	0x3f326027	0.69677967
131	0x3fce78b6	1.6130588
132	0x3f9618e9	1.1726352
133	0x3f3c7237	0.7361178
134	0x3f142580	0.5786972
135	0x3e984a76	0.2974431
136	0x3f1bdfa5	0.6088813
137	0x3f1f4432	0.6221343
138	0x3f337e26	0.7011436
139	0x3f8dbab6	1.1072605
140	0x3f0f3ec8	0.5595517
141	0x3f5278d3	0.82215613
142	0x3f182d6f	0.59444326
143	0x3f86832c	1.050878
144	0x3f2343bd	0.63775235
145	0x3f66a99d	0.9010256
146	0x3f11dac7	0.5697445
147	0x3f081e43	0.53171176
148	0x3f529bd2	0.8226901
149	0x3f8104ac	1.0079551
150	0x3f1a3661	0.60239226
151	0x3f6adee1	0.91746336
152	0x3f190c7f	0.5978469
153	0x3e909538	0.28238845
154	0x3f4a6a5a	0.7906853
155	0x3f82b2fb	1.021087
156	0x3f69b58b	0.9129264
157	0x3f2ae479	0.6675487
158	0x3eeec923	0.4663783
159	0x3eb84b4a	0.3599494
160	0x3f69d97e	0.9134749
161	0x3f5c4e6a	0.8605715
162	0x3e87bba3	0.26510343
163	0x3f2ac1b0	0.66701794
164	0x3f3636d4	0.7117741
165	0x3f1df3a7	0.6169991
166	0x3eeb2c59	0.45932272
167	0x3efc4688	0.4927256
168	0x3f36cafe	0.7140349
169	0x3efa5868	0.48895574
170	0x3f197783	0.59947985
171	0x3f19fe4d	0.6015366
172	0x3f2b6424	0.6694968
173	0x3f0fa528	0.56111383
174	0x3ebff04d	0.37488022
175	0x3f3a377f	0.7274093
176	0x3f19ca24	0.6007407
177	0x3f8ac2d5	1.0840708
178	0x3eef6ebb	0.46764168
179	0x3effae93	0.49937877
180	0x3f0a18be	0.53944004
181	0x3f9cd230	1.2251644
182	0x3e3f6455	0.18690617
183	0x3f83a3c8	1.0284357
184	0x3f2293f3	0.63507
185	0x3f3a0baa	0.7267405
186	0x3ee03d7d	0.43796912
187	0x3ead4682	0.33842856
188	0x3f0b0eb3	0.54319304
189	0x3f191b36	0.59807146
190	0x3ecdd03d	0.40197936
191	0x3f637d95	0.888635
192	0x3ec33473	0.38125953
193	0x3ee5ee2e	0.4490828
194	0x3f173c99	0.5907684
195	0x3f453e04	0.77047753
196	0x3f3362b3	0.7007248
197	0x3ec180f4	0.37793696
198	0x3e8b4c8c	0.27206838
199	0x3f98a298	1.192462
200	0x3f3b38a2	0.7313329
201	0x3fdc048a	1.7188885
202	0x3f3e789e	0.744028
203	0x3f8e1f53	1.1103309
204	0x3edbcfda	0.42932016
205	0x3f336083	0.7006914
206	0x3f72b338	0.94804716
207	0x3f87e9fc	1.0618281
208	0x3f04fa39	0.5194431
209	0x3e91d5d5	0.28483453
210	0x3f62bb7f	0.88567346
211	0x3ee60e52	0.449328
212	0x3f88bfc6	1.0683525
213	0x3ec1e002	0.37866217
214	0x3f4efc8f	0.80854124
215	0x3f28fa42	0.66006863
216	0x3f5abc52	0.85443604
217	0x3fa70594	1.3048577
218	0x3f78dfd9	0.97216564
219	0x3f1535e6	0.5828537
220	0x3f61e081	0.8823319
221	0x3f8ab6c6	1.0837028
222	0x3e346e16	0.1762012
223	0x3f81d68f	1.0143603
224	0x3f74fe10	0.9570017
225	0x3ef3d987	0.47626898
226	0x3f0f71be	0.5603293
227	0x3f4c775c	0.7986963
228	0x3e56d9fc	0.20981592
229	0x3f5fdfeb	0.87451047
230	0x3ef526a5	0.47881046
231	0x3f7c7b4c	0.98625636
232	0x3f521f2a	0.820788
233	0x3f0eca28	0.55777216
234	0x3f0fdcfa	0.5619656
235	0x3f4802ca	0.78129256
236	0x3f928902	1.1448061
237	0x3ee40af6	0.44539613
238	0x3f170fab	0.5900828
239	0x3e4708d6	0.19436964
240	0x3b10f009	0.0022115728
241	0x3f1ed59c	0.6204469
242	0x3eca4c03	0.39511117
243	0x3f4888d2	0.7833377
244	0x3f360289	0.7109762
245	0x3f471874	0.7777169
246	0x3f265068	0.6496644
247	0x3fc9c61a	1.5763581
248	0x3f05288a	0.5201498
249	0x3f5e4a64	0.8683226
250	0x3f8d8296	1.1055477
251	0x3f181c17	0.5941786
252	0x3f86bd55	1.052653
253	0x3f1ed9b8	0.6205096
254	0x3f9b4a5f	1.2132071
255	0x3f645cd5	0.8920415

bn.0.bias f4 [512]
0	0xbe2f2c0a	-0.17106643
1	0xbe750653	-0.23928194
2	0xbe943281	-0.2894478
3	0xbe923ac7	-0.2856047
4	0xbe42a92b	-0.19009845
5	0xbbe9e140	-0.0071374476
6	0x3d828942	0.06373836
7	0xbe164b8b	-0.14677255
8	0xbe144102	-0.14477924
9	0xbe9cbf00	-0.3061447
10	0xbe8200dd	-0.25391284
11	0x3dea4887	0.11439615
12	0xbe153647	-0.14571486
13	0xbec71a14	-0.38887084
14	0xbd18888d	-0.0372396
15	0xbe633e62	-0.22191766
16	0xbc6f0a6c	-0.014589887
17	0xbdeacd35	-0.114649214
18	0x3d51c715	0.05121525
19	0xbe504a4b	-0.2034084
20	0xbdfb96b5	-0.122846045
21	0xbe0721e0	-0.13196516
22	0xbcfdcbd8	-0.03098099
23	0x3d070c7a	0.032970883
24	0xbe8757b5	-0.26434103
25	0xbd5ce8d0	-0.053932965
26	0xbe48ac1a	-0.19596902
27	0xbea8329e	-0.32851118
28	0xbdbfbd58	-0.09362286
29	0xbe2f204f	-0.17102169
30	0x3daaa8f0	0.083330035
31	0xbc2d8484	-0.010590676
32	0x3c516ba2	0.012782009
33	0xbe17a4bb	-0.14808933
34	0xbe4f8605	-0.20265968
35	0xbe0c776f	-0.13717435
36	0xbdd66d52	-0.1047007
37	0xbe334506	-0.17506799
38	0x3bb5358f	0.0055300663
39	0xbd707999	-0.058709715
40	0xbe96322d	-0.29335156
41	0xbea0828b	-0.31349596
42	0xbe52a3cd	-0.20570298
43	0xbd9213d3	-0.071326874
44	0xbe794ea0	-0.243464
45	0xbde761f1	-0.11297978
46	0x3cc91aca	0.024548907
47	0xbe0b118f	-0.13580917
48	0xbe8741c7	-0.26417372
49	0xbd41e6da	-0.047339298
50	0xbd975fed	-0.07391343
51	0xbdca95fb	-0.09891888
52	0xbe7abceb	-0.24486129
53	0x3dc30a67	0.095234685
54	0xbe106360	-0.14100409
55	0xbe09769e	-0.13424155
56	0xbea18c1f	-0.31552216
57	0x3d985966	0.074389264
58	0xbd1e52ca	-0.038653173
59	0xbe6b1a2d	-0.22959204
60	0xbe92edc2	-0.2869702
61	0xbdf54f92	-0.119780675
62	0x3ca615a8	0.020273998
63	0xbd315bcb	-0.04330043
64	0xbe266f00	-0.1625328
65	0xbed46291	-0.4148145
66	0xbe6f8799	-0.2339157
67	0x3e25364a	0.16133991
68	0xbe1bd5de	-0.15218303
69	0x3d661142	0.056168802
70	0xbd989b8b	-0.074515425
71	0xbe70cbbc	-0.23515218
72	0xbe9a853f	-0.30179784
73	0xbe433d34	-0.19066316
74	0xbe1d25b7	-0.15346418
75	0xbec8d485	-0.3922464
76	0xbdd3d2f1	-0.10342968
77	0xbe4883af	-0.19581483
78	0xbef9a532	-0.48758847
79	0xbe1a96b2	-0.15096548
80	0xbbdd6225	-0.0067560845
81	0xbddb3ebe	-0.107053265
82	0x3d71b5aa	0.05901114
83	0xbe8c881d	-0.27447596
84	0xbe8d178d	-0.2755703
85	0xbe54c301	-0.20777513
86	0xbe1115a4	-0.14168411
87	0xbe78e3fc	-0.24305719
88	0xbe115814	-0.14193755
89	0xbdf58304	-0.1198788
90	0xbe556027	-0.2083746
91	0xbebd6f59	-0.36999014
92	0x3e67608c	0.22595423
93	0xbe00df8f	-0.12585281
94	0xbdd6c2f6	-0.104864046
95	0xbe8e4a60	-0.2779112
96	0xbcd2acb7	-0.025717122
97	0xbeb041bd	-0.34425154
98	0x3c0e3440	0.00867945
99	0xbea1a358	-0.31569934
100	0xbdd8c898	-0.10585135
101	0xbdfa64dc	-0.12226269
102	0xbdd39c00	-0.10332489
103	0xbe0d9c5e	-0.1382918
104	0xbe32b4ef	-0.17451833
105	0x3c295ab8	0.01033657
106	0xbd569964	-0.05239238
107	0x3db69435	0.08914987
108	0xbc81336a	-0.015771586
109	0xbe7997a0	-0.24374247
110	0xbd5f7e19	-0.054563615
111	0x3c015f3f	0.007896244
112	0xbea7b9fc	-0.32759082
113	0xbd837c5d	-0.06420205
114	0x3e80e914	0.25177824
115	0x3cc8605c	0.02446001
116	0xbe34913a	-0.17633525
117	0x3bcfd129	0.0063420725
118	0xbd453f98	-0.04815635
119	0x3dd4bce7	0.10387593
120	0xbe236828	-0.15957701
121	0x3c2c15e5	0.010503267
122	0xbe8654df	-0.26236627
123	0xbd927826	-0.07151823
124	0x3e700f35	0.23443301
125	0xbe968133	-0.29395446
126	0xbe7f0819	-0.24905433
127	0xbdb59a67	-0.088673405
128	0xbd04cc63	-0.03242148
129	0xbdf70410	-0.12061322
130	0xbd8a2e88	-0.067471564
131	0x3debc1c3	0.115115665
132	0x3dd3865d	0.10328362
133	0xbddf6ccd	-0.10909424
134	0xbe20ffbc	-0.15722555
135	0xbe022394	-0.12708884
136	0xbeafef0b	-0.34362063
137	0xbe22dac1	-0.1590376
138	0xbe38f5d3	-0.18062524
139	0xbddf5825	-0.10905484
140	0x3d111455	0.03541978
141	0xbeabb2b9	-0.33534792
142	0x3c8bb083	0.01705194
143	0xbeb1c023	-0.347169
144	0xbebb7cfb	-0.3661879
145	0xbde6cc50	-0.11269438
146	0xbe8d1be0	-0.2756033
147	0xbe8bd88f	-0.2731366
148	0x3c8a37c6	0.016872298
149	0x3cd96ada	0.026540209
150	0x3dbd97d9	0.09257478
151	0x3e2f65b4	0.1712864
152	0xbe180b2c	-0.14848012
153	0xbc5300a9	-0.012878575
154	0xbe5454cd	-0.20735474
155	0xbe9e6598	-0.30936885
156	0x3cb88f70	0.022529334
157	0xbe8dead9	-0.27718237
158	0xbe58f7bf	-0.21188258
159	0xbd66e952	-0.056374855
160	0xbd8afe32	-0.06786765
161	0xbe998f51	-0.29992154
162	0xbe8163b0	-0.25271368
163	0xbda2782e	-0.07933079
164	0xbe6285c0	-0.22121334
165	0xbe974643	-0.29545793
166	0xbd31747b	-0.043323975
167	0xbe6fe854	-0.2342847
168	0xbcba66ac	-0.022754036
169	0xbe3ee624	-0.18642479
170	0xbd5685ab	-0.05237357
171	0xbb01282e	-0.0019707787
172	0xbe86f3a6	-0.26357764
173	0xbe6b19d5	-0.22959073
174	0xbecc56ea	-0.3991006
175	0xbc57845c	-0.0131541155
176	0xbd8e66fe	-0.06953238
177	0xbd1cbc3e	-0.03826546
178	0xbe13599b	-0.1438965
179	0xbdee9508	-0.11649519
180	0xbdc6cf48	-0.097075045
181	0xbd564e24	-0.052320614
182	0x3c7bffb3	0.015380788
183	0xbe780e29	-0.24224152
184	0xbe234ca9	-0.15947212
185	0xbd1849fe	-0.03717994
186	0xbe2b295b	-0.16714995
187	0xbe154504	-0.14577109
188	0x3c94bd32	0.018156622
189	0xbdd741f3	-0.10510626
190	0x3d86271e	0.0655043
191	0xbe55d27b	-0.20881073
192	0xbe06d609	-0.13167585
193	0xbd9bdab2	-0.07610072
194	0xbe82b6ce	-0.25530094
195	0xbe82b118	-0.25525737
196	0xbe313b17	-0.17307697
197	0xbe2bb74e	-0.16769144
198	0xbd97259c	-0.0738022
199	0xbe255db0	-0.1614902
200	0x3e59f5c4	0.21285158
201	0xbe9d66d8	-0.30742526
202	0xbe84ddd5	-0.25950494
203	0xbe7f8e74	-0.24956685
204	0xbe3c618f	-0.1839659
205	0xbe22558d	-0.15852948
206	0xbda3c628	-0.0799678
207	0xbdbd7d65	-0.09252433
208	0x3c8ae4c5	0.016954789
209	0xbdc4c9dd	-0.09608815
210	0xbd6f05bc	-0.058355078
211	0xbe7762f8	-0.24158847
212	0x3d14b5d1	0.036306206
213	0x3d47b903	0.048760425
214	0x3d3aa845	0.04557063
215	0xbe2e4d42	-0.17021659
216	0xbd83b54f	-0.06431066
217	0xbddd22b1	-0.107976325
218	0x3e418b03	0.18900685
219	0xbe657dbf	-0.2241125
220	0xbe0229dc	-0.1271128
221	0x3e85d9d6	0.26142758
222	0x3d4ce3a6	0.05002179
223	0xbe3a97d3	-0.18221979
224	0xbc203b59	-0.009779775
225	0xbe4964a6	-0.196673
226	0xbeddb3df	-0.43301293
227	0xbe301617	-0.17195927
228	0xbcf9bc3f	-0.03048527
229	0xbdad9d79	-0.08477301
230	0xbe414a67	-0.18876038
231	0xbe9688d4	-0.29401267
232	0xbd1b2d24	-0.037884846
233	0xbe9b7bfd	-0.30368033
234	0x3e116339	0.14198007
235	0xbe54f36e	-0.20795986
236	0xbea71c6f	-0.3263888
237	0xbe204cb1	-0.15654255
238	0xbd9e3850	-0.077255845
239	0x3dbc8376	0.09204762
240	0xbc49422c	-0.012283843
241	0xbdb524cb	-0.08844908
242	0xbe46b4fe	-0.1940498
243	0xbeed6500	-0.4636612
244	0xbe6def99	-0.2323593
245	0xbc1e6653	-0.009667951
246	0xbdadb499	-0.08481712
247	0x3f1bdf19	0.60887295
248	0xbd80b2a2	-0.062840715
249	0xbe900198	-0.28126216
250	0xbdc29a51	-0.0950209
251	0xbcd6774d	-0.026179934
252	0x3c9db281	0.019250156
253	0xbebc25bf	-0.36747548
254	0xbe00d48f	-0.12581085
255	0xbc8cf772	-0.017207835

bn.0.running_mean f4 [512]
0	0x3e371870	0.17880416
1	0x3e0153c9	0.12629618
2	0x3d0ebd34	0.034848407
3	0x3e2d6652	0.16933563
4	0x3e3c1271	0.1836641
5	0xbcdf79b8	-0.02727972
6	0xbe4a899b	-0.19779055
7	0x3cd8ff4a	0.026488919
8	0x3d97be7f	0.07409381
9	0x3d2c289c	0.042030916
10	0x3c237eb0	0.009978935
11	0x3e337e61	0.17528678
12	0x3e0a2faf	0.13494752
13	0x3d2c9532	0.04213447
14	0x3c424df3	0.011859405
15	0x3dcac846	0.099014804
16	0xbe4e7947	-0.20163451
17	0xbe17c539	-0.14821328
18	0x3e4440a6	0.19165286
19	0x3dac12fb	0.08402058
20	0x3d9045b7	0.07044547
21	0x3c221dfc	0.009894844
22	0xbd17c90e	-0.037056975
23	0x3d3ec100	0.046570778
24	0x3e234c55	0.15947087
25	0xbdb37f3a	-0.08764501
26	0x3d0ce7a1	0.034400586
27	0xbe2d9aeb	-0.16953628
28	0xbdeaef8c	-0.11471471
29	0xbd3c5450	-0.045978844
30	0x3d0d677b	0.034522515
31	0xbdfbe686	-0.12299828
32	0x3e13bd68	0.14427722
33	0x3e2759ac	0.16342801
34	0x3e0bdb8a	0.13657966
35	0x3d0c5c32	0.03426761
36	0xbd2c35af	-0.042043384
37	0x3db4a1b7	0.08819907
38	0xbdc53555	-0.09629313
39	0x3d489e2a	0.048978962
40	0xbe3b22bd	-0.1827497
41	0x3c9a8634	0.018862821
42	0xbd0afd65	-0.033933062
43	0xbe2f42b5	-0.1711529
44	0xbe014bfa	-0.12626639
45	0x3e3b83ec	0.18312043
46	0x3d6e2bd0	0.05814725
47	0x3e04e4ba	0.12977877
48	0xbde43f2d	-0.11144862
49	0x3e3442a8	0.17603552
50	0xbdeba4ed	-0.115060665
51	0xbe4c264a	-0.19936481
52	0xbddf1d09	-0.1089421
53	0x3dce3305	0.10068325
54	0x3dcb8538	0.09937519
55	0x3e1e7180	0.15472984
56	0x3d95ca5d	0.07313988
57	0xbdb04805	-0.08607487
58	0x3d0ff1e3	0.03514279
59	0x3df7b287	0.12094598
60	0x3e09fb43	0.13474755
61	0x3e50561a	0.20345345
62	0xbdd08d4b	-0.101831995
63	0x3db23af7	0.08702653
64	0x3de076c1	0.109601505
65	0x3dcf454a	0.10120638
66	0xbd9fbf31	-0.07800139
67	0x3d4541c3	0.04815842
68	0x3c35cf81	0.011096836
69	0x3e49fdf9	0.19725789
70	0xbd966979	-0.07344336
71	0xbe3d89c0	-0.18509579
72	0x3c37e92b	0.011225025
73	0x3dcb096c	0.099139065
74	0x3af0ec9f	0.0018381065
75	0x3e356161	0.17712928
76	0x3d22295d	0.03959023
77	0xbd0dc032	-0.03460712
78	0xbd88e4ee	-0.0668429
79	0x3d59fa3a	0.05321715
80	0xbe3ccd96	-0.184378
81	0xbc04ef28	-0.00811366
82	0xbe0651f8	-0.13117206
83	0x3d9cdc48	0.07659203
84	0x3ddf6f68	0.10909921
85	0x3decf0f4	0.11569396
86	0xbdeca156	-0.1155421
87	0xbe1aea9e	-0.15128562
88	0xbd9d4fe3	-0.07681253
89	0x3e392b42	0.18082908
90	0x3e2c1e18	0.16808355
91	0x3daab1c5	0.08334688
92	0x3e4abeb7	0.19799314
93	0x3d9c2a6d	0.076252796
94	0x3d18bc06	0.037288688
95	0xbda8f04d	-0.08248959
96	0x3d1fdc7a	0.039028622
97	0x3bc8df59	0.0061301407
98	0x3bf19ce9	0.0073734415
99	0xbd3c056b	-0.045903604
100	0xbdbcb08d	-0.09213362
101	0xbb89de80	-0.0042074323
102	0xbe262b28	-0.162274
103	0x3e109195	0.14118035
104	0x3e32406f	0.17407392
105	0xbdc3df0d	-0.09564028
106	0x3b3e0548	0.0028994847
107	0x3e4f3965	0.20236738
108	0x3e3ca6ef	0.18423055
109	0x3e0097f4	0.12557966
110	0xbdf0a3b6	-0.117499754
111	0x3dddebea	0.10836013
112	0x3e48c29f	0.19605492
113	0x3cde5a8b	0.027142784
114	0x3db6b066	0.08920364
115	0x3b3391c7	0.0027400122
116	0xbcacf388	-0.021112218
117	0x3e20f466	0.1571823
118	0x3d87425c	0.06604454
119	0xbe4c4e83	-0.19951825
120	0x3b2fa638	0.0026801955
121	0x3e18e17b	0.14929764
122	0xbcf1a697	-0.029498382
123	0xbe403bff	-0.18772887
124	0x3d751553	0.05983479
125	0xbe3e1694	-0.185633
126	0xbe202b97	-0.15641628
127	0xbdaa5aef	-0.083181255
128	0xbe3ea438	-0.18617332
129	0x3db8f2a2	0.090306535
130	0x3e000e52	0.12505463
131	0xbd39ed55	-0.045392353
132	0x3e369004	0.17828375
133	0xbd98df34	-0.074644476
134	0x3dc3712a	0.09543069
135	0xbe3692d2	-0.17829445
136	0x3df48201	0.11938859
137	0xbd9431ac	-0.07236037
138	0xbd91b059	-0.07113714
139	0xbdec9157	-0.11551159
140	0xbe12599c	-0.14291996
141	0x3dd87f94	0.105712086
142	0x3e1f9458	0.15583932
143	0x3c3363ea	0.010949114
144	0xbd98ae69	-0.07455141
145	0x3e0185ca	0.12648693
146	0x3d800335	0.06250612
147	0x3e13b5a3	0.14424758
148	0x3d0abd02	0.03387166
149	0xbd49fe24	-0.049314633
150	0xbe199184	-0.14996916
151	0xbe4de205	-0.20105751
152	0x3ccdba90	0.025113374
153	0xbe3610be	-0.17779824
154	0x3d336f28	0.04380718
155	0x3e381b83	0.17979245
156	0xbc7c3570	-0.0153936
157	0xbd880461	-0.0664146
158	0x3dc3fa10	0.0956918
159	0x3e443021	0.19158985
160	0x3e28c8c4	0.16482836
161	0x3dfee38c	0.12445745
162	0xbe2f617d	-0.17127033
163	0xbda83358	-0.08212918
164	0xbe48300a	-0.19549575
165	0xbc94f1fd	-0.018181795
166	0xbcd736d2	-0.026271258
167	0xbe0da3c4	-0.13832003
168	0x3da313d5	0.07962767
169	0x3e146519	0.1449169
170	0x3e159413	0.14607267
171	0x3d91b3b9	0.071143575
172	0x3d349e5c	0.044096336
173	0xbd20ef1c	-0.039290532
174	0xbd913b3f	-0.070913784
175	0x3e37faaa	0.17966715
176	0xbe0f9e96	-0.1402534
177	0x3bfd1d2b	0.0077244244
178	0xbe499114	-0.19684249
179	0xbe1d8db3	-0.15386085
180	0xbd8d89e7	-0.069110684
181	0x3e0194bf	0.12654398
182	0x3def40a2	0.116822496
183	0xbdddac78	-0.108239114
184	0x3d3b36ee	0.045706682
185	0x3c58e23a	0.01323753
186	0x3d8ed4a8	0.06974155
187	0x3e2c94e1	0.16853668
188	0x3e51168a	0.20418754
189	0x3cb2308c	0.021751665
190	0x3d10c5e6	0.03534498
191	0xbc77a472	-0.01511489
192	0xbe509c9c	-0.20372242
193	0x3c8dd970	0.017315596
194	0xbd6d7877	-0.057976212
195	0x3c89d2e8	0.0168242
196	0x3e3a8fd7	0.18218933
197	0xbd8d8af9	-0.069112726
198	0x3e034f7c	0.1282329
199	0xbe32e17f	-0.17468832
200	0x3ded9564	0.116007596
201	0xbc524d9f	-0.012835889
202	0xbce12367	-0.027482701
203	0xbdae8dd7	-0.085231476
204	0xbd8d29df	-0.06892752
205	0x3d2d609c	0.042328462
206	0xbe01e811	-0.12686183
207	0x3e0d17c7	0.13778602
208	0x3e44fed3	0.19237833
209	0x3e0d5656	0.13802466
210	0xbd98c648	-0.07459694
211	0x3e1d1c7a	0.15342894
212	0x3e47561c	0.19466442
213	0x3e1def77	0.1542338
214	0xbe29853e	-0.16554734
215	0xbe16c04c	-0.14721793
216	0x3c7d2335	0.015450289
217	0xbe257b3d	-0.16160293
218	0x3dc7a84a	0.097488955
219	0x3d8d13c9	0.06888539
220	0xbbd2c80f	-0.0064325402
221	0xbe20909b	-0.15680163
222	0x3ddc8d2a	0.107691124
223	0xbbee2642	-0.0072677443
224	0x3e1209a4	0.1426149
225	0xbe29a953	-0.16568498
226	0xbde13b78	-0.10997671
227	0xbe3ef857	-0.18649422
228	0x3e41a860	0.18911886
229	0x3dff62f6	0.12470047
230	0xbd808891	-0.06276048
231	0x3da51f2a	0.08062585
232	0x3e3e1478	0.18562496
233	0x3d585780	0.05281782
234	0x3e3d2c8d	0.18474026
235	0xbddcda07	-0.10783773
236	0xbc9e8ce3	-0.01935429
237	0x3d980610	0.07423031
238	0x3dffc696	0.12489049
239	0xba12727e	-0.00055865187
240	0x3dcddedf	0.10052275
241	0x3d1c9f92	0.038238116
242	0x3e2eb56f	0.17061399
243	0xbe2f2ed8	-0.17107713
244	0xbe09ae5c	-0.13445419
245	0x3e4abf7e	0.19799611
246	0x3cefe1a7	0.029282404
247	0xbdc0a7f4	-0.094070345
248	0xbe147168	-0.14496386
249	0x3e479de4	0.19493824
250	0xbe180511	-0.14845683
251	0xbe148a78	-0.14505947
252	0x3d3e4d93	0.0464607
253	0x3dad1850	0.08451903
254	0x3da76b30	0.08174741
255	0xbe3e5741	-0.18587972
