solutions/Deep Reinforcement Learning/3_Collaboration and Competition/checkpoint_actor_1.pth (torch_old, 593725 bytes, 18 tensors)

states_normalizer.weight f4 [24]
0.27238226 0.29853305 0.1765225 0.23528218 0.79676425 0.6667847 0.09664649 0.012487463
0.21241938 0.0371023 0.14585042 0.082325906 0.36722502 0.8348969 0.11595832 0.17975649
0.52413493 0.2871275 0.12921765 0.30879724 0.47168985 0.7876233 0.20047799 0.2880511
00000000: b075 8b3e 53d9 983e 50c2 343e d0ed 703e
00000010: bef8 4b3f 67b2 2a3f 98ee c53d 3798 4c3c
00000020: 7784 593e 95f8 173d d059 153e 7c9a a83d
00000030: eb04 bc3e cebb 553f 8e7b ed3d 1612 383e
00000040: b52d 063f 6002 933e a251 043e ac1a 9e3e
00000050: 5581 f13e aea1 493f 1a4a 4d3e 6f7b 933e

states_normalizer.bias f4 [24]
-0.00033271965 -0.00044394072 -0.00011178501 0.00041852565 6.2538005e-05 0.002732886 5.6031306e-05 0.000162022
-9.359796e-05 -0.00014494997 -0.0006548449 -0.00044816165 -0.0023310932 0.00022560767 4.6096324e-05 -0.00058590167
-5.6094614e-05 -0.001636782 -0.0002645557 0.0006392597 0.008900171 -0.002082687 0.00022049388 -0.0006652319
00000000: e070 aeb9 b7c0 e8b9 1f6e eab8 906d db39
00000010: d626 8338 381a 333b 2803 6b38 73e4 2939
00000020: 064a c4b8 b6fd 17b9 e6a9 2bba 3df7 eab9
00000030: 41c5 18bb 1991 6c39 8d57 4138 3297 19ba
00000040: 2247 6bb8 4a89 d6ba 11b4 8ab9 fe93 273a
00000050: 06d2 113c b17d 08bb 6034 6739 f562 2eba

states_normalizer.running_mean f4 [24]
-5.8929405 -0.7309888 6.1777797 -0.15930656 -0.0049996786 2.633529 6.1777797 -0.15930656
-5.94706 -0.73557276 5.6788645 -0.13577189 -0.009721246 2.624689 5.6788645 -0.13577189
-5.986136 -0.74359757 5.8105974 -0.18044542 -0.009758516 2.609124 5.8105974 -0.18044542
00000000: f892 bcc0 1522 3bbf 5fb0 c540 4221 23be
00000010: 58d4 a3bb bd8b 2840 5fb0 c540 4221 23be
00000020: 514e bec0 7f4e 3cbf 42b9 b540 c907 0bbe
00000030: dc45 1fbc e8fa 2740 42b9 b540 c907 0bbe
00000040: 6d8e bfc0 695c 3ebf 6af0 b940 afc6 38be
00000050: 2fe2 1fbc e3fb 2640 6af0 b940 afc6 38be

states_normalizer.running_var f4 [24]
16.810226 1.1478618 384.37387 11.614632 27.48022 3.1643255 384.37387 11.614632
16.775377 1.1483603 389.44196 11.717977 27.944332 3.175325 389.44196 11.717977
16.686636 1.1510758 386.98068 11.66525 28.51909 3.2357 386.98068 11.66525
00000000: 587b 8641 23ed 923f db2f c043 88d5 3941
00000010: 7ed7 db41 4f84 4a40 db2f c043 88d5 3941
00000020: f933 8641 78fd 923f 92b8 c243 d57c 3b41
00000030: fe8d df41 8638 4b40 92b8 c243 d57c 3b41
00000040: 3b7e 8541 7456 933f 877d c143 dda4 3a41
00000050: 1927 e441 b515 4f40 877d c143 dda4 3a41

layers.0.weight f4 [512, 24]
-0.0055484213 -0.19370277 0.027703298 0.0051934123 0.035414737 0.11596415 0.064346276 0.0038846983
-0.059855565 -0.11649921 -0.15546654 -0.027099768 0.01646289 0.025737386 -0.15598242 -0.024994235
0.06374687 -0.12663728 -0.0039571454 0.014192496 -0.01777616 0.016578339 -0.009118091 -0.04046164
-0.0072652837 0.015412324 -0.10993067 0.11581487 0.08544676 -0.10673522 -0.0753919 0.055616986
0.01959807 -0.057099972 0.029826209 0.08308683 0.029431012 -0.08997606 0.0020888087 0.058559094
0.0013586817 -0.09086371 -0.048046898 0.09618825 -0.00043727976 0.03698874 -0.0756674 0.1180656
-0.0028734407 -0.02702171 -0.020929983 0.0036427637 -0.086031236 -0.055487167 -0.023058314 -0.02524533
-0.059337024 -0.093402356 -0.027736975 0.03602892 0.07327089 -0.0313315 -0.07357114 0.0055993483
-0.05810898 -0.13869144 -0.026375465 0.015769592 0.3209155 0.05985035 -0.06138936 -0.010488362
-0.03691398 0.10845331 0.06016272 0.028079769 -0.0664834 0.031196803 -0.0041559828 0.014461366
0.06667973 0.061326284 0.04325567 -0.018180707 -0.008309489 0.07085552 0.04525838 -0.042121828
-0.0040237387 0.01760241 -0.12587291 -0.06842663 0.318635 -0.06711279 -0.10766674 -0.115416154
-0.07413197 -0.047747876 0.08726798 0.041827444 -0.020682247 -0.05909555 0.093342274 0.03629141
-0.020212024 -0.058650192 0.040245656 0.0073917937 -0.063580655 0.06837471 0.06360427 0.015247102
-0.041631985 -0.09409896 -0.016033689 -0.13287327 -0.07331935 0.11581638 -0.0106456205 -0.12717006
0.08878333 0.15267009 -0.018171746 0.047021512 0.112221695 0.09104776 -0.005374295 0.034916453
0.046626683 0.17746247 -0.14748564 0.06873914 -0.0011958623 0.04648488 -0.09642353 -0.011926264
0.006835907 0.14037152 0.014472002 0.0112744905 -0.05026351 -0.0055474485 -0.053654514 -0.04718891
-0.054524127 -0.08119882 -0.045481514 -0.034498807 0.11377637 -0.014465992 -0.047195118 -0.04576197
-0.08224144 -0.12664013 0.024916183 -0.020312687 0.120079696 -0.002330309 -0.007820324 -0.03277454
-0.13133499 -0.13191089 -0.02855272 -0.072018534 0.0016782773 0.02713484 -0.025366416 -0.0028704356
-0.026423646 -0.019326117 0.08641429 0.07190715 0.11697921 0.09219009 0.09920715 0.020066537
-0.064780034 -0.006698705 0.028336367 0.108969696 0.009912921 -0.015466666 0.009059408 0.11995006
-0.058335375 0.08695559 -0.044997565 0.12724175 -0.035702683 -0.08772837 -0.059459563 0.15149535
-0.06979951 -0.025726803 0.1382757 -0.07278066 -0.059646845 0.037221294 0.19619022 -0.10973259
-0.050151374 -0.011080096 0.04777812 0.09684376 -0.008903743 -0.07534412 0.0756591 0.07088316
-0.011220581 0.026494436 0.12175394 0.07112118 0.09575329 0.05623653 0.13967016 0.07303963
-0.048080724 0.014799511 -0.0515933 -0.08342695 0.14534555 0.1486502 -0.04514563 -0.05245269
0.014730983 0.022221448 0.010159443 0.066452645 0.062223967 0.021660306 0.05665377 0.056682415
0.025791287 -0.03870815 0.04003783 -0.0352264 -0.10397817 -0.084957615 0.02651764 -0.012796244
0.07631016 0.01632179 -0.009801352 -0.028867237 0.07558235 -0.025830794 -0.029267186 0.046048284
0.028286979 -0.081236504 -0.024826135 0.022024345 -0.080767706 0.017846234 0.018693378 0.021332467
00000000: 88cf b5bb 055a 46be 07f2 e23c 802d aa3b
00000010: 0b0f 113d 9d7e ed3d fbc7 833d 6c96 7e3b
00000020: 1c2b 75bd 2397 eebd 9f32 1fbe 5500 debc
00000030: 2fdd 863c 36d7 d23c dbb9 1fbe b6c0 ccbc
00000040: b88d 823d 34ad 01be f1aa 81bb a587 683c
00000050: 4f9f 91bc 4ccf 873c 0c64 15bc 1bbb 25bd
00000060: 9e11 eebb f983 7c3c 5523 e1bd 5930 ed3d
00000070: b6fe ae3d ff97 dabd 1267 9abd a3ce 633d
00000080: 228c a03c a9e1 69bd 1856 f43c 6e29 aa3d
00000090: 4e19 f13c 5e45 b8bd 65e4 083b a9db 6f3d
000000a0: cb15 b23a c116 babd d3cc 44bd 58fe c43d
000000b0: b242 e5b9 8181 173d 83f7 9abd 61cc f13d
000000c0: 5650 3cbb a25c ddbc 5b75 abbc 6fbb 6e3b
000000d0: 2531 b0bd 8346 63bd cae4 bcbc 4bcf cebc
000000e0: 610b 73bd bc49 bfbd a738 e3bc 1093 133d
000000f0: 0c0f 963d 7555 00bd 77ac 96bd bd7a b73b
00000100: af03 6ebd 2105 0ebe 5c11 d8bc 3b2f 813c
00000110: 094f a43e a425 753d 6973 7bbd 61d7 2bbc
00000120: 1d33 17bd c51c de3d 2f6d 763d 8b07 e63c
00000130: 7328 88bd 7090 ff3c e92e 88bb 5eef 6c3c
00000140: 628f 883d 4531 7b3d dc2c 313d b5ef 94bc
00000150: 8624 08bc b31c 913d da60 393d f087 2cbd
00000160: 91d9 83bb ee32 903c d4e4 00be 4323 8cbd
00000170: 2024 a33e 6e72 89bd 6180 dcbd 4e5f ecbd
00000180: 81d2 97bd 4793 43bd 8eb9 b23d 4153 2b3d
00000190: d16d a9bc 2d0e 72bd 3c2a bf3d 4da6 143d
000001a0: b093 a5bc 2f3b 70bd a1d8 243d dc36 f23b
000001b0: 9336 82bd 0a08 8c3d f542 823d fbce 793c
000001c0: 4d86 2abd f5b6 c0bd 1559 83bc ee0f 08be
000001d0: 7528 96bd 2331 ed3d f86a 2ebc de38 02be
000001e0: 09d4 b53d 8c55 1c3e eadc 94bc a199 403d
000001f0: 7dd4 e53d 3f77 ba3d db1a b0bb 8e04 0f3d
00000200: 9ffb 3e3d b9b8 353e 7a06 17be 1bc7 8c3d
00000210: 7bbe 9cba ee66 3e3d b379 c5bd 6066 43bc
00000220: bfff df3b 8dbd 0f3e fa1b 6d3c a4b8 383c
00000230: 1ce1 4dbd 5fc7 b5bb d6c4 5bbd 2949 41bd
00000240: b154 5fbd 914b a6bd d34a 3abd 9f4e 0dbd
00000250: 9603 e93d c502 6dbc ab4f 41bd e770 3bbd
00000260: 336e a8bd f3ad 01be 061d cc3c cb66 a6bc
00000270: 58ec f53d 19b8 18bb d120 00bc 993e 06bd
00000280: ae7c 06be a613 07be 65e7 e9bc 747e 93bd
00000290: a4f9 db3a e249 de3c 3bcd cfbc eb1d 3cbb
000002a0: 6776 d8bc ce51 9ebc faf9 b03d 0e44 933d
000002b0: cc92 ef3d 28ce bc3d 1e2d cb3d 9462 a43c
000002c0: 65ab 84bd cf80 dbbb ab21 e83c 812b df3d
000002d0: ce69 223c e667 7dbc e96d 143c 61a8 f53d
000002e0: 13f1 6ebd c615 b23d 5e4f 38bd a94b 023e
000002f0: fa3c 12bd efaa b3bd df8b 73bd 9921 1b3e
00000300: 0cf3 8ebd 04c1 d2bc 2598 0d3e 070e 95bd
00000310: 4050 74bd 5b75 183d 17e6 483e 7bbb e0bd
00000320: 876b 4dbd 4a89 35bc fdb2 433d 0556 c63d
00000330: 01e1 11bc 054e 9abd 29f3 9a3d 312b 913d
00000340: 87d6 37bc dc0a d93c 215a f93d fba7 913d
00000350: 4d1a c43d 4758 663d b205 0f3e cd95 953d
00000360: 4bf0 44bd a679 723c 7f53 53bd c0db aabd
00000370: 77d5 143e c237 183e a0ea 38bd a2d8 56bd
00000380: 395a 713c c109 b63c cb73 263c 5318 883d
00000390: 8fde 7e3d f470 b13c c90d 683d d22b 683d
000003a0: 4048 d33c 708c 1ebd b5fe 233d 8f49 10bd
000003b0: 82f2 d4bd 42fe adbd 863b d93c 56a7 51bc
000003c0: 8048 9c3d 46b5 853c da95 20bc fc7a ecbc
000003d0: ebca 9a3d 1a9b d3bc bdc1 efbc 209d 3c3d
000003e0: 18ba e73c 535f a6bd 2e60 cbbc 666c b43c
000003f0: 8a69 a5bd 4432 923c db22 993c 6dc1 ae3c

layers.0.bias f4 [512]
0.17984158 0.12607436 0.03509153 0.16892056 0.18390524 -0.02609298 -0.19959278 0.027956497
0.073595375 0.04211823 0.00916608 0.17374517 0.13428439 0.042181443 0.010792182 0.09836722
-0.20158103 -0.14732568 0.19311707 0.083727196 0.070449755 0.01006603 -0.03628376 0.046453472
0.16043195 -0.08888365 0.035399746 -0.16983977 -0.11230018 -0.046610445 0.03396438 -0.12354461
0.14457346 0.16309555 0.13652751 0.0369372 -0.042742334 0.08772391 -0.095872186 0.047324046
-0.18543822 0.019629676 -0.03387798 -0.17150714 -0.12527691 0.18375473 0.059806768 0.1299254
-0.11100855 0.17629819 -0.116623595 -0.19929332 -0.107733466 0.09946942 0.10039964 0.15480638
0.074432254 -0.08636087 0.035663653 0.12060621 0.13465036 0.2023742 -0.101235434 0.08763426
0.11114827 0.09976611 -0.077562094 0.04804211 0.010480898 0.19428279 -0.07338736 -0.18644096
0.01158788 0.10099818 -0.00030323878 0.17727242 0.042234283 -0.03488694 -0.06493167 0.051489286
-0.18521236 -0.007923382 -0.1331614 0.077339455 0.11194147 0.116100654 -0.115110435 -0.15472971
-0.07682475 0.17972805 0.1676809 0.08280219 0.1967218 0.07729033 0.037007138 -0.08131747
0.03804704 0.0075232303 0.0079764435 -0.045160122 -0.09261666 -0.0043017003 -0.16241618 0.14052773
0.17236812 -0.09481565 0.0024535523 0.2014817 0.18301429 0.12457042 -0.11742661 0.10934821
0.1954922 0.028150398 0.08715889 0.0019131999 -0.021627437 0.15649135 0.06499115 -0.19890638
0.004772789 0.14815164 -0.029188633 -0.1879932 0.059851184 -0.18473855 -0.15667215 -0.0831436
-0.18667579 0.089927666 0.1257225 -0.048295245 0.17425598 -0.07402133 0.09792883 -0.17839696
0.11975627 -0.073155425 -0.071079284 -0.11521971 -0.14329349 0.10621168 0.15612017 0.009680134
-0.07409072 0.1268435 0.06380847 0.14537042 0.034929905 -0.050498214 -0.15118918 -0.20223023
0.027264599 -0.17822099 0.044290308 0.18123533 -0.015434321 -0.06669737 0.09580639 0.19238761
0.16439754 0.12450759 -0.17073113 -0.08158227 -0.19626261 -0.01775791 -0.02552221 -0.13858587
0.07952954 0.14465612 0.14510514 0.07081348 0.045762006 -0.03924863 -0.06972175 0.18051688
-0.13922189 0.007413829 -0.1976557 -0.15279454 -0.068317264 0.12768403 0.116734006 -0.107391216
0.043564364 0.012979142 0.07011359 0.172256 0.20367302 0.021318933 0.03386166 -0.014131661
-0.20300642 0.01990048 -0.056257293 0.016890975 0.17997447 -0.070808694 0.12780523 -0.17657104
0.11666366 -0.016554547 -0.028375955 -0.08345757 -0.0690249 0.04145288 -0.12819712 0.13462803
0.19244938 0.13701507 -0.07422793 0.1535669 0.19334102 0.15479682 -0.165546 -0.1465799
0.0134130595 -0.16437323 0.09670764 0.067941464 -0.0072688824 -0.15785404 0.106613025 -0.007387572
0.14366335 -0.16593087 -0.10902797 -0.18970439 0.18969883 0.123905756 -0.061156724 0.08018266
0.18478611 0.05246041 0.18437822 -0.106240235 -0.01892603 0.073006794 0.12428177 0.00067037746
0.10079936 0.0362394 0.16979356 -0.17035922 -0.13418551 0.19910157 0.028977012 -0.0910684
-0.14413378 0.19839902 -0.14919211 -0.1448801 0.045846123 0.08375118 0.08273468 -0.18653923
00000000: 6428 383e a319 013e 23bc 0f3d 83f9 2c3e
00000010: a851 3c3e f2c0 d5bc 0d62 4cbe 0605 e53c
00000020: 2cb9 963d 2a84 2c3d 532d 163c 41ea 313e
00000030: d981 093e 73c6 2c3d b1d1 303c c174 c93d
00000040: 426b 4ebe 8bdc 16be 7bc0 453e 2a79 ab3d
00000050: f647 903d fdeb 243c 489e 14bd ff45 3e3d
00000060: 4648 243e a208 b6bd 53ff 103d 7aea 2dbe
00000070: a3fd e5bd 98ea 3ebd 3c1e 0b3d f504 fdbd
00000080: 110b 143e 8502 273e decd 0b3e 764b 173d
00000090: 9612 2fbd 98a8 b33d a358 c4bd dcd6 413d
000000a0: 84e3 3dbe 6ace a03c a3c3 0abd 919f 2fbe
000000b0: 9748 00be 332a 3c3e f1f7 743d 2a0b 053e
000000c0: 7358 e3bd 8387 343e 5ad8 eebd 8c13 4cbe
000000d0: 5da3 dcbd a0b6 cb3d 549e cd3d 9085 1e3e
000000e0: f06f 983d f8dd b0bd 0d14 123d 6300 f73d
000000f0: c9e1 093e 2f3b 4f3e 8654 cfbd 9779 b33d
00000100: b4a1 e33d 2d52 cc3d e0d8 9ebd cec7 443d
00000110: 13b8 2b3c 11f2 463e 1d4c 96bd 61ea 3ebe
00000120: 17db 3d3c 22d8 ce3d 05fc 9eb9 e786 353e
00000130: dbfd 2c3d 9ce5 0ebd e5fa 84bd 6ee6 523d
00000140: 4fa8 3dbe 13d1 01bc 765b 08be 2664 9e3d
00000150: 9241 e53d 2ec6 ed3d 05bf ebbd 7771 1ebe
00000160: 4b56 9dbd a10a 383e 8bb4 2b3e 3294 a93d
00000170: 7171 493e 644a 9e3d cc94 173d c689 a6bd
00000180: 37d7 1b3d 6e85 f63b a1af 023c d2f9 38bd
00000190: cead bdbd 47f5 8cbb 6d50 26be 80e6 0f3e
000001a0: 4581 303e b52e c2bd c7cb 203b 3851 4e3e
000001b0: 1968 3b3e c71e ff3d 5d7d f0bd f4f1 df3d
000001c0: 1b2f 483e aa9b e63c 5c80 b23d 56c4 fa3a
000001d0: 062c b1bc 453f 203e 141a 853d 1dae 4bbe
000001e0: 0e65 9c3b 10b5 173e 001d efbc 4a81 40be
000001f0: 8426 753d 1a2c 3dbe aa6e 20be 3147 aabd
00000200: f027 3fbe ff2b b83d 66bd 003e 3cd1 45bd
00000210: 2970 323e 7f98 97bd e98e c83d b1ad 36be
00000220: c642 f53d 83d2 95bd 0492 91bd 50f8 ebbd
00000230: 87bb 12be 8285 d93d f7dd 1f3e 6d99 1e3c
00000240: e0bc 97bd 43e3 013e 04ae 823d fcdb 143e
00000250: a912 0f3d 37d7 4ebd 56d1 1abe 7115 4fbe
00000260: 025a df3c 907f 36be c169 353d c195 393e
00000270: 3ce0 7cbc a198 88bd 2436 c43d 4201 453e
00000280: d457 283e d6fd fe3d 24d4 2ebe 9b14 a7bd
00000290: 11f9 48be 0979 91bc f413 d1bc 74e9 0dbe
000002a0: 62e0 a23d bc20 143e 7196 143e a806 913d
000002b0: f170 3b3d 2cc3 20bd 47ca 8ebd 6bd9 383e
000002c0: 2f90 0ebe b5ef f23b 4166 4abe 2c76 1cbe
000002d0: ece9 8bbd 9abf 023e 3d12 ef3d edef dbbd
000002e0: 8c70 323d 78a6 543c b797 8f3d e063 303e
000002f0: a98f 503e 0ba5 ae3c 86b2 0a3d 7b88 67bc
00000300: eae0 4fbe 5506 a33c 0c6e 66bd f15e 8a3c
00000310: 3a4b 383e 2604 91bd 60df 023e 0acf 34be
00000320: 5bed ee3d 679d 87bc b174 e8bc cdeb aabd
00000330: ed5c 8dbd 7fca 293d 1b46 03be eedb 093e
00000340: 7311 453e ae4d 0c3e d004 98bd a440 1d3e
00000350: 30fb 453e 0f83 1e3e e484 29be 0b19 16be
00000360: 73c2 5b3c 7551 28be a80e c63d e524 8b3d
00000370: ce2f eebb 7da4 21be ee57 da3d 7213 f2bb
00000380: 7c1c 133e c8e9 29be 0e4a dfbd de41 42be
00000390: 6940 423e 4dc2 fd3d 797f 7abd ce36 a43d
000003a0: 9238 3d3e bae0 563d a5cd 3c3e 7b94 d9bd
000003b0: c30a 9bbc 9684 953d 7187 fe3d 45bc 2f3a
000003c0: e56f ce3d c46f 143d 5dde 2d3e a672 2ebe
000003d0: ed67 09be 48e1 4b3e 3361 ed3c 1282 babd
000003e0: ce97 13be 1d29 4b3e d1c5 18be 735b 14be
000003f0: 25c9 3b3d bd85 ab3d cd70 a93d 2404 3fbe

layers.1.weight f4 [256, 512]
0.08109318 0.13449213 0.12083266 -0.13916598 -0.07271605 0.014185515 0.08373985 0.12005164
-0.0595362 -0.06073039 -0.0060567916 -0.0013754783 0.0830849 -0.07132836 -0.047336135 0.098194525
0.08680096 0.10097481 0.11138681 -0.021521412 0.118643984 -0.08288105 0.1178693 0.12417208
0.12834355 0.041080322 0.099530324 -0.0704773 0.0926604 0.14116631 -0.047281332 -0.11381603
-0.007927081 0.07099449 0.123127684 0.04546715 0.021103725 0.048178226 -0.08863898 -0.027259411
-0.022750014 -0.14322282 -0.038549356 0.1953057 -0.17492814 -0.0058716284 0.10149961 0.057950452
-0.021860948 -0.027621338 0.11601407 -0.062309325 0.14489356 0.09504802 0.03658068 -0.074260995
0.05226495 0.13269548 -0.01102317 -0.18446717 -0.05932295 -0.14627747 -0.008321285 -0.056412328
0.08140859 -0.08184459 -0.04403989 0.20655808 0.01061597 -0.017021228 -0.03613783 0.035372477
-0.07094718 -0.2105843 0.081864536 0.07579632 0.14672534 0.17825468 -0.15328929 -0.09747665
-0.17825046 0.027768178 0.020376012 -0.09972545 0.07678441 0.073085256 0.014115031 -0.106935516
0.009350416 -0.024021495 0.17152727 0.026793161 -0.05177181 0.07818921 0.33898166 0.10478561
0.03351288 -0.01850616 0.02675675 -0.0623567 -0.07025391 -0.044043176 0.017567724 0.05686783
0.1006127 -0.1548293 -0.09181899 0.038212083 0.05388737 -0.13356231 -0.17017922 -0.1716684
-0.13783859 0.14924447 -0.07060714 -0.012879116 0.02273239 -0.10640812 0.07638562 0.0005093189
0.015653534 0.40703714 0.2132682 0.14238727 -0.16031136 0.021434018 -0.04977023 -0.018299792
-0.023549858 -0.031496115 -0.17663854 0.03810464 0.056386165 0.09328418 0.023009168 0.033875823
0.28211224 0.08008895 -0.21723491 0.1360571 0.11873585 0.104916155 0.00070095505 -0.21413383
-0.17808756 -0.20559134 0.06355147 0.0762279 0.09031182 0.094094746 0.024312507 0.01172925
-0.010931499 -0.14823964 -0.08946997 0.022501124 -0.036030386 0.009088355 -0.019797979 0.02293843
-0.07963286 0.0582109 -0.087023996 -0.120362334 -0.06210014 -0.008844179 0.06905747 -0.27960896
0.10786547 -0.118287615 0.1472121 -0.020854244 0.09991179 0.037707478 -0.02036684 -0.069175184
-0.04569868 -0.055695403 -0.0047627664 0.16961709 0.12007933 -0.03552593 -0.20138745 0.13018838
0.088801526 0.10717149 0.12243141 -0.22731568 0.16363703 -0.030118756 0.013127259 0.06782389
0.065981425 -0.05874345 -0.0953222 -0.22843076 -0.087431654 0.08727848 0.043464568 -0.13933592
0.000451233 -0.03238762 -0.08071185 -0.020486467 0.045060903 0.0015083996 0.077135295 -0.11767232
-0.102601565 0.04150686 -0.067320906 -0.049295183 -0.0030707498 0.06289057 0.011489242 -0.27092904
0.09144858 0.040163543 0.0938733 0.03924 -0.41839135 0.0054679527 -0.12658885 0.02177417
-0.057613056 0.13636497 0.07498161 0.23345937 0.13690248 -0.14963295 0.020060228 0.010602169
-0.03514481 0.0040420233 0.06327354 -0.017341398 0.03578366 -0.115509726 -0.05133845 -0.14837411
-0.060592253 0.10137638 0.1586249 0.03988525 0.17839731 0.084693976 -0.27365512 0.048454892
0.10507628 -0.030558372 0.22544318 -0.020427842 -0.0638844 0.08273778 0.21506068 0.14029975
00000000: 2e14 a63d 4eb8 093e 1d77 f73d 8781 0ebe
00000010: 27ec 94bd 5d6a 683c cc7f ab3d a2dd f53d
00000020: 3bdc 73bd 6ec0 78bd 0d78 c6bb 6549 b4ba
00000030: 6b28 aa3d 9a14 92bd 89e3 41bd 361a c93d
00000040: b4c4 b13d e2cb ce3d c51e e43d ac4d b0bc
00000050: 9efb f23d 8abd a9bd 7665 f13d ee4d fe3d
00000060: 7e6c 033e d743 283d 8ed6 cb3d 6756 90bd
00000070: bcc4 bd3d e78d 103e 12aa 41bd 6118 e9bd
00000080: 96e0 01bc 8f65 913d 5e2a fc3d c33b 3a3d
00000090: b8e1 ac3c 8856 453d 5b88 b5bd 214f dfbc
000000a0: 3d5e babc 01a9 12be eee5 1dbd 38fe 473e
000000b0: 5d20 33be ca66 c0bb 07df cf3d 745d 6d3d
000000c0: bb15 b3bc 2546 e2bc c998 ed3d 1038 7fbd
000000d0: fa5e 143e 89a8 c23d a0d5 153d 2616 98bd
000000e0: c613 563d 53e1 073e 879a 34bc f6e4 3cbe
000000f0: 9ffc 72bd c3c9 15be 0056 08bc 9d10 67bd
00000100: 8cb9 a63d 239e a7bd 2c63 34bd f683 533e
00000110: 9bee 2d3c 1a70 8bbc 4305 14bd bbe2 103d
00000120: c14c 91bd 69a3 57be 98a8 a73d 1a3b 9b3d
00000130: 2b3f 163e 6588 363e def7 1cbe d6a1 c7bd
00000140: 4a87 36be 177a e33c 98eb a63c db3c ccbd
00000150: 2541 9d3d b9ad 953d bb42 673c 0201 dbbd
00000160: 7d32 193c bac8 c4bc d8a4 2f3e 557d db3c
00000170: ad0e 54bd aa21 a03d 018f ad3e d799 d63d
00000180: cd44 093d 3b9a 97bc f930 db3c bd69 7fbd
00000190: 48e1 8fbd 9e66 34bd 30ea 8f3c 3eee 683d
000001a0: 080e ce3d 928b 1ebe 980b bcbd 4684 1c3d
000001b0: 01b9 5c3d 8fc4 08be 7643 2ebe d7c9 2fbe
000001c0: 8f25 0dbe 8bd3 183e 7a9a 90bd ee02 53bc
000001d0: 4739 ba3c 80ec d9bd 1070 9c3d d083 053a
000001e0: d73b 803c 2c67 d03e fb62 5a3e f8cd 113e
000001f0: a928 24be 6596 af3c dedb 4bbd 72e9 95bc
00000200: a2eb c0bc 1202 01bd bce0 34be 9c13 1c3d
00000210: 2ef5 663d c70b bf3d b97d bc3c 60c1 0a3d
00000220: 0471 903e ad05 a43d d472 5ebe 8d52 0b3e
00000230: c82b f33d 48de d63d 4cc0 373a e645 5bbe
00000240: 965c 36be 8986 52be 4627 823d 601d 9c3d
00000250: 67f5 b83d bfb4 c03d 062b c73c 0a2c 403c
00000260: 081a 33bc 22cc 17be 083c b7bd 4754 b83c
00000270: 9994 13bd 53e7 143c 5f2f a2bc 60e9 bb3c
00000280: 8e16 a3bd 8d6e 6e3d a339 b2bd 8780 f6bd
00000290: b75c 7ebd 2de7 10bc 016e 8d3d e828 8fbe
000002a0: 92e8 dc3d c740 f2bd c5be 163e 85d6 aabc
000002b0: 8d9e cc3d 2873 1a3d 5cd8 a6bc b8ab 8dbd
000002c0: 8a2e 3bbd dd20 64bd fb10 9cbb 1ab0 2d3e
000002d0: 27ec f53d a383 11bd 8338 4ebe 1a50 053e
000002e0: 93dd b53d ba7c db3d 52bd fa3d 71c5 68be
000002f0: 7790 273e 9cbb f6bc b713 573c 40e7 8a3d
00000300: 4521 873d f99c 70bd 4938 c3bd c1e9 69be
00000310: 5e0f b3bd 0fbf b23d e707 323d 13ae 0ebe
00000320: 7893 ec39 e2a8 04bd 414c a5bd 3cd3 a7bc
00000330: c891 383d 7eb5 c53a 1cf9 9d3d 2ffe f0bd
00000340: c520 d2bd 1903 2a3d 8bdf 89bd bfe9 49bd
00000350: a23e 49bb c5cc 803d 603d 3c3c 36b7 8abe
00000360: 6549 bb3d 8782 243d a540 c03d 1fba 203d
00000370: 6437 d6be 832c b33b 82a0 01be bf5f b23c
00000380: abfb 6bbd 42a3 0b3e f58f 993d f90f 6f3e
00000390: 2a30 0c3e 6139 19be 5955 a43c b8b4 2d3c
000003a0: 01f4 0fbd f372 843b 8f95 813d 8c0f 8ebc
000003b0: e391 123d 5d90 ecbd 4448 52bd 62ef 17be
000003c0: 952f 78bd 6b9e cf3d 916e 223e b75e 233d
000003d0: c9ad 363e 0974 ad3d 861c 8cbe a378 463d
000003e0: 3c32 d73d 8d55 fabc 94da 663e 4a58 a7bc
000003f0: d3d5 82bd 6d72 a93d de38 5c3e bdaa 0f3e

layers.1.bias f4 [256]
-0.025289716 0.06408909 -0.03768405 -0.13872792 0.030067662 -0.15367015 -0.12676556 0.0046034604
-0.026260793 0.067602575 0.07156409 -0.060182568 0.15372644 -0.15461156 -0.024434125 0.12066931
0.042209327 -0.026247127 0.12286298 -0.028878553 -0.06669226 0.029224051 -0.018801184 0.008486096
0.0016630263 -0.12313314 -0.05765214 0.0724536 -0.02247627 0.038783688 -0.13021758 -0.0889462
-0.037847415 0.008958017 0.13257454 0.139969 -0.04786098 0.11187492 -0.08955925 0.020637657
-0.06361451 0.0013428209 0.007601102 0.03694955 0.07882518 -0.2190208 -0.23525657 -0.012036754
-0.15352699 -0.019314615 -0.14121786 -0.013516938 -0.04475784 0.019021112 0.017177682 0.034981776
0.1464484 -0.08550284 -0.09087453 -0.13264556 0.042500436 0.0363698 -0.029058233 -0.011006421
-0.12039479 -0.3801258 0.02940101 0.03642635 0.089545935 0.044598006 -0.023349939 -0.083747014
0.0655801 0.042730093 0.008496476 -0.07666723 -0.03740481 0.004707549 -0.121342234 -0.28886986
-0.04338744 -0.013384878 0.13063541 0.0027333365 -0.021859689 -0.022255022 0.050495498 0.030742921
0.1105594 -0.018649375 0.04948717 -0.13532132 0.014828208 -0.22643399 0.08645068 -0.059834555
-0.13181677 0.006295328 -0.027999789 -0.003193804 -0.016548557 0.033179373 0.056990914 -0.14635612
0.13593546 0.09399638 -0.039726343 0.16082327 -0.2119451 0.03914304 -0.01783962 0.09113724
-0.048633467 -0.1515072 0.054159608 0.0036987816 0.028319452 -0.030791583 -0.060130745 0.016621761
-0.006135744 0.06707376 -0.11429 0.14373772 -0.05679755 -0.040308636 0.09797687 -0.0077744247
0.0006872754 0.13018903 0.013667704 -0.019227542 -0.10022512 -0.091374844 0.055030007 -0.15385391
-0.0074070483 -0.12849468 0.01781611 -0.05830192 -0.04279866 -0.115394406 0.042657778 -0.046595868
0.080577016 0.03635935 0.0056932718 -0.074685395 -0.0104098 0.062134016 0.0006589141 -0.0641494
-0.06737018 -0.122534595 0.0034853052 0.13043922 0.026555367 -0.2317664 -0.01181253 -0.066418365
-0.11157985 0.056636907 -0.08593318 0.062070083 0.0582385 -0.06534938 0.06735135 0.035255205
0.013838412 -0.10095785 0.071822815 0.11543007 -0.04050341 0.10015701 0.10235749 -0.08563616
0.044660218 -0.1464615 -0.009370709 0.105608895 -0.041194335 0.048797652 0.03619123 0.1224451
-0.049238473 0.0050412472 0.06496428 -0.026264252 -0.15717207 -0.02472944 -0.05129717 -0.17353506
0.080610976 -0.04106838 0.10625223 -0.113201626 0.036229976 -0.00012332195 -0.025678726 0.05203667
-0.0017462189 0.060376678 0.02789934 -0.1619602 -0.04763448 0.09580294 -0.017547257 -0.08981419
0.02197986 -0.106341094 0.038551606 -0.090030834 -0.11843942 -0.21797824 0.07167541 -0.049865164
-0.023610458 -0.0957448 -0.1956686 0.119720526 0.1205165 -0.057839848 -0.025313616 -0.22890644
0.047169905 -0.08771972 0.06596695 -0.032303955 -0.1320343 0.023572767 -0.17430763 0.11503281
0.0066020126 0.1153869 -0.1685931 0.07848513 0.003134725 -0.01434546 -0.10872708 -0.15445204
0.08023037 0.13140288 0.020364484 -0.035916414 0.039678022 0.035196736 0.041628048 -0.10492229
0.011351974 -0.11124488 -0.09223149 -0.0061578113 -0.20105515 -0.06633098 -0.11987 -0.03757437
00000000: 612c cfbc 2441 833d 975a 1abd b10e 0ebe
00000010: 7550 f63c b55b 1dbe d5ce 01be a0d8 963b
00000020: e020 d7bc 3873 8a3d 3290 923d ff81 76bd
00000030: 776a 1d3e 7e52 1ebe 132a c8bc 7921 f73d
00000040: b0e3 2c3d 3704 d7bc 969f fb3d b792 ecbc
00000050: f495 88bd 4767 ef3c f104 9abc 4409 0b3c
00000060: e7f9 d93a 3a2d fcbd a624 6cbd 8e62 943d
00000070: 2820 b8bc a5db 1e3d c257 05be 6d29 b6bd
00000080: e405 1bbd a6c4 123c 9fc1 073e 0954 0f3e
00000090: e009 44bd ae1e e53d d76a b7bd 4e10 a93c
000000a0: 5348 82bd 9801 b03a aa12 f93b 6958 173d
000000b0: 196f a13d fd46 60be 19e7 70be ce35 45bc
000000c0: 2e36 1dbe af39 9ebc 6a9b 10be 2676 5dbc
000000d0: ff53 37bd 2ad2 9b3c 36b8 8c3c 0d49 0f3d
000000e0: 92f6 153e 1d1c afbd 6d1c babd 3dd4 07be
000000f0: f014 2e3d 80f8 143d 880b eebc 4754 34bc
00000100: 8b91 f6bd d99f c2be 63da f03c cc33 153d
00000110: dc63 b73d 66ac 363d 5f48 bfbc 8e83 abbd
00000120: dc4e 863d c005 2f3d ce34 0b3c b503 9dbd
00000130: c935 19bd c841 9a3b 4782 f8bd c0e6 93be
00000140: 07b7 31bd 3f4c 5bbc 4ac5 053e c721 333b
00000150: 1713 b3bc 2a50 b6bc 5ed4 4e3d 94d8 fb3c
00000160: f76c e23d 93c6 98bc 0fb3 4a3d ac91 0abe
00000170: 03f2 723c 50de 67be 0e0d b13d 1415 75bd
00000180: fafa 06be 0a49 ce3b d05f e5bc 244f 51bb
00000190: d790 87bc 18e7 073d 4e6f 693d 61de 15be
000001a0: aa32 0b3e 2d81 c03d 17b8 22bd dbae 243e
000001b0: 2308 59be 7454 203d 6524 92bc 29a6 ba3d
000001c0: e333 47bd b424 1bbe 77d6 5d3d 4267 723b
000001d0: 32fe e73c a13e fcbc a84b 76bd 5c2a 883c
000001e0: 5a0e c9bb f85d 893d e010 eabd fb2f 133e
000001f0: 8ca4 68bd ab1a 25bd 19a8 c83d 9ac0 febb
00000200: 452a 343a 4650 053e 81ee 5f3c 1483 9dbc
00000210: d442 cdbd bc22 bbbd 2567 613d e18b 1dbe
00000220: d3b6 f2bb 1c94 03be 17f3 913c fecd 6ebd
00000230: a64d 2fbd e753 ecbd ecb9 2e3d 4fdb 3ebd
00000240: 9005 a53d 8bed 143d a08e ba3b a8f4 98bd
00000250: de8d 2abc 3d80 7e3d faba 2c3a c360 83bd
00000260: 60f9 89bd 6bf3 fabd b869 643b dc91 053e
00000270: a48a d93c 2c54 6dbe 5889 41bc 5a06 88bd
00000280: fa83 e4bd 1afc 673d bcfd afbd 333d 7e3d
00000290: 7e8b 6e3d e5d5 85bd 81ef 893d c367 103d
000002a0: 82ba 623c fdc2 cebd d717 933d 9a66 ec3d
000002b0: e7e6 25bd 1e1f cd3d cea0 d13d 0362 afbd
000002c0: a2ed 363d 01fa 15be 9a87 19bc 7a49 d83d
000002d0: 64bb 28bd 0ce0 473d 413d 143d 7fc4 fa3d
000002e0: 48ae 49bd 0c31 a53b fe0b 853d 2128 d7bc
000002f0: b7f1 20be 6595 cabc fb1c 52bd 2db3 31be
00000300: 5e17 a53d 5137 28bd c59a d93d 41d6 e7bd
00000310: e265 143d fc4f 01b9 315c d2bc 6724 553d
00000320: 62e1 e4ba 894d 773d 288d e43c e5d8 25be
00000330: 5f1c 43bd 5534 c43d 44bf 8fbc 81f0 b7bd
00000340: 1b0f b43c 5cc9 d9bd 4ae8 1d3d 1662 b8bd
00000350: 5e90 f2bd b035 5fbe 8fca 923d 6a3f 4cbd
00000360: b86a c1bc da15 c4bd 595d 48be 0930 f53d
00000370: 5bd1 f63d 7ae9 6cbd 805e cfbc 7366 6abe
00000380: 3b35 413d 66a6 b3bd ae19 873d 2751 04bd
00000390: 0034 07be ad1b c13c b37d 32be 5296 eb3d
000003a0: b255 d83b f84f ec3d aba3 2cbe d0bc a03d
000003b0: f56f 4d3b 3809 6bbc 4eac debd ad28 1ebe
000003c0: d24f a43d 7a8e 063e 6bd3 a63c 171d 13bd
000003d0: 6c85 223d 742a 103d 2c82 2a3d 7fe1 d6bd
000003e0: a1fd 393c 5bd4 e3bd dde3 bcbd 77c7 c9bb
000003f0: 67e1 4dbe 89d8 87bd 677e f5bd 95e7 19bd

bn.0.weight f4 [512]
0.8256145 0.39209843 1.2340497 0.49564832 0.98961633 0.39060605 0.57540506 0.55411637
0.35260928 0.9958945 0.92967445 0.9040528 1.0004671 0.64744127 0.51881367 0.17621343
0.5854971 0.7102084 0.400248 0.27645734 0.9677 0.91974986 0.75748795 0.347565
1.0926194 0.46071193 0.26191404 0.64004326 1.1063135 0.76057565 0.74536985 0.9295317
0.6040532 1.2685481 0.44594315 0.9490839 0.68106127 0.55538714 0.9492381 0.7759358
0.36268142 0.8105582 0.47647917 0.5523918 1.2388108 0.40280554 0.6815116 0.8985901
0.9522137 0.32793242 0.9762394 0.4498116 0.7032618 0.9456058 0.98168457 0.1651446
0.86294585 0.35468653 0.6060813 0.82324433 0.61773705 0.5783279 0.49936342 0.36914366
0.8150863 0.4850813 0.5531078 0.85691285 0.33766705 0.38503608 0.7205038 0.6898644
0.40393567 0.8101173 0.33702192 0.93371105 0.5635925 0.2934445 1.3150452 0.60106695
0.3624276 0.78567994 0.25403687 0.33981758 0.24917649 0.5937428 0.5413357 0.6578965
0.5875038 0.94068724 1.0025092 0.7441686 0.64026356 1.0525512 0.3443143 0.5629528
0.5065378 0.18984197 0.84352565 0.47938013 0.6734411 0.40192127 0.16995853 1.0539637
0.34777364 0.5596647 1.1224674 0.6431553 0.6237836 0.5325752 0.19538249 0.17747754
0.8339289 0.45113856 0.6035853 0.69485 0.82543224 0.2383344 0.26091328 0.25655082
1.1063069 0.37640604 0.39639217 0.29944688 0.14549655 0.4516903 0.9279781 0.53601444
0.4185031 0.25727305 0.7632946 0.9400494 1.1690933 1.1342789 0.7357803 0.44295233
0.6468586 0.829706 1.1745623 0.7141945 0.4697608 0.8516238 0.56403196 1.2746358
0.6049003 1.2526258 0.89784235 0.5725894 0.65502113 0.84817404 0.6633765 0.7874623
0.7125722 0.46235156 0.74026626 0.99430335 1.1575234 0.9311401 0.2286936 0.7723629
0.8489198 0.7798743 0.24337505 0.91712266 0.7411053 0.30470926 0.3535639 0.7660144
0.56494117 0.58746576 0.48180604 0.69246525 0.6227555 0.44129038 0.30906513 0.6664542
0.59712857 1.1492052 0.42317182 0.47412622 0.73810923 1.008295 0.24819791 1.5935643
0.3811392 0.7959962 0.8063032 0.37966853 0.6841882 0.45248103 0.49321622 0.9803998
0.53638893 0.38406426 0.60572517 0.816364 0.48671967 0.24139181 0.50239074 0.7355325
0.7504811 0.9692253 0.77891123 0.9636162 0.48156953 0.58994514 0.71757865 1.1052613
0.67217547 0.30544955 0.8584089 0.406281 1.2631243 0.40447575 0.57761014 0.83943415
1.018961 0.6566604 1.022707 0.5357774 1.0926617 0.84019464 0.23415065 0.90058815
1.9206635 0.638476 0.54785186 0.5612839 0.3990463 1.1184787 0.42319584 1.0350498
0.70363575 0.5060342 0.1671009 0.9618856 0.6229289 0.33671668 0.6867795 0.18364868
0.17107023 0.3699397 0.31211784 0.81720465 0.7223752 0.7324531 1.2885265 0.6784529
0.8024763 0.72561324 0.9159643 0.45499438 0.7702701 0.5272465 0.8312892 1.4252372
00000000: 795b 533f 20c1 c83e 57f5 9d3f 9ec5 fd3e
00000010: 7f57 7d3f 84fd c73e bf4d 133f 92da 0d3f
00000020: 3489 b43e f1f2 7e3f 25ff 6d3f 0170 673f
00000030: 4e0f 803f b6be 253f f9d0 043f 4b71 343e
00000040: 23e3 153f 38d0 353f 4eed cc3e d18b 8d3e
00000050: 30bb 773f ba74 6b3f bbea 413f 0af4 b13e
00000060: f4da 8b3f 6fe2 eb3e 9919 863e e0d9 233f
00000070: ae9b 8d3f 16b5 423f 8fd0 3e3f caf5 6d3f
00000080: 3ba3 1a3f c95f a23f a952 e43e 2af7 723f
00000090: 085a 2e3f da2d 0e3f 4501 733f bba3 463f
000000a0: 61b1 b93e be80 4f3f 14f5 f33e 8d69 0d3f
000000b0: 5a91 9e3f 873c ce3e 8b77 2e3f 000a 663f
000000c0: 47c4 733f c2e6 a73e d3ea 793f b54d e63e
000000d0: f708 343f 3913 723f ae4f 7b3f ab1b 293e
000000e0: 05ea 5c3f 7999 b53e 2528 1b3f 24c0 523f
000000f0: 0424 1e3f 4c0d 143f 90ac ff3e 6600 bd3e
00000100: 7fa9 503f 935c f83e 7998 0d3f a45e 5b3f
00000110: b2e2 ac3e 7323 c53e f072 383f f49a 303f
00000120: a8d0 ce3e d963 4f3f 238e ac3e b007 6f3f
00000130: 9947 103f 5c3e 963e 6753 a83f 86df 193f
00000140: 1c90 b93e 5222 493f 1f11 823e 92fc ad3e
00000150: 1f28 7f3e 87ff 173f fa94 0a3f e86b 283f
00000160: a666 163f e1d0 703f 3952 803f d581 3e3f
00000170: 50e8 233f ffb9 863f f749 b03e ad1d 103f
00000180: 76ac 013f ef65 423e 4cf1 573f 5071 f53e
00000190: a366 2c3f a0c8 cd3e 9c09 2e3e 48e8 863f
000001a0: 630f b23e 3046 0f3f 03ad 8f3f d3a5 243f
000001b0: 48b0 1f3f d956 083f 5912 483e acbc 353e
000001c0: 5d7c 553f a2fb e63e 9184 1a3f b1e1 313f
000001d0: 874f 533f ef0d 743e 6d96 853e a15a 833e
000001e0: 779b 8d3f 4bb8 c03e eaf3 ca3e 1a51 993e
000001f0: 0cfd 143e f343 e73e f98f 6d3f 3e38 093f
00000200: 0a46 d63e 4bb9 833e 4667 433f 14a7 703f
00000210: d9a4 953f 0d30 913f 195c 3c3f a6ca e23e
00000220: 8698 253f 9d67 543f 0f58 963f 73d5 363f
00000230: 7d84 f03e 0404 5a3f 6664 103f 4427 a33f
00000240: bfda 1a3f 0b56 a03f ffd8 653f 3895 123f
00000250: 77af 273f ef21 593f 0bd3 293f 2197 493f
00000260: 226b 363f 58b9 ec3e 1782 3d3f aa8a 7e3f
00000270: ba29 943f 335f 6e3f a82e 6a3e 93b9 453f
00000280: cf52 593f d8a5 473f 4f37 793e 8dc8 6a3f
00000290: 14b9 3d3f da02 9c3e 5406 b53e 8519 443f
000002a0: fc9f 103f 2864 163f 48af f63e 6745 313f
000002b0: e86c 1f3f d0f0 e13e c93d 9e3e be9c 2a3f
000002c0: 6bdd 183f 2819 933f faa9 d83e acc0 f23e
000002d0: baf4 3c3f d00f 813f 9827 7e3e eaf9 cb3f
000002e0: ad24 c33e 68c6 4b3f e369 4e3f ea63 c23e
000002f0: f526 2f3f 98ab e73e d686 fc3e 7bfb 7a3f
00000300: c950 093f 12a4 c43e ce10 1b3f 3bfd 503f
00000310: 5233 f93e 6a2f 773e ae9c 003f dc4b 3c3f
00000320: 881f 403f 261f 783f ba66 473f 8daf 763f
00000330: 4890 f63e a506 173f 3cb3 373f 3479 8d3f
00000340: b113 2c3f e263 9c3e b0c0 5b3f 1004 d03e
00000350: 0fae a13f 7217 cf3e 42de 133f 28e5 563f
00000360: 506d 823f e51a 283f 10e8 823f b528 093f
00000370: 57dc 8b3f ff16 573f 30c5 6f3e f28c 663f
00000380: 4dd8 f53f 2a73 233f 0540 0c3f 4db0 0f3f
00000390: cc4f cc3e 4f2a 8f3f 20ad d83e 837c 843f
000003a0: 7921 343f 758b 013f 801c 2b3e 223e 763f
000003b0: 4578 1f3f 2166 ac3e c8d0 2f3f 660e 3c3e
000003c0: 092d 2f3e bd68 bd3e e9cd 9f3e 5334 513f
000003d0: 95ed 383f 0c82 3b3f 70ee a43f 17af 2d3f
000003e0: 166f 4d3f cac1 393f a37c 6a3f 06f5 e83e
000003f0: 6c30 453f a0f9 063f 5ecf 543f 2c6e b63f

bn.0.bias f4 [512]
0.17964731 -0.06920287 0.07737228 -0.034112167 -0.009782475 -0.00016318509 0.15315601 -0.037589725
-0.21356823 -0.16681819 -0.123259746 -0.24944943 -0.39788312 -0.1020908 -0.27711272 -0.010700204
-0.11341382 0.25116828 0.063433975 -0.088006236 -0.2683351 -0.13924909 -0.29355407 -0.118792415
0.07813509 -0.046304148 0.06773902 -0.15393494 -0.12434537 -0.10880408 -0.055856947 0.0659922
-0.107150376 0.23995432 -0.185757 -0.048526064 -0.3133631 -0.2884139 -0.35888648 -0.22419223
-0.1957385 0.07819956 -0.07747897 -0.17272323 -0.33466724 -0.29348934 -0.30113813 -0.1375012
-0.26464033 -0.098680064 0.18583415 -0.25758716 -0.060779385 -0.17809261 -0.19359502 0.23061047
-0.31451604 -0.20272203 -0.015143628 0.030132165 -0.13987881 0.022698166 0.08018418 -0.06096803
0.06139763 -0.25840762 -0.21959926 -0.076256014 -0.020214278 -0.05063473 -0.16938777 -0.1257327
0.008238251 -0.2047752 -0.19902444 -0.023407398 -0.19910875 -0.1665292 -0.3213793 -0.021859556
-0.14205061 -0.1249358 -0.04475748 -0.1574341 -0.1934566 -0.20305762 -0.21908341 -0.13697077
0.14860035 -0.24169706 -0.06236783 -0.002082323 -0.29227963 -0.11248654 -0.10160847 -0.27756327
-0.30450976 -0.012499135 -0.2661303 -0.32830155 0.03818741 -0.19415641 -0.13473971 0.29148555
-0.15874512 -0.14532232 -0.27677768 0.18027519 -0.23264052 -0.21473193 -0.15118545 -0.25240022
-0.020832937 -0.008125305 0.20304044 0.09866168 -0.10266253 -0.07152449 -0.1485477 -0.078263454
-0.17879114 -0.3886412 -0.130663 -0.4116651 -0.12978643 -0.20126608 -0.2928366 0.0908823
-0.11716548 -0.103440896 -0.06799087 -0.23739721 -0.081165716 -0.25604984 0.06702834 -0.10849266
-0.18370847 -0.054415878 -0.077043705 -0.06544654 -0.1434118 -0.3782363 -0.2879715 -0.20062372
-0.08592915 0.082014956 -0.23851232 -0.35163614 -0.23893602 -0.24503577 -0.07140496 -0.20288883
-0.15319854 -0.034527812 -0.22694467 -0.14266214 -0.2994728 0.010310979 -0.069570996 -0.15859915
-0.21124402 -0.061168555 -0.19825797 0.071690805 -0.14326777 0.008066677 -0.2223291 0.11181464
-0.13477413 -0.14181127 -0.33439165 -0.16038999 -0.2685833 -0.2262053 -0.10919327 -0.04495065
0.040337157 -0.27372673 -0.22699101 -0.14646402 -0.051911704 -0.23671414 -0.15954515 -0.2720129
-0.06370326 0.12133007 -0.02138436 0.00048871856 0.029384846 -0.20328806 -0.12999906 -0.061605174
-0.29527172 0.114658974 -0.15552737 -0.2096654 -0.23266529 -0.20669769 0.08614231 0.11285289
-0.1294005 -0.023374239 0.02298369 -0.017209912 -0.21324706 -0.13345216 -0.06893807 -0.042497337
-0.10837757 0.08450556 -0.24306886 0.05063135 -0.122492254 -0.11231302 -0.051922176 -0.0072210813
-0.24848028 -0.3049903 -0.11493877 0.07546242 -0.0018766227 -0.12674102 -0.13462266 -0.34998795
-0.11868948 -0.086707674 0.19018736 0.23687005 -0.11944404 0.1291133 -0.22350195 -0.13147612
-0.15140252 -0.318838 0.08736619 0.040417854 -0.15730123 -0.16773865 -0.24089047 -0.100685306
0.30934906 -0.07145732 -0.21383789 0.029873895 -0.14846219 -0.1627226 -0.21472678 0.012791628
-0.0650142 0.0004615503 0.035291824 -0.11689603 -0.170265 -0.043002434 -0.24360546 -0.16926147
00000000: 77f5 373e 3cba 8dbd 5c75 9e3d 33b9 0bbd
00000010: ad46 20bc aa1c 2bb9 eed4 1c3e aff7 19bd
00000020: a1b1 5abe 63d2 2abe 9b6f fcbd ac6f 7fbe
00000030: 56b7 cbbe fb14 d1bd b8e1 8dbe e94f 2fbc
00000040: 8145 e8bd 2199 803e ace9 813d 9d3c b4bd
00000050: 3863 89be 5097 0ebe b84c 96be 7049 f3bd
00000060: 4a05 a03d 6ba9 3dbd c1ba 8a3d 1fa1 1dbe
00000070: c9a8 febd acd4 debd 41ca 64bd eb26 873d
00000080: a871 dbbd 96b6 753e 1537 3ebe 44c3 46bd
00000090: 2171 a0be fdaa 93be f8bf b7be a692 65be
000000a0: ac6f 48be 1727 a03d 4bad 9ebd 5cde 30be
000000b0: 8159 abbe 3c44 96be c72e 9abe 1dcd 0cbe
000000c0: f07e 87be c618 cabd 4f4b 3e3e 77e2 83be
000000d0: cef3 78bd e95d 36be c63d 46be 2725 6c3e
000000e0: 3f08 a1be 5d96 4fbe fb1c 78bc bbd7 f63c
000000f0: 643c 0fbe 81f1 b93c 9a37 a43d 9db9 79bd
00000100: 157c 7b3d 014e 84be a1de 60be 1d2c 9cbd
00000110: 6a98 a5bc 5d66 4fbd fd73 2dbe 13c0 00be
00000120: bbf9 063c 97b0 51be 10cd 4bbe dfc0 bfbc
00000130: 2ae3 4bbe a186 2abe d48b a4be d012 b3bc
00000140: b775 11be 57de ffbd 9f53 37bd 6836 21be
00000150: 7d19 46be 56ee 4fbe 6757 60be 1142 0cbe
00000160: b12a 183e 6f7f 77be 6975 7fbd 9577 08bb
00000170: ada5 95be 585f e6bd 1a18 d0bd c61c 8ebe
00000180: b4e8 9bbe 2cc9 4cbc 3b42 88be 2417 a8be
00000190: 676a 1c3d f0d0 46be 35f9 09be 983d 953e
000001a0: 158e 22be 60cf 14be ceb5 8dbe 0f9a 383e
000001b0: 5139 6ebe b0e2 5bbe 5cd0 1abe 9a3a 81be
000001c0: d6a9 aabc 0020 05bc d5e9 4f3e 230f ca3d
000001d0: bc40 d2bd 6f7b 92bd e31c 18be 9748 a0bd
000001e0: 0615 37be fbfb c6be 85cc 05be c5c5 d2be
000001f0: bce6 04be b218 4ebe aeee 95be 8020 ba3d
00000200: 75f4 efbd d2d8 d3bd cc3e 8bbd 4118 73be
00000210: 363a a6bd f718 83be 2846 893d 6631 debd
00000220: 131e 3cbe 2fe3 5ebd 17c9 9dbd d608 86bd
00000230: 8bda 12be 30a8 c1be 0071 93be 4e70 4dbe
00000240: 9ffb afbd 75f7 a73d 933c 74be a709 b4be
00000250: a5ab 74be a8ea 7abe c33c 92bd 17c2 4fbe
00000260: 14e0 1cbe 096d 0dbd 2f64 68be 0616 12be
00000270: 8054 99be 61ef 283c 3d7b 8ebd d167 22be
00000280: 5a50 58be e18b 7abd 2304 4bbe a1d2 923d
00000290: c9b4 12be 182a 043c 3daa 63be 13ff e43d
000002a0: 3b02 0abe f936 11be 6235 abbe 463d 24be
000002b0: c083 89be 5da2 67be b9a0 dfbd 2c1e 38bd
000002c0: 9338 253d e925 8cbe 5570 68be aafa 15be
000002d0: 5ea1 54bd 3165 72be ce5f 23be 4645 8bbe
000002e0: db76 82bd e67b f83d 412e afbc 591d 003a
000002f0: 7db8 f03c bf2a 50be 791e 05be b555 7cbd
00000300: db2d 97be 53d2 ea3d 9142 1fbe 87b2 56be
00000310: cf3f 6ebe 8fa8 53be 616b b03d 6a1f e73d
00000320: 9181 04be 557b bfbc 4b48 bc3c cdfb 8cbc
00000330: 705d 5abe afa7 08be 672f 8dbd b011 2ebd
00000340: 0ff5 ddbd 4011 ad3d 0be7 78be d262 4f3d
00000350: 38dd fabd 5e04 e6bd 59ac 54bd d29e ecbb
00000360: 9d71 7ebe b027 9cbe 0565 ebbd 0b8c 9a3d
00000370: 02f9 f5ba 66c8 01be 86da 09be 9f31 b3be
00000380: 7813 f3bd cb93 b1bd 7ac0 423e 108e 723e
00000390: 149f f4bd 4736 043e b2dd 64be ada1 06be
000003a0: 4309 1bbe bc3e a3be 0ced b23d 318d 253d
000003b0: 9313 21be aec3 2bbe feab 76be 1934 cebd
000003c0: 0063 9e3e 3758 92bd 52f8 5abe 19ba f43c
000003d0: 7906 18be c1a0 26be 56e1 5bbe fa93 513c
000003e0: 2a26 85bd 3cfc f139 298e 103d 3067 efbd
000003f0: f359 2ebe 5223 30bd b673 79be e152 2dbe

bn.0.running_mean f4 [512]
0.18040998 0.1257218 0.037757408 0.17199065 0.18320753 -0.026496122 -0.19969466 0.027810764
0.074259974 0.04158614 0.0062418976 0.1745574 0.1323699 0.040333513 0.0088350205 0.097475044
-0.20174758 -0.147545 0.19425543 0.08383498 0.069464795 0.009665415 -0.0369409 0.04643392
0.16243133 -0.090429805 0.033415083 -0.16922489 -0.111754484 -0.04613604 0.034035955 -0.122845985
0.1470547 0.16183946 0.1367001 0.037755694 -0.042990692 0.088264205 -0.09700687 0.047498126
-0.18713574 0.019134516 -0.034636114 -0.17154594 -0.12540346 0.18260756 0.058572225 0.12821639
-0.111042455 0.17808671 -0.114510365 -0.19912666 -0.106442586 0.10087366 0.09882294 0.15470731
0.075767994 -0.08832883 0.03671621 0.12298685 0.13632335 0.20237675 -0.10089809 0.08561207
0.11086396 0.09938501 -0.07946017 0.046379447 0.011362026 0.19586077 -0.07567509 -0.18702921
0.010331087 0.10030267 -8.9935194e-05 0.1772563 0.03980473 -0.036441408 -0.06524243 0.051599212
-0.18512642 -0.009790327 -0.13371864 0.07949486 0.11062391 0.11500964 -0.116395034 -0.15358458
-0.07774171 0.1779484 0.16752313 0.08204598 0.1962307 0.07594443 0.036382724 -0.08314176
0.037815116 0.006661109 0.0062110857 -0.046196423 -0.09181978 -0.003883259 -0.16315006 0.13910075
0.17122868 -0.095179185 0.0020821788 0.2002662 0.18060498 0.12543564 -0.11662878 0.10838327
0.19632718 0.027341774 0.08748608 0.004345396 -0.022414431 0.15774454 0.06505118 -0.19739631
0.0068078055 0.14758241 -0.029527694 -0.18880077 0.06046364 -0.18440492 -0.15753683 -0.08119026
-0.18785779 0.08927024 0.12531878 -0.0494343 0.17549281 -0.0734524 0.09803962 -0.179636
0.11939695 -0.074094556 -0.072846696 -0.116726495 -0.14462093 0.10651239 0.15403879 0.012591956
-0.07369857 0.12668404 0.06396637 0.142319 0.03371326 -0.050603222 -0.15033337 -0.20191509
0.024718685 -0.1774917 0.04452141 0.18006971 -0.016543314 -0.06391042 0.097187094 0.1907167
0.1632045 0.125115 -0.17065424 -0.07976988 -0.19713748 -0.019178234 -0.026347758 -0.13815261
0.07819617 0.14523359 0.14366607 0.07105807 0.04362383 -0.039296377 -0.068726815 0.18039632
-0.1381777 0.009801412 -0.19797985 -0.15232722 -0.0691685 0.1276721 0.117016725 -0.1051259
0.043477338 0.013327616 0.068625614 0.17433192 0.20363513 0.021438068 0.03307537 -0.013883349
-0.20532985 0.020762527 -0.057845112 0.01692914 0.18192208 -0.0724737 0.12685356 -0.17840576
0.11639535 -0.017333124 -0.027993867 -0.08243435 -0.06880941 0.040641718 -0.12662381 0.13749334
0.19275281 0.1360934 -0.075448565 0.15371832 0.19235308 0.15229622 -0.1671346 -0.14710371
0.011068134 -0.16524564 0.09701539 0.06758023 -0.0061967117 -0.15860556 0.105700485 -0.007780759
0.14906944 -0.16416201 -0.10919302 -0.18666428 0.19106482 0.12453938 -0.060479015 0.079258725
0.18570425 0.051450726 0.1840022 -0.10605161 -0.02183507 0.07263521 0.124467865 0.00013418868
0.10050651 0.036567196 0.16903047 -0.17136471 -0.13271487 0.19781376 0.03561479 -0.09218922
-0.1448604 0.19806567 -0.14936724 -0.14530623 0.044867035 0.08369977 0.08198124 -0.18806735
00000000: 65bd 383e 37bd 003e 83a7 1a3d 511e 303e
00000010: c19a 3b3e 650e d9bc c27c 4cbe 66d3 e33c
00000020: 9d15 983d 3a56 2a3d d588 cc3b 2dbf 323e
00000030: fa8b 073e c134 253d c3c0 103c ffa0 c73d
00000040: eb96 4ebe 0916 17be e5ea 463e adb1 ab3d
00000050: 8f43 8e3d b05b 1e3c 574f 17bd 7e31 3e3d
00000060: 6654 263e 4333 b9bd 41de 083d 4a49 2dbe
00000070: 89df e4bd 25f9 3cbd 4969 0b3d ad96 fbbd
00000080: 8295 163e 3eb9 253e 1cfb 0b3e b7a5 1a3d
00000090: 0217 30bd ddc3 b43d 8aab c6bd 658d 423d
000000a0: 83a0 3fbe fdbf 9c3c 99de 0dbd bda9 2fbe
000000b0: c469 00be 7afd 3a3e 6ee9 6f3d 284b 033e
000000c0: 3a6a e3bd 5d5c 363e 6984 eabd dce7 4bbe
000000d0: 92fe d9bd d996 ce3d ae63 ca3d 986b 1e3e
000000e0: 402c 9b3d bfe5 b4bd bd63 163d 88e0 fb3d
000000f0: 5998 0b3e da3b 4f3e a8a3 cebd 6255 af3d
00000100: a50c e33d 5e8a cb3d 03bc a2bd 60f8 3d3d
00000110: cb27 3a3c ba8f 483e 8bfb 9abd 9684 3fbe
00000120: b843 293c 7c6b cd3d 979b bcb8 ad82 353e
00000130: 490a 233d 9643 15bd d39d 85bd b259 533d
00000140: c891 3dbe 9c67 20bc 8aed 08be 33ce a23d
00000150: ca8e e23d 2d8a eb3d 8560 eebd 4745 1dbe
00000160: 0c37 9fbd 1b38 363e 2f8b 2b3e b907 a83d
00000170: b3f0 483e c188 9b3d 0d06 153d 3a46 aabd
00000180: 06e4 1a3d 6f45 da3b 5d86 cb3b 7638 3dbd
00000190: 020c bcbd 467e 7ebb cf10 27be 6d70 0e3e
000001a0: 9256 2f3e 4eed c2bd 2a75 083b 9512 4d3e
000001b0: 83f0 383e 3372 003e 12db eebd 0cf8 dd3d
000001c0: fe09 493e dbfb df3c e72b b33d d363 8e3b
000001d0: 789e b7bc c987 213e 8e39 853d 4222 4abe
000001e0: 0314 df3b d81f 173e 10e4 f1bc fd54 41be
000001f0: b9a8 773d a5d4 3cbe 5651 21be 1447 a6bd
00000200: cb5d 40be 51d3 b63d 9153 003e 9f7b 4abd
00000210: 63b4 333e 366e 96bd ffc8 c83d 80f2 37be
00000220: 6386 f43d e3be 97bd a630 95bd 4d0e efbd
00000230: 8217 14be 2b23 da3d 58bc 1d3e 7e4e 4e3c
00000240: 47ef 96bd 76b9 013e cd00 833d 12bc 113e
00000250: ea16 0a3d 5345 4fbd fef0 19be d4c2 4ebe
00000260: d77e ca3c 62c0 35be 155c 363d 3264 383e
00000270: d885 87bc 77e3 82bd 070a c73d 3d4b 433e
00000280: 151f 273e 261e 003e fcbf 2ebe 645e a3bd
00000290: 68de 49be ac1b 9dbc 41d7 d7bc e177 0dbe
000002a0: 5025 a03d 1db8 143e 331d 133e e586 913d
000002b0: e7ae 323d 3df5 20bd a5c0 8cbd d0b9 383e
000002c0: 747e 0dbe 1a96 203c 3bbb 4abe abfb 1bbe
000002d0: 37a8 8dbd 7abc 023e 77a6 ef3d 3f4c d7bd
000002e0: 4b15 323d 135c 5a3c 968b 8c3d 1184 323e
000002f0: ba85 503e e39e af3c 0a7a 073d fc76 63bc
00000300: fd41 52be 2d16 aa3c ffee 6cbd fbae 8a3c
00000310: c849 3a3e 176d 94bd e6e5 013e 00b0 36be
00000320: af60 ee3d 32fe 8dbc 6553 e5bc 57d3 a8bd
00000330: f3eb 8cbd ee77 263d aca9 01be 0ecb 0c3e
00000340: fe60 453e 115c 0b3e c784 9abd 5668 1d3e
00000350: 35f8 443e 8af3 1b3e 5525 2bbe 5ba2 16be
00000360: 1e57 353c 2736 29be 01b0 c63d 8167 8a3d
00000370: c90d cbbb 7f69 22be 7f79 d83d bdf5 febb
00000380: a9a5 183e 161a 28be 97a0 dfbd ec24 3fbe
00000390: 7fa6 433e 810e ff3d d8b8 77bd 6652 a23d
000003a0: 4129 3e3e ffbd 523d 136b 3c3e 9631 d9bd
000003b0: 76df b2bc c5c1 943d 02e9 fe3d 00b5 0c39
000003c0: 5bd6 cd3d 7cc7 153d 5316 2d3e 3b7a 2fbe
000003d0: 68e6 07be b18f 4a3e d0e0 113d b4cd bcbd
000003e0: 4956 14be bad1 4a3e baf3 18be 28cb 14be
000003f0: 7fc6 373d c96a ab3d c8e5 a73d ba94 40be
