solutions/Deep Reinforcement Learning/2_Continuous Control/checkpoint_actor.pth (torch_old, 548294 bytes, 10 tensors)

fc1.weight f4 [400, 33]
00000000: fd42 8ebd 4ccf 383e dea1 1fbe e087 163e
00000010: a005 ab3e db6a b3be 3208 a2bd 7482 26be
00000020: 922f b8bc 824e bd3d ff12 b7bc 9fa4 c83c
00000030: 3a71 58bb 0b60 413e e9e4 0abe abc8 4f3e
00000040: 2f52 d63d 20aa 22bd 685f aa3d 615b 07be
00000050: 7f25 88bc d599 063e a8ac 263d 97bc 5b3d
00000060: 33a0 b9bc 38bd a53d 41e1 4bbe 18f1 3ebc
00000070: a5e2 9abd 5058 4c3b 0726 c03c 3dad 4bbd
00000080: ba4a 30bf d292 61be cc85 0bbc a471 e03c
00000090: a222 fe3d 1d09 3cbe 290d 98be bed2 72bd
000000a0: 5455 0ebe 2980 70be f791 023e 0639 96bd
000000b0: 0d59 973d c209 6e3d cba7 413e 19c3 dd3e
000000c0: 1abc a73d 1c41 353e 96ae 6dbe f3bb 75bd
000000d0: 9235 2f3e 7b70 083d 8a79 473d 4168 42be
000000e0: b478 8abe 9ae3 403d 1d5d 3c3c 12ce fbbd
000000f0: 0aa3 a63c d5a9 afbd 4054 d53b caa9 a63c
00000100: b63f 18bd b5f6 183f a7c5 213e 16a9 9c3e
00000110: f573 b0bd ab44 c3be cef0 cebe d2a0 213f
00000120: 4abe 403d d8f8 a7bc 42be 11be 498c 7f3e
00000130: 37a5 903d bf2a 363d a854 3c3c 17d1 aabd
00000140: b0a9 5cbc 8266 283e b780 983e 3f75 a23e
00000150: 2e3c 403f 649f c23e bc51 fbbd a95a 293e
00000160: 9c72 a6bd 2584 21be 1cfa 37bb fe03 61bd
00000170: 142c 6e3d 2be4 bb3c 8e45 55bd b8a5 3fbd
00000180: 9f93 3dbd 7058 f83b 6dc0 313d 2077 643e
00000190: 5227 b13d 5a6b 113d 4dbd b6bb 3563 663e
000001a0: 7828 963e ba38 e23e d9cf 94bd 2874 e0be
000001b0: 1e7f a0bd e8a2 81bd f92e e83d 26cd 413c
000001c0: 5a4a dabe a713 9a3c 6a74 743d 28e5 633e
000001d0: 90a7 653e 739a a53d 3dac 33be 797e 98bc
000001e0: 2f31 62be 4ff1 433d f03e 0fbd fb24 4c3e
000001f0: c233 f43c 20c0 1fbd bee4 08bc 60ac d6bd
00000200: 03b0 c2bc 29d0 d23b ade3 a3bc 4059 3b3e
00000210: 71ee 8fbe 5b07 7c3e 06e0 2bbd 7328 36be
00000220: 9542 2abf ed87 3a3f 5204 8bbe e754 e83d
00000230: a015 1abe 8430 1bbe 813b fbbc 5798 383d
00000240: 1d67 f7bc 0d39 2bbe d80e f9bd 3f18 34bd
00000250: 41ee dfbe 7b35 c13e 1051 e4be b66e 1a3e
00000260: 2e2e 02be 1e83 d03d c30f 9ebd 330f 92bd
00000270: 9e0e 88bc e033 593d e22a ff3d f246 9bbc
00000280: 5b6a 23bd d61b 93bc 541f c13c d528 383d
00000290: 961a f9bd 3dc5 1a3e ad6a 4bbd 5fa0 d73d
000002a0: f0ff 18be 881c 473f 9e18 013e a058 fc3d
000002b0: c86c f3bd 5059 af3d 84e4 693d a77f 43bd
000002c0: 3ac2 9fbc 9b84 ce3d 0c0e 493c d74f 053e
000002d0: d9f0 23be bcfc e23e df09 64bf 482b c2be
000002e0: a786 87bc c2b2 9f3d cc79 f3bc 4d2b cc3d
000002f0: 1f54 e2bc a9fd 35ba de47 16bb e575 a4bd
00000300: 2184 1a3d 9995 d53d 949a 2f3c 24d5 903c
00000310: 405a 95bc 9aae 33be e5f5 783c 2e7b 6ebe
00000320: 4fdc 6cbe ba8f 6d3d 73cb cb3d 1e1e 3ebf
00000330: 3680 693c 6baf 30bd d1a7 8fbe a59d 2a3e
00000340: a708 363c 7a19 93bd f954 b0ba 0eba ba3c
00000350: 3bc7 533e e075 ed3d d03e 7c3e 4ef0 c9bd
00000360: 1741 063f de95 98bd fd07 8b3d 25cd 19bc
00000370: 1bee 92be 0525 123e c187 043e 142e 8d3e
00000380: 4f4c 163c 3067 203d 5129 47bd 0a8e fbbc
00000390: 06e1 eabc cd45 abbc c1a7 d9be 87aa 2bbd
000003a0: d77c 9f3e 9fba 8c3e dd67 3bbf 8f0b c3be
000003b0: 1804 2e3f b9e1 b1bd 2bdc e93c 7637 0bbe
000003c0: 3ad5 f7bd 930d b93d bbb8 943d cd42 d0bc
000003d0: 01eb b2bc 2408 1bbe 8911 1f3d e0be d1be
000003e0: 6c43 a83e 2428 9c3e 2c3a 3f3d ab6a c4bd
000003f0: 81f7 663e 14f9 473d 7295 603d d698 c1bd
-0.06946371 0.18047827 -0.15589091 0.1470027 0.3340273 -0.35042462 -0.079117194 -0.16260701
-0.02248362 0.0924349 -0.022347925 0.02449256 -0.0033026473 0.18884294 -0.13563885 0.20291393
0.10464894 -0.039713025 0.083189785 -0.13218452 -0.016619442 0.1314462 0.040692 0.05364665
-0.022659397 0.08092731 -0.19910146 -0.011654161 -0.0756276 0.0031180568 0.023455633 -0.04972576
-0.68864024 -0.22028664 -0.008515786 0.027397938 0.124089494 -0.18362851 -0.2969754 -0.05928301
-0.13899738 -0.23486389 0.12750994 -0.07335095 0.07390032 0.058114775 0.18911664 0.4331291
0.081901744 0.17700619 -0.2321113 -0.059993695 0.17110279 0.033310395 0.048699893 -0.18985082
-0.27045214 0.047092058 0.011496809 -0.12295164 0.020341415 -0.08577315 0.0065102875 0.020344634
-0.037170134 0.59751445 0.15798055 0.30597752 -0.08615867 -0.38138327 -0.40418094 0.6313602
0.047056474 -0.0205044 -0.14232734 0.24955858 0.07062762 0.04447436 0.011494793 -0.08340662
-0.013468191 0.16445354 0.29785702 0.31730077 0.75091827 0.3801223 -0.12271449 0.1653849
-0.08127329 -0.15773065 -0.002807266 -0.054935448 0.058147505 0.022935947 -0.052068286 -0.0467889
-0.04628336 0.007578902 0.043396402 0.22311068 0.08650078 0.03550277 -0.0055767656 0.22498782
0.2932775 0.44183904 -0.07266206 -0.4383862 -0.07836746 -0.063299 0.11337084 0.011828696
-0.4263485 0.0188082 0.059681334 0.22255385 0.22427201 0.080860995 -0.17546172 -0.018614994
-0.22089075 0.04783755 -0.03497213 0.19935982 0.029809836 -0.039001584 -0.008355318 -0.10482097
-0.02376557 0.006433506 -0.020006025 0.18295765 -0.28111604 0.24612181 -0.041961692 -0.17788868
-0.66507846 0.72863656 -0.27151734 0.11344319 -0.15047312 -0.15155226 -0.030668022 0.045067158
-0.030200535 -0.16720982 -0.12161034 -0.043968435 -0.4373646 0.37736115 -0.44593096 0.15081295
-0.12712929 0.101812586 -0.0771785 -0.07131805 -0.016608533 0.053027987 0.12459351 -0.018954728
-0.03989635 -0.01795761 0.023574509 0.044960815 -0.12163274 0.15114303 -0.04966228 0.10528635
-0.14941382 0.7777791 0.12607047 0.123215914 -0.11885983 0.08561957 0.057102695 -0.04772916
-0.019501794 0.10083886 0.012271415 0.13018738 -0.16009845 0.44333446 -0.8907756 -0.37923646
-0.0165437 0.07797767 -0.029721163 0.099691965 -0.027628003 -0.00069424004 -0.002293102 -0.08030299
0.037723664 0.10428924 0.010718007 0.017679758 -0.018231511 -0.17547074 0.015195345 -0.23289177
-0.23130916 0.057998396 0.09950914 -0.74264705 0.014251759 -0.04313604 -0.2805772 0.16661699
0.011110461 -0.07182594 -0.0013453058 0.022793796 0.20681469 0.115947485 0.24633336 -0.098602876
0.5244307 -0.0745046 0.06788633 -0.009387289 -0.28697285 0.14271934 0.12942411 0.27574217
0.009173467 0.039160907 -0.048623387 -0.030707378 -0.028671753 -0.020907307 -0.425108 -0.041910674
0.31149933 0.2748613 -0.7320536 -0.38094756 0.67974997 -0.08685631 0.028547367 -0.13595375
-0.121012166 0.09035792 0.07261797 -0.025422478 -0.021840574 -0.15139824 0.038835082 -0.4096594
0.3286394 0.30499375 0.046686336 -0.09590658 0.22555353 0.048821524 0.054830022 -0.09452979

fc1.bias f4 [400]
00000000: 9d98 cb3c d615 2a3e 53be 7b3d f21a c93d
00000010: 33a7 913d 0a2f 60bd 4062 2a3d 756a f5bd
00000020: f949 243e dc62 1e3c 4c31 0a3e 19b5 fabd
00000030: 1ec8 23be 70b0 aa3c 6341 b8bc 6ca6 8fbd
00000040: 04a4 ba3d 63c4 e7bd c04e 1c3e 94d4 2dbe
00000050: 4035 123d 1e45 d1bd a406 1c3d e321 303e
00000060: 9626 aabc 35a7 253d 7f55 8cbd b8a8 b5bd
00000070: 3b5e 18be 22ef cd3d 6bb3 fdba f85c 763d
00000080: a893 08be 375c 14be 1d83 22be 8097 cdbd
00000090: ff53 babc 8eba d5bc 4488 9c3d a33a abbd
000000a0: 199f 2d3e 38a8 a2bd ff8f 27be f8fd 063e
000000b0: 86aa e4bd ffb4 703c 63e0 88bc b8df 14bd
000000c0: a74b 3b39 ce53 2fbe 2c42 203e 40e6 e6bd
000000d0: ab6d d93d b491 d2bd 75f8 2fbd 7aa8 8bbb
000000e0: 4799 8cbd 33d5 9abd 7f54 16be 0c58 f4bd
000000f0: 80d2 08bc 98d4 51bd a987 cbbc ee69 363d
00000100: e94d b2bc 427e 28be 97a1 83bd 5bba 593d
00000110: 085f 803d c3b2 ac3d e408 1e3c e456 f43d
00000120: 2a47 f3bd 545a 15be 6a78 3ebd 473c 813a
00000130: 6924 013e 2c99 cdbd 4e7d f9bd a2b2 9abb
00000140: 1a8c 353d 85c1 22be cec9 8ebd 32eb 0bbe
00000150: 0c82 263d 10c9 813c b8a2 1ebe 38e3 edbd
00000160: fc6b 163c 89b9 3cbd f904 0abe dc62 5abd
00000170: 3908 23be 3d74 a2bc 4534 a5bc dc48 103c
00000180: 74c1 723c 9fb1 f8bc fa53 0e3e dbeb 7dbd
00000190: 3b9b a03d d315 863d 74a0 aebc 5495 02be
000001a0: 029d 15be eb3f 453d 9e19 593d 5f18 d83d
000001b0: e883 9dbd b8d1 0f3e f1ab 313e e76b e3bc
000001c0: 8307 8abd 009d 5dbd 4829 1bbe bed4 cd3d
000001d0: 0675 983c 9693 a43d 0c0d e53d 301f 97bd
000001e0: ca3e 063b bfb8 103e c896 09be 3eac 1c3e
000001f0: 9b50 b93d 240b 60bd 1257 11be 12e3 be3d
00000200: 39b5 a93d a3b7 a1bd 29d7 a83d 009a 533d
00000210: 33ad 2f3e 7ccb b63d 35e0 dc3c 026f 30be
00000220: c10b 113e 3536 193e 11dd 46bd 78b4 5fbc
00000230: b380 ebbb 3e19 2ebc 0e06 c13d 3dc4 c03c
00000240: 152b 1bbe 6149 653d 8301 dbbd df3b 4b3d
00000250: 22eb 9c3d 15d3 abbd f473 f13d ea00 8b3b
00000260: ed36 b3bd 37f9 183e e07b e33d 472a 023e
00000270: a78c f5bd 53f3 07be e370 1cbe 1c8a e63d
00000280: f2b4 ce3d ac46 d9bd da05 8a3d a394 0c3d
00000290: 4717 99bd d071 c43b 98f5 d6bd df18 4fbd
000002a0: bba3 8c3d 95a4 cc3c 3a21 04be 3f4b 333d
000002b0: 1c7f 0bbd 969f 03be dd90 24be b388 fd3b
000002c0: c559 03be fc0f dabd d56c 293d b338 383c
000002d0: a757 a2bd a5c9 dc3c 5884 b33d 8b0f 8abd
000002e0: 17ac 7ebd 2d64 fc3c 50d7 2e3d 525c 783d
000002f0: bb0e f23d 324f 3abc 04f6 6c3d 011c cdbd
00000300: 935f b8bc 0f14 043e d79c 2cbe dfcd eabd
00000310: 7e35 1bbe d078 143e cda3 a1bc cc5c 233e
00000320: bd67 bfbd d461 43bd 72e3 e53d 2051 31be
00000330: 17e6 2dbe 6ac3 eebd 253b 5a3b f1fb 23be
00000340: 67a3 033d d182 163e 757a 0fbd 867f ffbc
00000350: 5c40 1dbe 207a 16bd 641b 683c cafd 113d
00000360: 844f 6cbd bb57 dabd 4180 babd 50d4 f63d
00000370: cc54 c1bd 436b 5d3c 455a fbbc e091 8fbd
00000380: d9df f3bb b2a2 063e fcdb 063e 684a 14bd
00000390: c100 10bd aa83 c7bd 3750 a6bd ea80 f3bc
000003a0: a635 043e 790f cb3c 27cd 18be c276 37bd
000003b0: 94f7 19be 3d2a 253e 6cb7 843c df3f 36bd
000003c0: 5ad1 8e3d cb2a 27be f05c 6bbd 7fb9 883c
000003d0: 8740 003e 7c69 113e 5f96 b8bb 41ca 31be
000003e0: 7be5 023d 90e2 c8bd 2cc4 203e 05bb 40bd
000003f0: c3b1 40bd 6d30 d8bc d02b 253e a679 9c3d
0.024853045 0.16609892 0.061460804 0.098195925 0.07111969 -0.05473236 0.041597605 -0.11983196
0.16043843 0.009667125 0.13495368 -0.12241573 -0.15994307 0.020836085 -0.022492116 -0.07014164
0.09113315 -0.11316755 0.15264416 -0.16975623 0.035695314 -0.10218261 0.03809227 0.17200427
-0.020770352 0.040442664 -0.068522446 -0.08870071 -0.14879696 0.100553766 -0.0019355839 0.060147256
-0.13337576 -0.14488302 -0.15870328 -0.10038662 -0.02274513 -0.026089933 0.07643178 -0.083607934
0.16955222 -0.079422414 -0.16363524 0.13182819 -0.11165337 0.01469159 -0.016708558 -0.036346167
0.00017861892 -0.17121813 0.15650243 -0.112743855 0.10616621 -0.10281697 -0.042961556 -0.0042620273
-0.06865173 -0.07560196 -0.1468067 -0.11930856 -0.008350968 -0.051228136 -0.024844961 0.044534616
-0.021765666 -0.16454414 -0.06427305 0.053156238 0.06268126 0.084325336 0.009645674 0.119306356
-0.11878808 -0.14585239 -0.046501555 0.0009859883 0.12611546 -0.10038981 -0.12182103 -0.0047210017
0.044323064 -0.15894134 -0.06972085 -0.13663939 0.040651366 0.015842944 -0.1549176 -0.11615604
0.009181019 -0.046075378 -0.1347846 -0.053316936 -0.15921105 -0.019830817 -0.020166526 0.0088064335
0.014816631 -0.030358134 0.13899222 -0.061992507 0.07842108 0.065471314 -0.021316744 -0.12752277
-0.14610675 0.04815666 0.053002946 0.105515234 -0.07691175 0.14044845 0.17350747 -0.027761413
-0.06739714 -0.054104805 -0.15152466 0.10050343 0.018610489 0.08035962 0.11184129 -0.073789954
0.0020484203 0.14132975 -0.13436425 0.1530008 0.090485774 -0.054698125 -0.14193371 0.09320654
0.082865186 -0.07896354 0.082441635 0.051660538 0.17155914 0.0892553 0.026962379 -0.17229846
0.1416464 0.14962085 -0.04855067 -0.013653867 -0.007186973 -0.010626135 0.09424983 0.023531074
-0.15153153 0.055978183 -0.10693648 0.049617644 0.076620355 -0.0838987 0.117896944 0.0042420523
-0.08750711 0.14938818 0.11107612 0.1271144 -0.11989718 -0.13276415 -0.15277438 0.11256811
0.10093106 -0.10609183 0.06739397 0.03432144 -0.07475143 0.005995013 -0.10496062 -0.05056083
0.068671666 0.024980823 -0.129033 0.043772932 -0.034056768 -0.12853846 -0.16070886 0.007737243
-0.12827213 -0.1064758 0.041363556 0.011243987 -0.079268746 0.02695162 0.08765477 -0.06741246
-0.062175836 0.030809486 0.042685807 0.06063492 0.11819216 -0.011371421 0.057851806 -0.10015107
-0.02250651 0.12898277 -0.16856705 -0.11465048 -0.15157124 0.14499211 -0.019731427 0.15953368
-0.093459584 -0.047700718 0.112250224 -0.17316103 -0.16982304 -0.11658366 0.0033299413 -0.16014077
0.032138254 0.1469834 -0.035028894 -0.031188738 -0.15356582 -0.03673756 0.014166687 0.035642423
-0.05769302 -0.106612645 -0.09106494 0.12052214 -0.09440002 0.013514343 -0.030682692 -0.07010245
-0.007442456 0.13148001 0.13169855 -0.03620377 -0.03515697 -0.0974191 -0.081207685 -0.029724557
0.1291109 0.024787651 -0.1492201 -0.04479099 -0.1503585 0.16129394 0.016200744 -0.044494506
0.069735244 -0.16324918 -0.05746168 0.016690014 0.12524615 0.14200395 -0.00563316 -0.1736231
0.03195713 -0.09808838 0.15699834 -0.047053356 -0.047044527 -0.026390279 0.16129994 0.0764039

bn1.weight f4 [400]
00000000: 3791 833f 11b3 2e3f 2d0a 0b3f 2807 443f
00000010: 60b3 e73e dcd0 563f ce47 4d3f 4677 fe3e
00000020: 358c 773f 80c7 853f d016 053f b0fa 113f
00000030: 487f 383f 2f06 423f 66fd dc3e 62fb 0e3f
00000040: 62bd 113f 4c3d 3d3f f7e0 ea3e d6fc 683f
00000050: 7963 183f 1fa3 743f f41e 473f 8bb7 553f
00000060: 1477 ff3e a811 2a3f d8ef 453f 1fbd 503f
00000070: 5625 de3e d0ba 253f 913b 293f 3f8d e13e
00000080: 8041 2b3f b4a0 d73e 7dad 7c3f 8682 4c3f
00000090: 1373 da3e 3698 813f 8ba8 643f eb02 d43e
000000a0: d81c 3b3f 58d3 643f 0fb8 f53e dcda 373f
000000b0: 3494 4e3f 9ced 143f d716 f93e 7d26 2f3f
000000c0: fb54 103f 1f68 3c3f f6e9 213f e290 2f3f
000000d0: d4b3 103f ab98 433f d279 463f 9998 5b3f
000000e0: ebe0 393f 0632 773f dc0d 2f3f 0f74 0c3f
000000f0: aa21 413f 924a 513f 7f76 823f 5f77 193f
00000100: d3fd ad3f 3bb1 5b3f 9bfb 783f 67f7 1e3f
00000110: 64fd cd3f 68d3 fb3e 2fe8 0a3f 5e83 803f
00000120: 8d21 6f3f 8540 423f d546 2b3f 0174 433f
00000130: 7d60 813f 3993 3a3f 75e0 8a3f d56d 553f
00000140: b051 573f c80b 413f a768 ea3f 21d0 e63e
00000150: 01db a73e 8f69 8c3f 48fd 4a3f 1063 423f
00000160: b432 933f 5a0d 593f 844a 273f a56f 203f
00000170: e9e2 2c3f 7c6e f03e 3fbe 583f de38 4b3f
00000180: ae46 253f 6f09 453f 8948 383f edd1 5f3f
00000190: 69e9 123f 48a0 183f a749 5d3f e090 663f
000001a0: 22ae 413f 24c2 1d3f 27b5 e53e 0975 423f
000001b0: d394 5c3f f376 363f 5cb0 3b3f dad5 be3e
000001c0: 4c06 773f fa33 343f 85ce ff3e 1f52 643f
000001d0: 0fa2 7e3f ed38 bd3e 949e eb3e 2ae9 2a3f
000001e0: 606a 013f 55f8 903f b9e2 4c3f 7bdd eb3e
000001f0: 4c26 323f 669a 193f 9024 983f 75e3 733f
00000200: 3090 1f3f 99fe 173f ee7c 643f 35cc e73e
00000210: b390 6e3f 02f9 493f ca88 633f 207d 013f
00000220: 5ec4 993f e441 943f 1639 003f 3d45 2f3f
00000230: d991 813f 2177 293f 1d15 453f af62 393f
00000240: fd53 363f ccd2 043f 0c38 1e3f 8165 003f
00000250: 582f 1e3f 70dd 713f 70ef 173f 569e 2d3f
00000260: cc4a 2d3f 6ef5 273f 4054 603f 20b5 353f
00000270: 9f3a 423f ad31 163f ef4f 913f 2090 2a3f
00000280: f37a 5c3f 76ef 2e3f b241 553f 584b da3f
00000290: 0a5b 263f 2b1c 4c3f 16e4 103f bf1c 853f
000002a0: ece9 3f3f 82ec 493f a915 5e3f 2bd0 563f
000002b0: dff9 be3f 76be 1e3f f996 2b3f fb96 533f
000002c0: 0bc7 0c3f 9e73 433f d4c3 903f 0c3c 853f
000002d0: 173d 6b3f 1a45 2e3f 59d7 7e3f 5e13 003f
000002e0: c1bc f73e 8daf 5f3f bc52 103f 2a83 543f
000002f0: 5334 0a40 c774 393f b2aa 073f 6355 133f
00000300: 3af2 3e3f c25b 2d3f f327 683f 1f2f 053f
00000310: bd9a 923f 1303 183f 7f6e 7a3f b0de e83e
00000320: f15f 9a3f 0116 383f 13d3 b83e 733c 8b3f
00000330: 41e3 4f3f 7559 7f3f 8b99 5e3f 41de 243f
00000340: 2c3f 2e3f 021f 853f af61 243f 4059 363f
00000350: affe 1e3f a3f7 103f a817 f03e 6512 613f
00000360: 00a0 8f3f e9fb 3e3f 404e 853f 9da0 1b3f
00000370: 4178 413f a018 4c3f 6dd6 2a3f 518e 743f
00000380: 15c0 163f bcbe 2d3f 9517 d53e 3d33 f33e
00000390: 39b5 593f a7c5 e13e cb65 123f e9f0 b03e
000003a0: a7d8 ed3e 5ecf a03e 5e02 1b3f 1e41 823f
000003b0: 1e11 923f 8c39 313f 8886 4b3f efa6 5f3f
000003c0: 07d8 093f d057 403f d7c3 353f 2eb3 253f
000003d0: 700f 6c3f 8058 683f b8fe 823f 17c1 803f
000003e0: e585 883f 89ed 1e3f 20fa b43e 8266 d93f
000003f0: c68a 143f a3fe 823f d169 cf3e 0a6e be3e
1.0278691 0.68241984 0.543124 0.7657342 0.4525404 0.83912444 0.8018769 0.49700373
0.96698314 1.0451508 0.51987934 0.57023144 0.72069216 0.75790685 0.43162078 0.5585233
0.569296 0.73921657 0.4587476 0.910108 0.59526783 0.95561403 0.77781606 0.8348319
0.49895537 0.6643319 0.773191 0.81538576 0.4338786 0.6473818 0.66106516 0.44053075
0.6689682 0.42114794 0.9870222 0.7988666 0.4266592 1.0124576 0.89319676 0.41408476
0.7309089 0.89384985 0.47991988 0.7181833 0.8069489 0.58175063 0.48650238 0.68418103
0.5637967 0.73596376 0.6324762 0.6858045 0.56524396 0.7640483 0.77529633 0.8577972
0.7260882 0.96560705 0.6838052 0.5486459 0.7544199 0.8175441 1.0192412 0.5994777
1.3593086 0.8581731 0.9725892 0.62096256 1.6092954 0.49184728 0.54260534 1.004009
0.9341057 0.758797 0.66904956 0.7634888 1.0107571 0.72880894 1.0849749 0.83370715
0.8410902 0.754086 1.8313187 0.45080665 0.32784274 1.0969714 0.79292727 0.7593241
1.1499848 0.84786 0.65348077 0.62670356 0.6753374 0.46959293 0.8466529 0.7938365
0.64560974 0.7696752 0.7198568 0.87429696 0.57387406 0.5961957 0.8644051 0.9006481
0.7565633 0.6162436 0.4486477 0.7595983 0.8616459 0.7127525 0.7331598 0.3727253
0.96493983 0.7039181 0.4996225 0.89187807 0.9946603 0.36957493 0.46019423 0.6676203
0.5055294 1.1325785 0.8003345 0.46067414 0.69589686 0.6000122 1.1886158 0.95268947
0.6232939 0.5937286 0.8925313 0.45272985 0.93189543 0.7889558 0.888806 0.5058155
1.2013052 1.1582608 0.50087106 0.68465024 1.0122634 0.661974 0.7698534 0.72416204
0.71221906 0.5188415 0.6180427 0.5015488 0.6179099 0.9447851 0.5934973 0.67819726
0.67692256 0.6560887 0.87628555 0.709795 0.758707 0.5866955 1.1352519 0.6662617
0.86125106 0.6833414 0.8330337 1.7054243 0.64982665 0.7973048 0.5659803 1.0399398
0.7496631 0.7887651 0.867518 0.8391139 1.4920005 0.6200937 0.6702724 0.8265225
0.54991215 0.7634829 1.1309762 1.040895 0.9189009 0.6807419 0.99547344 0.5002955
0.48386195 0.87377244 0.5637624 0.8301264 2.1594436 0.72443813 0.52994835 0.57552165
0.7458836 0.67718136 0.9068596 0.52025026 1.1453472 0.5937969 0.97824854 0.45482397
1.2060529 0.71908575 0.36098537 1.0877823 0.81206137 0.99745876 0.8695304 0.6440163
0.6806514 1.0400088 0.64211553 0.71229935 0.62107366 0.56627864 0.46893048 0.8791869
1.1220703 0.74603134 1.0414505 0.6079195 0.7557412 0.79725075 0.6673344 0.9552966
0.58886844 0.6786916 0.41619554 0.4750003 0.8504215 0.4409611 0.57186574 0.345588
0.46454355 0.3140821 0.6055049 1.0176122 1.1411474 0.69228435 0.79502153 0.87364095
0.53845257 0.7513399 0.7100195 0.6472653 0.92211056 0.9076004 1.0233984 1.0058926
1.0665861 0.620812 0.3534708 1.6984408 0.5802425 1.0233959 0.4051042 0.37193328

bn1.bias f4 [400]
00000000: c50c fbbe b435 9ebe cf0e 12be e330 0fbf
00000010: 6bf6 adbe 9f34 d4be e7e1 b1be 7f26 92be
00000020: 3a19 70be f87e a9be 203e b2bd dbd0 9abc
00000030: 6c59 68be 9b9b 2fbe 9d12 b9be fe60 aabe
00000040: 3463 d6be fc52 b5be a95b babe f650 2ebf
00000050: 6204 4dbe 25b4 0abf 44a9 6ebe be64 c8be
00000060: 7fee f3be d6c0 8abe 321b ebbe 04a7 cdbe
00000070: fd56 84be 28ff 0d3e 0bda e8be 1309 4fbe
00000080: 1a22 fbbe f857 79be eeb2 0ebf 7273 b9be
00000090: cd5a c7be edad a1be 534b 1bbf d910 8dbe
000000a0: c01c 0abf 880c 67be 1c45 d6be f89f a1be
000000b0: 0ea5 04bf aa3b 17be 3819 1cbe f1ff c7be
000000c0: 102b acbe bdbe 4dbe 14c0 a0be d473 08bf
000000d0: bf54 38be 470a e7be f46d 10bf e207 f3be
000000e0: 222b bdbe b413 8cbe 54f1 2ebe 1771 c0be
000000f0: eae2 443d c13d 1cbe 8627 7fbe 9316 1fbe
00000100: 946d a6be e54a 07be 28cf eebe d81d f8bd
00000110: 1a24 f63d 64cd b3be cde6 7fbe 30d6 febe
00000120: 38df b9be ab0e dfbe 7e4e e8be 1e91 a7be
00000130: 00d7 15bf 8fc0 debe 8ee7 19bf 3da3 6abc
00000140: 5e27 7dbe 755f babe c085 a2bd f743 8e3d
00000150: 1f38 00be c865 7ebe 86f5 11bf cd0c 14bf
00000160: 3198 723d 0b6c 17be 99b6 a3be 0d5b 7ebe
00000170: 9dd3 f3be ea91 41be 7f48 15bf 4dd6 1bbf
00000180: ca45 c0bd 266e dfbe f7ba 93be f1b7 12bf
00000190: 20e1 45be 773e d5be 6620 cfbe 9dd8 1dbf
000001a0: 5972 44be 9454 90be d951 32be 9626 4fbd
000001b0: cbc2 3abf 01cf 24be a1c9 b0be 770e d1bd
000001c0: 38b1 c4be 9b2e dbbe 88e0 683e caf4 513b
000001d0: b944 f5be 9e9a 62be 84f3 79be 2975 a7be
000001e0: cea5 21bd bc50 f5be 20ef 3dbe 3d5e 8bbe
000001f0: c383 b0be a6b9 aebe 1d58 13bf e495 0bbf
00000200: 2082 aebe cfd1 1dbe 3649 e0be 529e d9be
00000210: 486c 77be d1e0 d8be ff7b 0abf 74fa d2be
00000220: 010c b0bc 0578 94be 0cc8 36be 6044 32bf
00000230: 4061 4ebe 8928 cebe 3330 bebe b5c5 f8bd
00000240: 9231 31bf 9038 9ebe cd67 a8be 01be 803c
00000250: 582f c6be 8f61 dcbe 99b9 76be 920a c2be
00000260: b741 f4be 9ee2 b9be c940 01bf 88db d8bd
00000270: f48b 11bf 3801 cdbe 9c68 cabe b243 c8be
00000280: ad62 d2be 6f0d e8be f7d7 e4bd b13a 0dbe
00000290: fab3 1fbf 41b3 6ebe 9d2e c6be 7468 d6be
000002a0: 43bc 6fbe d571 d3be a4d0 03bf 77c0 86be
000002b0: 2c13 29bf 709a e1be f2eb 8fbe 2c40 c7be
000002c0: cfbc cfbe c2ef bdbe fbf4 f1bd d418 1ebf
000002d0: 8f71 e0be 330f d6be c697 f23d 158c 933e
000002e0: 946f 83be 68a0 ecbe 42ce a8be 639d fdbc
000002f0: 336d 13bf c8e7 33bf 094b 96be 9c2d a6be
00000300: 1a15 2bbf 5574 9dbe 4da4 8abe 974c d9be
00000310: 0a81 02bc 5e14 bfbe 1d68 8dbe 7ce1 84be
00000320: 36ec 97be a3c5 9bbe 98fa b2be 8da0 6fbe
00000330: 5d5b d3be 5204 1dbf e89c 26bf feee d0be
00000340: d214 d3be 6067 ddbe 620a 13bf 2248 9dbe
00000350: 9752 a4be 065b 0abf 3031 e2bb 8e33 563d
00000360: 26a8 cabe f733 03bf de63 51be 34bf 99be
00000370: 81dc c8be b790 41be cfd8 903d 4ffc 23bf
00000380: 5e4f 00bf 1420 cbbe 3f09 9dbe 470d b0be
00000390: 8f93 77bd d8da 98be c381 2cbe c2b2 b2bd
000003a0: 91dc dfbe bd45 a139 6b0b 18bf 1b08 68be
000003b0: 5124 0abc 6b56 73bd 6e45 49be 51a0 8cbe
000003c0: 2727 a7be c07d 11bf 24d4 14bf cd8e 68be
000003d0: 7cc1 21bf c014 2abe 34af bfbe 9c6c f2be
000003e0: a68e 18be 0f66 8fbe 4ed8 bbbe 3006 36bf
000003f0: db2f 6dbe f889 c9be 5357 b2be 5594 b5be
-0.4903318 -0.30900347 -0.14263462 -0.5593397 -0.33977064 -0.41446397 -0.34742662 -0.28544995
-0.23447123 -0.33104682 -0.08703256 -0.018898418 -0.22690362 -0.17149203 -0.36147013 -0.33277124
-0.4187256 -0.35414875 -0.36398056 -0.68092287 -0.20021203 -0.5418113 -0.23306757 -0.3913936
-0.47642896 -0.27100247 -0.45919186 -0.40166485 -0.25847617 0.13866866 -0.45478854 -0.20218305
-0.49049455 -0.24349964 -0.55741775 -0.3622089 -0.38936463 -0.31578007 -0.6066181 -0.27551916
-0.5395012 -0.22563374 -0.418496 -0.3156736 -0.51814353 -0.14768854 -0.15243995 -0.39062455
-0.33626604 -0.20092292 -0.31396544 -0.5330174 -0.18001078 -0.45125028 -0.56417775 -0.47466952
-0.3694697 -0.27358782 -0.17084247 -0.3758628 0.048067965 -0.15257932 -0.2491742 -0.15535955
-0.32505476 -0.13212164 -0.46642423 -0.12115067 0.120186046 -0.35117638 -0.24990387 -0.49772787
-0.36303115 -0.43565878 -0.45372385 -0.32727903 -0.5853119 -0.43506286 -0.6011895 -0.014321146
-0.24722049 -0.36400953 -0.07935667 0.06946557 -0.12521408 -0.24843514 -0.57015264 -0.5783203
0.059227172 -0.14787309 -0.31975248 -0.2483942 -0.47622386 -0.18903318 -0.58313745 -0.6087387
-0.09388311 -0.43638724 -0.2885358 -0.5731192 -0.1932416 -0.4164922 -0.40454406 -0.6165865
-0.19184245 -0.28189528 -0.17414035 -0.050573908 -0.7295348 -0.1609459 -0.3452883 -0.10207837
-0.38416457 -0.42808995 0.22741902 0.0032036775 -0.47903994 -0.22129294 -0.244093 -0.32706574
-0.039464764 -0.47913158 -0.1854825 -0.27220336 -0.34475526 -0.34126014 -0.57556325 -0.5452559
-0.34083652 -0.15412067 -0.43805856 -0.425036 -0.241624 -0.4235902 -0.54095453 -0.41206706
-0.021490099 -0.28997818 -0.1784975 -0.6963558 -0.20154285 -0.402653 -0.37146148 -0.121470846
-0.69216263 -0.3090253 -0.32891694 0.0157156 -0.38707995 -0.4304318 -0.24094237 -0.3789869
-0.47706386 -0.36305708 -0.5048948 -0.10588747 -0.56854177 -0.40039992 -0.39532936 -0.39114147
-0.4109091 -0.4532275 -0.111740045 -0.1379192 -0.62384 -0.23310567 -0.38707438 -0.41876566
-0.2341166 -0.41297784 -0.51490235 -0.26318714 -0.6604488 -0.4406314 -0.281097 -0.38916147
-0.40573737 -0.37096983 -0.118143044 -0.61756635 -0.43836638 -0.4180847 0.11845355 0.28817812
-0.25671065 -0.4621613 -0.32969862 -0.030958837 -0.575885 -0.70275545 -0.29354122 -0.32456672
-0.66829073 -0.30752817 -0.27078477 -0.42441246 -0.007965336 -0.37320226 -0.27618495 -0.2595328
-0.29672402 -0.30424222 -0.34956813 -0.23401089 -0.41280642 -0.6133472 -0.6508317 -0.40807337
-0.41226822 -0.4324293 -0.5743772 -0.30719095 -0.3209426 -0.5404514 -0.0069028363 0.05229526
-0.39581412 -0.5125117 -0.20448253 -0.3002869 -0.3923073 -0.1890286 0.07072603 -0.6405687
-0.50121105 -0.3967291 -0.30671117 -0.3438513 -0.060443457 -0.29854465 -0.16846375 -0.087255016
-0.43722966 0.00030760272 -0.5939242 -0.22659342 -0.00843151 -0.059408586 -0.19655392 -0.27466062
-0.32647058 -0.56832504 -0.581362 -0.22710724 -0.6318586 -0.16609478 -0.37438357 -0.47348487
-0.14898166 -0.28007552 -0.36688465 -0.7110319 -0.23162787 -0.39363074 -0.34832248 -0.3546473

bn1.running_mean f4 [400]
00000000: 7f03 f83d 1cf0 7abf a306 93bf ec54 8abe
00000010: fe0c 03bf bb74 aabe 95fa 7b3e afe0 c8bf
00000020: d70c 31be a07f 813d 6c5e 0e3f f2ac 05be
00000030: aab8 93be 968c 563f 634d f13d 6c93 6dbf
00000040: 599b adbe 22bb c53c 3cca eebe 74fa 16bf
00000050: c108 0d3f 322c a0bf 8116 9ebd d2db 0d3f
00000060: 74a6 0abf 2183 41bf f095 bc3d 5562 6b3f
00000070: d5ed 123e dcbd abbd 030a 00bf 16b0 c73f
00000080: fe25 85bf 2e1b 063f d53d 8dbf bb97 8dbe
00000090: 66fd 553e 4bd4 523e 2e04 1c3f b8b0 d93d
000000a0: aaf2 d73d 26d8 253e c61c 46bf f08a c73e
000000b0: c3a2 82bf ce99 d03f 1764 d6bd aee2 a63e
000000c0: a0ca ebbf db4f b1bf 4a39 aa3e 2135 68bf
000000d0: 8b72 44bf 0ef1 2ebf e36f 7ebf ea0f 1a3f
000000e0: ef6d 01bf e3fa d2be 22f0 843e e809 65bf
000000f0: 93af 4e3e f71c f03e 2f29 2f3f a1bf 6a3f
00000100: c929 87bd 2928 8f3f f5c1 11bd 25c4 fdbe
00000110: 16b6 2b3f a4ed eebf dd04 a3be 77b3 8c3e
00000120: 8d86 aabf 7459 20be b162 043e c971 be3e
00000130: 3628 383e 986f a33e 51c0 1dbf 63ff 8bbf
00000140: a620 883c b6bd 933e cd80 41be 1001 3d3f
00000150: d972 7c3f d282 623f c533 edbd 1fce 0cbe
00000160: 396c 1e3e 5e6c 103f 0bde 4e3e 0cbb cc3f
00000170: 20e0 b9bf a4d8 aebf 5ec3 833d cc82 693f
00000180: 4e2b c43f 9661 7ebf 5af5 06bf e5ff 09bf
00000190: 90c0 49bf 3b3f e33d aa52 51bf 17a2 1b3e
000001a0: 81d4 78bc a25c 09bf 1941 4d3f 1f62 7c3f
000001b0: 6b16 f6bf f258 453e 1745 8abe aa0c f53e
000001c0: 51a0 d0be 8a30 9ebf 2865 403f 3cab 493f
000001d0: 3294 be3e ceb9 83bf e766 ac3e 5c09 f03e
000001e0: 16f7 cabd 745e 333f 23a2 48be 70d3 b03f
000001f0: 6a52 4a3f 8adc a0bf c0ab 1e3e 3bf6 f83e
00000200: 2efa ccbf 423a 943e 3ad0 89bd a7b7 84bf
00000210: dcc1 8a3f 8803 1fbe 9cf8 a1bc 530a 21bf
00000220: b320 063f 5d34 a03e 9f0e e0bf d903 0cbf
00000230: 660b 163e dedf 48be f9e5 db3c c900 883f
00000240: fdef 7bbe 2534 91be ca61 d83d 989f a53d
00000250: 3ef8 0e3f c090 18bf 1134 693f 22c4 b1be
00000260: c27e 263f de02 8bbf dab3 033e 29da 693f
00000270: dd15 34bf 630c 03bf 2377 7dbe 25fd 56bf
00000280: 7f38 493e 1e9c acbe a62b 83bf d460 7dbd
00000290: 80ed 89bf 0810 9b3d 29cb 4cbf b598 5a3e
000002a0: fe58 8b3e ffb8 c43d 8378 63bf 7269 b3bf
000002b0: 50f8 e5be f6bd a8bf 3887 6a3e 98d4 2d3d
000002c0: 0e4a a83e c561 87be 786f 703e d0de b3bf
000002d0: 0eee 3d3e 0dc8 8a3d 0ea9 f43e 0567 b93e
000002e0: f116 11bf 1e65 773c d812 8bbf f2f1 de3e
000002f0: 41c1 c7bd b48c d2be 8d4e 5fbe 0f0c 073d
00000300: bdad 16bf 3028 3f3f ce18 c1be e0f6 4e3d
00000310: 9a9d 313e 0d7b e0bd a15d 813f aa13 993e
00000320: dddc 0fbf a912 ffbe e43d 4d3f 0bc6 17bf
00000330: bd51 94bf cb1a 843d 7934 dd3e 2956 12bf
00000340: 9083 c0be 03ff 803f 4c74 b5be 745f 9e3e
00000350: 98b5 8bbc ff23 adbf 7cfe 82bf 482e a93e
00000360: 0951 b5bd 1b37 abbe 0e79 7d3f 2b27 9abd
00000370: 4a83 31bd f4d2 8a3e 7407 423f b15c adbf
00000380: 7d36 fa3e 7ce2 e63c cbfd a43e bc30 d4be
00000390: c872 16be d796 363f 2294 e7bd 2129 a3bf
000003a0: af23 cbbe c808 ad3f 74e5 c5bf ccab 9dbe
000003b0: dc36 4b3e 3b02 3ebe 0c5d 5d3f 2d1f e63e
000003c0: bbbe 00c0 d04a 93bf 95d9 2fbf 7e41 9d3f
000003d0: 3da3 d23e a4a0 1f3f 55a1 c4bd a56c 3bbb
000003e0: 6e78 efbd 959e 813f 85d9 943e 9ed2 42bf
000003f0: d7a4 a4bd 1b0d a43e f365 373f 113f 3f3e
0.12110042 -0.9802263 -1.14864 -0.27017915 -0.511917 -0.33292183 0.24607308 -1.5693568
-0.17290054 0.06323171 0.55612826 -0.13054255 -0.28851825 0.8380827 0.117823385 -0.9280307
-0.33907583 0.024137083 -0.46638668 -0.5897591 0.5509148 -1.2513487 -0.07719136 0.55413544
-0.5416024 -0.7559071 0.09208286 0.9194692 0.14348538 -0.08385822 -0.50015277 1.5600612
-1.0402219 0.5238522 -1.1034495 -0.27654824 0.20897445 0.20588796 0.6094388 0.106294096
0.10544331 0.16195735 -0.77387655 0.38973188 -1.0205921 1.6296937 -0.104683094 0.32594818
-1.8421211 -1.3852495 0.33246833 -0.9070607 -0.7673728 -0.6833657 -0.99389476 0.6018053
-0.5055837 -0.41207036 0.25964457 -0.8946824 0.20184164 0.46897098 0.68422216 0.9169865
-0.06599767 1.1184131 -0.035585362 -0.4956371 0.67074716 -1.8666272 -0.31839648 0.2748067
-1.3322312 -0.15659124 0.12928273 0.37196186 0.1798409 0.31921077 -0.61621577 -1.0937313
0.01661713 0.28855675 -0.1889679 0.73829746 0.98612744 0.88480866 -0.1158214 -0.13750504
0.15470971 0.56415355 0.2020189 1.5994582 -1.4521523 -1.3659863 0.06433748 0.91215205
1.5325716 -0.99367654 -0.52718127 -0.5390609 -0.7880945 0.11096045 -0.8176676 0.15198551
-0.015187384 -0.5365697 0.80177456 0.9858722 -1.9225591 0.19272211 -0.27005836 0.47861224
-0.40747312 -1.2358563 0.7515435 0.7877691 0.3722244 -1.0291078 0.33672258 0.4688214
-0.09910409 0.70066 -0.195931 1.3814526 0.79032004 -1.2567303 0.15495205 0.4862536
-1.6013849 0.28950697 -0.06729169 -1.0368546 1.0840411 -0.15528691 -0.019771867 -0.6290638
0.52393645 0.3128995 -1.7504462 -0.5469337 0.14652786 -0.19616649 0.026843058 1.062524
-0.24603267 -0.28360096 0.10565527 0.08087081 0.5584754 -0.5959587 0.9109507 -0.3471995
0.6503717 -1.086025 0.12861577 0.9134851 -0.7034586 -0.51190776 -0.24752478 -0.8398002
0.19650458 -0.33712858 -1.0247695 -0.06185992 -1.0775604 0.07571417 -0.799975 0.21347316
0.27216333 0.09605598 -0.8885576 -1.4016554 -0.4491601 -1.3182971 0.22903144 0.042439073
0.32869 -0.2644178 0.23480022 -1.4052372 0.18547842 0.06776438 0.47785228 0.3621141
-0.5667563 0.015099792 -1.0865126 0.43543965 -0.09753657 -0.41122973 -0.21807308 0.032970484
-0.58858854 0.74670696 -0.37714237 0.050528407 0.17345276 -0.1096097 1.0106698 0.29897815
-0.56196386 -0.49818924 0.8017256 -0.59286565 -1.1587445 0.06450423 0.43204096 -0.5716272
-0.37600374 1.0077823 -0.3544029 0.309322 -0.017054364 -1.352661 -1.0233912 0.33043122
-0.08853347 -0.3344048 0.9901284 -0.07527002 -0.043338098 0.2711407 0.7579262 -1.3543912
0.48869696 0.028184168 0.3222488 -0.4144343 -0.14692223 0.71323913 -0.11307551 -1.2746927
-0.39675662 1.3518305 -1.5460649 -0.30795133 0.19845146 -0.18555538 0.86470103 0.4494566
-2.0116413 -1.1507206 -0.6869138 1.2285612 0.41140166 0.62354493 -0.09601084 -0.0028598693
-0.11692892 1.012652 0.29072204 -0.76102626 -0.08039253 0.3204125 0.7163994 0.18676402

bn1.running_var f4 [400]
00000000: 434f 0e3f 1fcc 873f d756 0b3f 5826 2840
00000010: c3f6 953f a392 0e3f 010f 973f 77b4 273f
00000020: 27e8 673f 00b2 dc3f 4c5b af40 6ef3 bc3f
00000030: c95a 733f c907 323f e56b 0f40 22fe fc3e
00000040: 60d8 ba3f c8a6 4e40 41ed 543f d15f 4c3f
00000050: a00a 573f 2982 0840 1f67 e43e 505f 5040
00000060: a03e d23f 34f1 553f 8186 0440 472d a93e
00000070: 43ce e93f e1cb db3f 1602 343f 3138 ea3f
00000080: a8e7 ae3f d7ac 693f 83ca 083f d3a6 b33f
00000090: 1147 b03f 84c8 b83e 08cd 743f 6c29 d53f
000000a0: 084b b63e ffc3 4740 f552 9e3f e0b9 a13e
000000b0: 392c 2e3f 26be 823e 7097 9f3f 0f08 853f
000000c0: f8a8 1840 2ee8 023f b7f2 1a40 5108 1c40
000000d0: f6cd 7540 0aa4 0340 5f14 c03f 996c b23f
000000e0: 59c9 363f de83 9a3f 01b7 1c3f 15c6 a33f
000000f0: 837e 2f3f b0e3 ce3e e76e 0d3f e014 5f3f
00000100: 5622 aa3e 788d 8a3f 358e 3f3f 16d3 8e3f
00000110: 08c8 973f 665e 9640 f713 ae3f fe63 1540
00000120: 18c6 5d3f 360b 043f 8be0 cc3f a5bb 1c3f
00000130: 303d 803e 61e5 843f e81b 253f 2ca1 2340
00000140: 9003 673f 8a22 243f 2c93 9c3f 9df7 d740
00000150: df1b ae3f 490f 433f 35a3 c03f a73d 4e3f
00000160: b816 bd3f 5276 d13f 0b28 cb3f da8c 513f
00000170: 565a 283f 5a16 b23f 220a 213f a730 2d40
00000180: 8484 173f c134 9f3f 2898 743f bdbc b43f
00000190: a5d0 833f 0277 1340 97d7 cc3e aa66 583f
000001a0: d355 163f 08a5 3e3f 6d15 c13f f172 633f
000001b0: d544 9f3f 1b43 093f 7a4c e03e 36c7 183f
000001c0: 0f4b df3e 2b0e 213f 47db 2440 319a 2b3f
000001d0: f7bc 953e b9c5 aa3f 5277 a33f 6795 a33f
000001e0: e3e4 9c40 9402 2c3f 0421 6a3e ba68 6a3f
000001f0: 4d5b 8d3f 4ea8 3f40 0608 823f a8ae e73f
00000200: ce6d 9d3f 275f d13e 66c3 363e 463d 2740
00000210: 019e 1c3f 5aa9 983f d677 d23f 92bb 6940
00000220: 234d 653f 9812 5e3f 7512 9f3f d8eb be3f
00000230: a8f0 1e3f fab2 4740 43d3 213f 6800 9d3f
00000240: 9cd5 0040 caf7 393f 3c39 903f 889f 293f
00000250: 0e22 ef3f 860b 113f cb28 a43f 0e02 0f3f
00000260: 7b43 1f3f d3ad 853f f07f 2740 1242 f43f
00000270: 510d 763f 215e e03f f004 883f a50e 583f
00000280: 4370 273f 7229 0a40 5b1e 893f 17f5 1140
00000290: 230c ff3f 05fa e03d a050 3d3f 3f1b d33e
000002a0: e241 3d3f 41d1 1e3f 2f69 483f 015e c33f
000002b0: 8076 853f 8e6e 7d3f 7d1d c33f e980 873e
000002c0: 7a68 3a40 5886 bb3f bf14 733f 3265 623f
000002d0: 0fa6 4d3f 3ec2 9240 ffc4 8c3f 3b21 013f
000002e0: 3821 ca3f 2013 fb3f 1c4b 553f 2294 903e
000002f0: 30e2 0240 653a 9e3f e989 5140 4928 af3f
00000300: 3e6c b83f c289 193f 89da 463f 2cd7 373f
00000310: 896d 0440 c182 fa3f 2e7c 2f40 4898 b240
00000320: 9b34 d03e 6a5d 5f3f 5e98 c83f 28b7 973f
00000330: 6727 973f 77ab f43e abbb 133f 880d 493f
00000340: 1325 3d3f 1ca2 b33f 00e9 ff3f ed01 773f
00000350: 20c7 453f 6085 1e3f 2598 ed3e 896d 753f
00000360: 1d54 4a40 3e67 1e3f 0264 763e 79b5 f13e
00000370: 2f49 2f3f 48fe e83f 5d4d 6b3f c7dd f83f
00000380: c05d ad40 df7e 523f c0b2 9b3f c972 ba3f
00000390: b138 1d3f 7f1e 593f 59fe 0e3f dd36 ce3f
000003a0: 05f5 0a40 c27c 373f 0d69 3740 3f93 053e
000003b0: e892 9f3f 9cd8 ae3e 01f8 f73f d755 1a3f
000003c0: fe34 d53f ae9f 723f e3b0 bd3f 280f 3c3f
000003d0: bbbd 093f e47d 5840 85a4 f53e 048e 923f
000003e0: df16 593e a4de 3c3f 4811 9f3f d85f be3f
000003f0: 32b4 293f dad9 973e 3bda 9a3f 66b7 bd3f
0.55589694 1.0609168 0.5442938 2.6273403 1.1715931 0.556925 1.1801454 0.6550974
0.9058861 1.7241821 5.4798946 1.4761789 0.950604 0.6954313 2.2409604 0.49412638
1.4597282 3.2289295 0.8317452 0.79833704 0.8400059 2.1329443 0.44609925 3.2558174
1.6425362 0.8357117 2.0707095 0.33042356 1.8266071 1.7171594 0.7031568 1.8298398
1.3664446 0.9127936 0.5343401 1.4035286 1.3771688 0.3609048 0.9562535 1.6653266
0.3560412 3.1213377 1.2369066 0.31587124 0.6803623 0.25535697 1.246809 1.0393084
2.385313 0.5113553 2.4210641 2.4380076 3.8406959 2.0568871 1.5006217 1.3939391
0.7140098 1.2071493 0.6121674 1.2794825 0.68552417 0.40408087 0.5524735 0.8714123
0.3322932 1.0824423 0.74826366 1.1158168 1.185792 4.6990232 1.3599843 2.334228
0.8663039 0.51579607 1.6006025 0.6122382 0.25046682 1.0382501 0.64495707 2.5567122
0.9023981 0.641152 1.2232413 6.748976 1.3602256 0.761952 1.5049807 0.80562824
1.4772558 1.6364233 1.5871595 0.8185555 0.6576284 1.3913071 0.62906086 2.7060945
0.5918658 1.2437974 0.9554467 1.4120098 1.0298048 2.3041387 0.40008232 0.8453165
0.5872471 0.7447057 1.5084664 0.8884726 1.2442881 0.5361802 0.43808347 0.5967897
0.43611953 0.62912244 2.5758836 0.6703215 0.2924573 1.334159 1.2770789 1.2779969
4.9029403 0.67191434 0.22864157 0.9156605 1.1043488 2.9946475 1.0158699 1.8100176
1.2299135 0.40892908 0.17847976 2.6131148 0.61178595 1.1926682 1.6442821 3.6520734
0.89570826 0.8674712 1.2427508 1.4915724 0.6208596 3.1202989 0.63212985 1.2265749
2.0130377 0.7264372 1.1267467 0.6625905 1.8682268 0.5665821 1.2824949 0.5586251
0.6221234 1.0443672 2.6171837 1.9082663 0.9611407 1.7528726 1.0626507 0.84397346
0.6540567 2.1587796 1.0712389 2.280584 1.9925579 0.109851874 0.7395115 0.41231725
0.73928654 0.62038046 0.782855 1.5263063 1.0426788 0.9899682 1.5243374 0.26465538
2.9126267 1.4650373 0.9495353 0.8843566 0.8033151 4.586211 1.0997618 0.5044133
1.5791388 1.9615211 0.8331773 0.28238016 2.0450554 1.2361571 3.2740424 1.3684169
1.4408033 0.59975827 0.7767721 0.718127 2.0691855 1.9571153 2.7419543 5.581089
0.40665135 0.87251914 1.5671499 1.185277 1.18089 0.47787067 0.57708234 0.7853627
0.73884696 1.4033847 1.9992981 0.96487314 0.77256966 0.61922264 0.4640514 0.9587026
3.1613839 0.61876285 0.24061587 0.47208765 0.68471044 1.82026 0.9191492 1.9442681
5.417694 0.8222484 1.2163925 1.456628 0.6141463 0.8481216 0.55856854 1.6110493
2.1712048 0.7167474 2.8657868 0.13044451 1.2466707 0.34149635 1.937256 0.6028723
1.6656797 0.947749 1.4819607 0.73460627 0.5380513 3.3826838 0.4797708 1.144959
0.21200131 0.7377722 1.2427149 1.4872999 0.6629058 0.29658395 1.2097849 1.4821594

fc2.weight f4 [300, 400]
00000000: 987b 0cbe f815 8e3d ae93 62bc 5c60 a2bd
00000010: 9764 ac3d 159f 01bf f03f 34bd 6b1f c6bd
00000020: c584 5ebd f904 28bd c00d 1ebe 04bd b5be
00000030: 53a2 0bbe 31af 0dbf 015f a03e bebf 2ebe
00000040: ce7c 58be 74f9 bf3d 2de1 b03e c5d6 bd3d
00000050: 5d53 bdbe be72 153e b277 8f3d ea06 4c3d
00000060: f37d c03d e92f 923d 24d4 dcbd ae14 5ebd
00000070: 0739 283d 8bc3 52be a837 dd3c 6df9 c03c
00000080: e1b0 9b3d fa5b c73d 5eb2 7b3d 497c 83bd
00000090: bcb7 593d ccba 98bd ec67 8cbc 53a3 143e
000000a0: 0ca3 d63e c2f5 82be 76aa 8b3d faf3 dd3d
000000b0: 3f09 29be 9d55 86bd cc89 eabd 0d82 63be
000000c0: d3ef 4e3e a401 e93d 9c44 d23d 4444 af3a
000000d0: 0c67 86be a787 febd eeba 6bbd ea40 03bc
000000e0: 19c3 cb3e 3891 5abd 8daa 843d 94f2 39be
000000f0: ff0f 82be efc3 3e3d 74d8 87be 9738 1dbe
00000100: 098b 873e 65fb 75be 2a87 2c3e c90d 95bd
00000110: 72e3 14bf f08b 713d 5aad d0be 0c8d 8d3d
00000120: 64a0 95bd 4e59 863c fea4 6e3e 43a9 e63d
00000130: 5d45 1f3d ae5a 953e 3b38 10bd c386 8bbd
00000140: 5059 ee3c 43c8 a2bd 3e0d cabe cb8f a6be
00000150: a70b 87bd 9629 9ebd 2579 16bd b754 263e
00000160: c0e7 0e3e 27c2 e73d 1770 cdbd 9084 183e
00000170: 5534 843d 8594 043b cf1f 56be 48ca f13d
00000180: c5f5 d8bd 723b 4a3d 2f58 8ebe bbdb 94be
00000190: b02e c1be f810 38be 3d09 17be 7a79 b53c
000001a0: 9dd4 24be 56c3 023e e7b1 523d c602 493c
000001b0: 1a8a 733d e740 33bf 01a4 c3be 7127 503e
000001c0: 4e74 a6be aa1e 7b3b 8ab7 afbd e06c fc3d
000001d0: 770d abbd 5dc3 48be e59e a63c 776a d2bd
000001e0: 4933 f03d 9dce 183d 0371 bcbe 991a aabe
000001f0: 11fa 873e 54e7 9bbe c96b 383e 74fb b9bd
00000200: f1bd 0bbe 0271 c6bd 1941 8e3d 22be 50be
00000210: 7667 e6bd 9598 6e3d f835 7a3d 359b 1bbd
00000220: 4da8 aabb 2435 75bd b931 b23d 74af 42be
00000230: a0ce 833e aa37 c63d 6084 933e 802e 96bc
00000240: c6fa 81be 0afc 823d 93ea 493d 7a71 753d
00000250: a548 23bd 6696 cfbb 965c 1d3d 158f 923c
00000260: 7dcb f63d 3224 a0bd ec35 80bc 2ded adbe
00000270: 8a90 70bd b6db 4ebe 2f84 463e 12ec 50be
00000280: 3a1b 90bc d511 d2be df05 3dbe 08ce aabe
00000290: f141 143d c7df 933c 7448 083e 9e27 a7bd
000002a0: 5331 22be cc42 823d 9aec 8dbd a553 69be
000002b0: 859d 17be 0d00 253d e80b 31bd a630 8b3e
000002c0: c72e 593e 6241 1ebe fbf7 e0be fd39 6abd
000002d0: 3d46 32be e4a5 5ebd 81f9 07bf e0f6 97be
000002e0: d452 3a3e 359f ef3c df18 53be 8d0e 933d
000002f0: f5e1 3dbe b89d 25be 928f 263d 865b 01be
00000300: aef5 49be 09b0 babd 1aa7 89bd 4678 05be
00000310: 7752 e4bc 41a1 88be 4f0a 14be 81f6 973d
00000320: 8e55 f33d dc4b 203b 1fb2 3b3d 425e e4be
00000330: 5bb1 bcbd 8cda 983e 5c07 44be dbd9 efbe
00000340: 0b83 c83e 29fe d43c 8ae1 0bbc eedc d7be
00000350: 12e8 843d fb43 373e 0b05 92bd 9337 383d
00000360: ad59 34bd ca1d 98be 5f07 9a3d 2e36 7abe
00000370: 3b3a 0f3e 8854 ce3d edde 88be 9894 e03d
00000380: 7da0 0c3e 56ff 843d b2b4 7a3e d384 973d
00000390: 2fe9 3fbe c5de b9bd a5f7 2bbd 81a0 4ebe
000003a0: 1c82 66be 8126 2e3e 310a fb3c 2e39 153d
000003b0: c7d0 eebe f567 54be 424d c1bd 778b abbe
000003c0: 2d03 13be d955 1e3e 0c29 9bbe 52a8 cabd
000003d0: da16 89be e24a 1bbd deef 383e 6502 fabc
000003e0: 032c 49be a314 b1bd afab 003e d7e8 e3be
000003f0: fc4e 123e 4e46 05bd e802 a4bc abbc 9a3e
-0.13719022 0.06937784 -0.013829155 -0.07928535 0.084176235 -0.50633365 -0.044006288 -0.09673961
-0.054325838 -0.041020367 -0.15434933 -0.3549577 -0.1363614 -0.55345446 0.31322482 -0.17065331
-0.21141359 0.09373751 0.34546795 0.0926948 -0.36977664 0.14594552 0.07005252 0.04981128
0.09399023 0.071380444 -0.1078265 -0.05421894 0.04107001 -0.20582406 0.027004078 0.023556435
0.07602096 0.0973434 0.0614494 -0.0642019 0.05315374 -0.07457504 -0.017139398 0.14515428
0.4192127 -0.25578123 0.06819622 0.108375505 -0.16507433 -0.06559298 -0.11452064 -0.22217579
0.20208673 0.11377266 0.102669924 0.0013371785 -0.26250494 -0.124282174 -0.057551317 -0.008011082
0.39797285 -0.053361148 0.064778425 -0.18158942 -0.2540283 0.046573576 -0.26532328 -0.15353619
0.26473263 -0.2402168 0.16848436 -0.0727802 -0.58159554 0.058971345 -0.40757257 0.06911668
-0.07305983 0.016400006 0.23305127 0.11262753 0.03888451 0.29170746 -0.035209876 -0.06812813
0.029095322 -0.07948353 -0.39463228 -0.3253158 -0.065940194 -0.07722776 -0.036736626 0.16243254
0.13955593 0.113163285 -0.10031145 0.14894319 0.06455294 0.0020230126 -0.20910572 0.1180616
-0.10593752 0.049373098 -0.27801654 -0.2907389 -0.37730932 -0.17975223 -0.14749618 0.022152651
-0.1609673 0.12769827 0.051439192 0.012268728 0.059457876 -0.7002091 -0.38211063 0.20327546
-0.32510608 0.0038317838 -0.08579929 0.12325454 -0.083521776 -0.19605775 0.020339439 -0.10274213
0.11728532 0.037306417 -0.3680497 -0.33223417 0.26557973 -0.30449927 0.18009867 -0.09081164
-0.13646676 -0.09689523 0.0694601 -0.2038503 -0.11250202 0.058250982 0.061086625 -0.037989814
-0.0052080513 -0.059865132 0.0870089 -0.19012243 0.2574358 0.09678586 0.28811932 -0.01833272
-0.25386637 0.06395729 0.049295973 0.059922673 -0.0398642 -0.0063350676 0.038418375 0.017890492
0.12050531 -0.07819404 -0.015650712 -0.33970013 -0.058731593 -0.20201 0.19386362 -0.20402554
-0.017591108 -0.4102923 -0.18459271 -0.33360314 0.0361957 0.018051041 0.13308889 -0.08161853
-0.15839128 0.06360397 -0.06929894 -0.22785814 -0.14806183 0.04028325 -0.043224245 0.27185553
0.2120925 -0.15454629 -0.43939194 -0.05718421 -0.17409606 -0.054357424 -0.5311509 -0.29680538
0.18195659 0.02925072 -0.20614956 0.0718051 -0.18543227 -0.16173446 0.040664263 -0.1263257
-0.19722626 -0.09115607 -0.06721325 -0.13034162 -0.027871354 -0.26685527 -0.14457057 0.07420064
0.11881553 0.0024459278 0.045824166 -0.44603163 -0.09213515 0.29854238 -0.19143432 -0.46845898
0.39162478 0.0260001 -0.008537659 -0.42160743 0.064895764 0.17897026 -0.07129868 0.044974875
-0.044030834 -0.29710227 0.07520937 -0.2443473 0.13987057 0.10074717 -0.2673258 0.10965842
0.13733096 0.06494014 0.24482992 0.07398381 -0.18741296 -0.09075693 -0.04198422 -0.20178415
-0.2251057 0.17006876 0.030644508 0.036431484 -0.4664366 -0.20742781 -0.09438564 -0.3350484
-0.1435668 0.15462436 -0.30304754 -0.09895386 -0.26775247 -0.03791321 0.18060252 -0.03051872
-0.19645695 -0.08646514 0.12565492 -0.4451358 0.14287943 -0.03253775 -0.020020917 0.30222067

fc2.bias f4 [300]
00000000: 2c34 3abe 1ae3 85be 1e69 1d3e 69eb e6bd
00000010: 13dc 57be 6664 6c3d 5d45 6d3d 4c39 01bc
00000020: 6ecb e4bd a8a0 5abe abd0 983e e5e1 3abe
00000030: 80b0 dd3e abd6 243e 0b9b a03d b9be 95be
00000040: edc1 fa3d 863e 7bbd 7926 07be bb73 22bd
00000050: 3646 e2bd f622 c33c 9d6b 53bd a7a2 093e
00000060: 1369 18be 78bf 7ebe 9b88 5cbe 49e9 9a3c
00000070: 9d06 55bd 96a4 b53d 2729 dc3c 7eb3 17be
00000080: 836f d93c a89a 75bd 8332 cc3d 00fd cc3d
00000090: 5591 a5bb be5e d63b 77ce 523e 064e 903c
000000a0: 2f6e 03be 5b20 a5be 172e 61be 6c20 ffbd
000000b0: f93f e2be 8f15 cc3c 6d88 483d 5e9a 1b3e
000000c0: f753 11be 87b8 253d 5368 83bd 160f 63bd
000000d0: acc7 873e b469 f1bb 72e1 36be bd65 a73d
000000e0: 447e 37bd 94b9 d9bd 348c e3bc 7aef e33c
000000f0: 2e6d c8bd 51dc 3bbe 5131 0cbe 3122 2fbe
00000100: 4d04 cbbd fa59 04bd 0389 283c 6d42 3cbe
00000110: 3340 7cbd de76 c63d bd52 1dbe abeb 1cbd
00000120: 1061 23be fc1e 203e 5ade 35be 7cf4 5fbe
00000130: 5dcb f4bd 8ce6 75be 2a5d c9be 09ac 1a3e
00000140: 1ce3 84bd 2a88 b9bd 46fb 113e 13bc 7fbd
00000150: c7b2 e53d 4493 4cbe 6924 69be e86d 38bd
00000160: 82cf f3bd 1afa 0fbe 7a3a 05be e20d 0ebd
00000170: 47ab 4d3d 7b6e 90be c237 69bd 577c 25be
00000180: 7ca4 96ba f473 8b3e 9e22 1ebd c2ae 4bbd
00000190: a1ed 2abe bc7c ef3d 800e 90be 6c7f 64be
000001a0: 399a 98bc e8e2 dfbd 7a1a 6bbe 14f3 7bbe
000001b0: 9864 c93d c0dc e0bd 5ef2 363e 20f6 1dbe
000001c0: 9321 ad3d 0de6 bdbd ffd2 123e 6a40 88be
000001d0: 3288 8bbe e84c f33d e256 a93c b466 64bb
000001e0: 2040 b5bd 79e1 ee3b 1951 e0be 8212 b8bc
000001f0: f1c2 9dbd 96a2 acbd af91 993c 9a80 04be
00000200: 021e a43d 0502 c83d 032a 81be 1b5d d3bd
00000210: 9cbc 453d 70d9 463d 9d54 223e 8624 82be
00000220: 2774 12be 7069 2a3b 17dc e8bd 7f02 41be
00000230: 3029 9b3c 9fd7 35be 5e28 48bd 316e 983d
00000240: 6b9e 7dbe ffa8 8ebd f778 353d be3a e23d
00000250: 7594 d1bd 9553 423e b83a 61bd 4a5e 44be
00000260: 5cfd 713e 13bb b13d 3d2a 183e b370 283e
00000270: a55f 3ebe 3024 38bd b61d 8d3d 94ce 68bd
00000280: 295f c73c 30ea 26be 6459 f73c 9c92 5dbe
00000290: 03b4 dbbe a746 303d 0ec5 743e 9b66 a6bd
000002a0: a89f e03d 66c4 bbbd e497 213e 457b 7abd
000002b0: dc72 d4ba 0537 4e3d 93d9 a3bd d2e4 3a3c
000002c0: 134b 3dbe 53b7 ccbd f604 bdbe 414f 153d
000002d0: 9297 173e 0336 e4bd 0d41 1c3d b9e7 7d3b
000002e0: f980 3fbb 71aa 013e c0e8 ca3d 26a4 7ebd
000002f0: 9162 dabd 6781 003d 3534 aa3d a5bf 903e
00000300: 5d1b c9bd 44d0 c93d 6c8b 9e3d 7a0c 8bbd
00000310: 6853 30bc 0567 823e abb7 66be 33a8 663c
00000320: 0641 9fbd 038c 57be 62df aabd dddc a03c
00000330: 2b1f 5ebd 5028 2a3e 9a15 11be 6c99 653d
00000340: 73fb 4b3d 110b 06be 3ea5 683d 7826 b33d
00000350: 07ce a9be b139 afbe 38aa 8ebe f67d 003d
00000360: 6e95 cfbd d748 d9bd e981 55bd a583 4ebc
00000370: bf90 bb3a 149c 0fbe c14e a2be 81e2 f7bc
00000380: 2d68 c63d 081e 91be e5d0 50be e340 8d3d
00000390: 5470 0abd b705 e6bd 313e 4dbe b734 71be
000003a0: 01ca 083e f347 dbbd fb7e c7bc a33b 18be
000003b0: cc7e 013e 6b79 153d ba34 33be f3e4 babd
000003c0: 977b 86be a6e9 a7be fcd5 3b3d 31a7 32be
000003d0: c89f 523e 21af f93d aec1 663e b170 d5bb
000003e0: c209 863e a100 90bd c9c4 d0bb 40f1 c8bd
000003f0: f2fd c73d d1b3 06be 680d 74bd a0c8 32bd
-0.18183964 -0.26149827 0.1537213 -0.1127537 -0.21080045 0.057712935 0.057927478 -0.007887196
-0.11171614 -0.21350348 0.298467 -0.18250234 0.4329872 0.16097514 0.07842072 -0.29247072
0.1224402 -0.061338924 -0.1319827 -0.03966115 -0.11048548 0.023820382 -0.0516163 0.13440953
-0.14883833 -0.24877727 -0.21536486 0.018910067 -0.05200826 0.08869283 0.026875092 -0.14814565
0.02654243 -0.059961945 0.09970572 0.100091934 -0.0050527253 0.006542056 0.20586573 0.01761533
-0.12835 -0.32251248 -0.21990238 -0.12457356 -0.44189432 0.024912624 0.04895823 0.15195605
-0.14192186 0.040459182 -0.06416383 -0.05543431 0.26519525 -0.007367337 -0.17859438 0.08173702
-0.04479815 -0.10631099 -0.027776815 0.027824152 -0.097864494 -0.18345763 -0.13690688 -0.17102887
-0.0991293 -0.03231237 0.010286572 -0.18384714 -0.061584663 0.09690641 -0.15363593 -0.038310688
-0.15954995 0.1563682 -0.17760602 -0.21870607 -0.11952851 -0.24013728 -0.3932889 0.15104689
-0.0648863 -0.09059174 0.1425601 -0.06243522 0.1121574 -0.19978052 -0.22767796 -0.04502669
-0.11904813 -0.1406025 -0.13010588 -0.03468121 0.05021217 -0.2820929 -0.05693794 -0.16160713
-0.0011493112 0.27236903 -0.038607232 -0.04972721 -0.1669221 0.11693713 -0.28136063 -0.22314233
-0.018628227 -0.10931951 -0.22959319 -0.24604446 0.0983364 -0.10979605 0.17865893 -0.1542592
0.084536694 -0.09272394 0.14338301 -0.26611644 -0.27252346 0.11879903 0.020671312 -0.0034851255
-0.088501215 0.007290062 -0.43811873 -0.022469763 -0.07703198 -0.08429448 0.018746225 -0.12939683
0.08013536 0.0976601 -0.25227365 -0.10320493 0.048275575 0.04854721 0.1585259 -0.2541849
-0.14302121 0.0026002787 -0.11370104 -0.18848608 0.018940538 -0.17758034 -0.048866622 0.07442892
-0.24767463 -0.06965827 0.044304814 0.110463604 -0.10233394 0.18977197 -0.05498764 -0.19176593
0.23631805 0.0867826 0.14859863 0.16449241 -0.18591173 -0.044956386 0.068904325 -0.056837633
0.024337368 -0.16300273 0.030193992 -0.21637958 -0.42910776 0.04303613 0.23903295 -0.08125039
0.10967952 -0.091683194 0.15780598 -0.061152715 -0.0016208547 0.05034544 -0.08000483 0.011407094
-0.1848567 -0.09995904 -0.36917847 0.036452536 0.14803913 -0.111431144 0.038147975 0.0038742854
-0.002922116 0.12662674 0.09907675 -0.062168263 -0.10663331 0.031373408 0.08310739 0.28271213
-0.09819672 0.09854177 0.07741436 -0.06789489 -0.010762073 0.25469223 -0.22531001 0.014078188
-0.07776074 -0.21049504 -0.08343388 0.019636566 -0.054228943 0.1661694 -0.14168397 0.056054518
0.049800348 -0.13090159 0.056798212 0.08747572 -0.33165 -0.34223703 -0.27864242 0.031370126
-0.10135923 -0.10609596 -0.052125845 -0.012604629 0.0014310105 -0.14024383 -0.3170071 -0.030259373
0.09687839 -0.28343225 -0.20392187 0.06897142 -0.03379853 -0.11231559 -0.20043255 -0.23555265
0.13358308 -0.107070826 -0.024352541 -0.148665 0.12646025 0.036492746 -0.17500582 -0.091257
-0.26266167 -0.32795447 0.04585837 -0.17446591 0.20568764 0.12191606 0.2253482 -0.006513678
0.2617932 -0.0703137 -0.006371115 -0.0981164 0.09765233 -0.13154532 -0.059583098 -0.043648362
