solutions/Deep Reinforcement Learning/2_Continuous Control/checkpoint_critic.pth (torch_old, 549481 bytes, 9 tensors)

fcs1.weight f4 [400, 33]
000000 f0 15 08 be 19 bb 1e 3d 71 1b 68 3d 1a d1 0b 3e
       -0.13289618 0.03875265 0.056666795 0.13653985
000010 69 0f a0 3e f2 1b 67 be 80 8f 96 bb 76 9f 1c be
       0.31261757 -0.22569254 -0.0045947433 -0.15295205
000020 bf b7 8a 3c 9b df a0 bc 00 fc eb bc 34 1f a0 bd
       0.01693332 -0.019637873 -0.028806686 -0.078184515
000030 b0 af a9 3c c6 1d 23 3d b0 8c 64 bd d7 2e 43 be
       0.020713657 0.039823316 -0.055798233 -0.19060837
000040 b0 44 1c 3e 3c 97 7a be c2 26 d3 3d 92 20 93 bc
       0.15260577 -0.24471754 0.10310127 -0.017959867
000050 3e c9 66 bb 92 50 25 bd 69 08 19 bc 38 9e 9d 3d
       -0.0035215165 -0.04036004 -0.009340384 0.076961935
000060 95 2e 1f bd 67 f6 79 3d db ee 73 bd 06 cd 2a 3d
       -0.038862783 0.061026003 -0.059553962 0.04169943
000070 2c 30 4e 3e 2a 12 20 bd 79 c3 ad 3b 9d d0 ea bc
       0.20135564 -0.039079823 0.005302843 -0.028663928
000080 8f b8 72 bf 3e ae 9f 3d cc 2f 21 3e 98 9f 18 3d
       -0.94812864 0.07796906 0.1574089 0.037261575
000090 14 bb 90 be 78 dc 8b be 87 3a 4e bf 14 29 f8 bc
       -0.2826773 -0.27316642 -0.80558056 -0.030293025
0000a0 43 57 fb 3c 4d f6 ed 3c 6a 51 ee bc 25 a8 82 3d
       0.030681258 0.02904811 -0.029091556 0.06379727
0000b0 bf 75 cd 3b 41 07 d6 3b a1 78 80 3e 18 93 9b 3e
       0.00627014 0.0065316265 0.25092033 0.3038566
0000c0 ba b5 ef bc c1 09 07 be cd 59 94 be ce 22 c2 bb
       -0.029261459 -0.13187315 -0.28974763 -0.005924559
0000d0 74 70 a2 be 2a 93 6c bc e4 1b 53 3d 8d 92 53 bc
       -0.3172642 -0.0144393835 0.05154027 -0.012913358
0000e0 12 6e 1b 3e d5 a1 10 3e 14 5b 50 bc 13 b5 7f bd
       0.15178707 0.14124234 -0.012717027 -0.062428545
0000f0 20 ff 7d 3c 0d 03 9c bc 60 e1 50 bb e4 d7 4d bc
       0.015502721 -0.019044423 -0.0031872615 -0.012563679
000100 fa ba cb bc 34 ff 2e be d1 71 a7 bc 67 a9 3e 3e
       -0.02486943 -0.1708954 -0.020440014 0.1861931
000110 d7 7e 84 3d 65 35 cb 3d 1a 09 c7 3e dc cf d2 be
       0.06469505 0.099222936 0.3887413 -0.4117421
000120 e0 b1 f8 3d 02 01 6c bc 59 fe 6a be b8 53 0b 3d
       0.12143302 -0.014404537 -0.22948588 0.034015387
000130 ac 61 25 3d 3b 73 42 3d 0a 51 33 bd 10 e4 44 be
       0.04037635 0.047473174 -0.043778457 -0.19227624
000140 45 fc 76 bd 31 9f 05 be 5c bf e1 bd 37 ae 98 3d
       -0.060299177 -0.13049008 -0.11022827 0.07455104
000150 31 07 d3 be 56 18 1a 3c f4 12 d0 bc fa 3c 88 bd
       -0.41216424 0.009405216 -0.025399663 -0.06652255
000160 87 c6 a7 bc 03 74 0c be ad e5 39 3c e1 b1 0c be
       -0.020480407 -0.1371613 0.011346263 -0.1373973
000170 1e c1 a9 3d e7 83 34 bd 94 81 0b 3e 28 aa d4 bb
       0.08288787 -0.044071104 0.13623649 -0.006490011
000180 f1 e5 b2 bc 63 d2 19 bd 9a 01 3d 3f d1 40 b8 bd
       -0.02183816 -0.037554156 0.7383057 -0.08996738
000190 8b 58 73 bc f5 bb 11 be 7f 55 84 be 6d db 8c be
       -0.014852653 -0.14231856 -0.25846478 -0.2751116
0001a0 3a b6 7a 3f b4 ae bf bd ed 96 a1 3e ea 91 c3 be
       0.97934306 -0.09359494 0.3156046 -0.3819726
0001b0 ea 2b 84 3d 3c ce b7 3d 3a 63 1e be 27 4f 8c 3d
       0.064536884 0.08974883 -0.1546754 0.068510346
0001c0 f7 53 3d 3e ba 8d 09 bc ee 0f ea 3d a2 33 ad 3e
       0.18489061 -0.008395607 0.114288196 0.33828455
0001d0 f0 22 9c bd b4 23 7b be 89 5f 9f 3e 14 ca a6 3d
       -0.07623851 -0.24525338 0.31127575 0.08144012
0001e0 9d eb aa bd ff c9 bc 3d 0d 7a 0f 3e c0 a1 59 bc
       -0.08345721 0.09218215 0.14011402 -0.013283193
0001f0 35 69 44 bd aa 4a bb bd f2 ab 4b 3d b6 f4 99 3d
       -0.047951896 -0.091451004 0.049724527 0.07517378
000200 68 bf ac bb 9b ac 5b bc d5 ac 38 3d 8c 1b 39 3e
       -0.005271841 -0.013407852 0.0450867 0.18076915
000210 a9 20 13 be 52 51 d3 be 74 00 8c 3e dc fc 74 be
       -0.14367928 -0.4127298 0.27344096 -0.23924583
000220 cd 3b d8 3d 25 b3 04 3f 89 0a 6b bd 74 dd 2f 3d
       0.10558281 0.5183585 -0.057383094 0.042935804
000230 03 03 0f 3e 91 43 b9 bd ca 36 04 3d d4 cf 92 bc
       0.13965993 -0.090460904 0.032278813 -0.017921366
000240 18 4b a4 3d 3b 4b ea bc aa 76 5c 3e ac db 75 3e
       0.080221355 -0.028600326 0.21529642 0.2400958
000250 b0 d6 9f bd c3 b5 c6 3d ce 22 23 bd 9b 30 8a be
       -0.0780462 0.09702637 -0.039828114 -0.26990208
000260 b2 a2 b3 3c 0d 60 23 3d a2 48 3c bd e5 2b 13 bc
       0.021928165 0.039886523 -0.045967706 -0.008982633
000270 a4 80 90 3d 3d c6 aa 3d 52 74 d3 3d 44 21 00 bd
       0.07055786 0.08338592 0.10324921 -0.031281725
000280 b5 1f 0a bc 38 ac 5c bc 1f cb 44 3d a0 c5 c4 3a
       -0.008430411 -0.0134687945 0.048045274 0.001501251
000290 70 8b fc be 3a 10 71 3c 0d 99 dd 3b 49 19 45 3e
       -0.49325132 0.014713341 0.00676263 0.19247927
0002a0 47 d9 22 bf 07 1c 41 3e 95 da 9d 3d 44 a6 06 3d
       -0.6361279 0.18858348 0.07707707 0.032873407
0002b0 b2 b8 a5 3c b2 4d 07 bd dc d1 38 3d 06 28 d2 bc
       0.020229671 -0.03303308 0.045122012 -0.02565385
0002c0 65 88 4a bd c1 10 29 3d e9 25 6c be e8 20 63 bd
       -0.049446482 0.041275743 -0.23061337 -0.055451304
0002d0 54 13 80 bd 6d 85 7b 3d dd e8 ef 3d 17 bb 4a be
       -0.062536865 0.06140654 0.11714337 -0.19797932
0002e0 a4 4d 05 3e 03 e5 69 bc f5 c2 13 bc 61 86 96 3a
       0.13017899 -0.014275792 -0.009018649 0.001148414
0002f0 89 ab fe bd 31 e1 42 bd d9 12 0f 3d 9b e7 84 bd
       -0.124350615 -0.04757804 0.034930084 -0.06489488
000300 9f 5e 14 3c ac 89 90 be e7 e4 17 3d be 44 4c bd
       0.009055763 -0.28230035 0.037083533 -0.049870245
000310 60 4d 36 bb 0c f3 e1 bc e4 41 31 3c 55 08 f6 3d
       -0.0027817115 -0.027581714 0.010818932 0.12013308
000320 3b e8 2a bd 91 4e 13 3f c0 99 03 3e a7 ae 5c bd
       -0.04172538 0.5754176 0.1285162 -0.0538775
000330 9c a1 16 3d 34 70 2e 3d 4a 01 90 3d 1d e3 81 bd
       0.036775216 0.042587474 0.07031496 -0.063421465
000340 8b cb 30 3c e3 ba 9f 3b ce 11 55 3d c3 a2 d3 bd
       0.010790716 0.0048745736 0.052018933 -0.10333779
000350 49 7e a6 3d 1f 06 9f 3e 65 a1 18 bd f2 d8 87 3d
       0.08129556 0.31059358 -0.037263293 0.06633176
000360 25 d4 b1 3c 3c 64 de 3d 80 4c 02 bc df 34 f2 3a
       0.021707604 0.10858962 -0.007952809 0.0018478892
000370 ad 08 f0 3b cb b8 b1 3c 08 1c 04 3d 57 0d fe 3c
       0.007325253 0.021694561 0.032253295 0.03101222
000380 cc c8 85 3d 10 da 3b bc 3d c0 87 be 5a 34 fe bc
       0.065324396 -0.011465564 -0.26513854 -0.031030823
000390 44 c7 a6 3c 23 08 9c bc 8f 44 d5 3e ad 02 75 be
       0.02035869 -0.019046849 0.4165387 -0.23926802
0003a0 ba 5b 29 3e 19 3f 7c bc 64 eb e9 be 22 14 83 3e
       0.16538897 -0.015395903 -0.456874 0.25601298
0003b0 a5 a1 35 be ce dd a6 3e be fa 0f be 3d ce 4b 3e
       -0.17737444 0.325911 -0.14060494 0.19902892
0003c0 47 31 fe 3c 4d e3 4c bc 9d 1a 97 3d 48 19 68 3d
       0.031029357 -0.012505365 0.07378123 0.056664735
0003d0 94 9b 16 3e 4c ac ac bc 44 4e 09 be 58 98 dd bc
       0.14707786 -0.021078251 -0.13408762 -0.027050182
0003e0 18 70 46 3e 15 60 36 3f d9 a4 d1 bd fe 8a 5d bd
       0.19378698 0.7124036 -0.1023652 -0.05408763
0003f0 50 61 6d be 39 33 06 3e 44 82 5a 3e 0b dd 18 bd
       -0.23181653 0.13105477 0.21338755 -0.037320178

fcs1.bias f4 [400]
000000 e0 bb c9 3c 64 bc 29 3e 38 ab 7c 3d ce db c9 3d
       0.024625719 0.16575772 0.061686724 0.098563775
000010 ec 4e 91 3d 51 99 60 bd 22 ef 2a 3d 5e 43 f6 bd
       0.07095131 -0.054833714 0.04173196 -0.12024568
000020 57 3e 24 3e 40 c6 25 3c d6 cf 09 3e ee e5 f9 bd
       0.16039406 0.010118067 0.1345819 -0.12202059
000030 9c c0 23 be 23 41 a9 3c 5f e8 b6 bc 82 f4 8f bd
       -0.15991443 0.020660942 -0.0223276 -0.07029058
000040 b9 b4 ba 3d 7a 9a e9 bd f4 33 1c 3e 82 0d 2e be
       0.09116501 -0.11406417 0.15254194 -0.1699734
000050 0a f8 10 3d 55 e1 cf bd 31 b0 1c 3d 04 e6 2f 3e
       0.0353928 -0.101504005 0.038253967 0.17177588
000060 39 92 ab bc 68 a5 27 3d e7 bc 8c bd cb b6 b6 bd
       -0.020943748 0.040929228 -0.06871968 -0.08921584
000070 8d 12 18 be e7 ae cd 3d e7 1b 05 bb 90 ea 76 3d
       -0.14850827 0.100431256 -0.002031082 0.06028229
000080 64 95 0a be cb 6a 14 be bb 14 22 be d8 6e cd bd
       -0.1353355 -0.14493863 -0.1582822 -0.100309074
000090 1d a9 b7 bc cf 19 d6 bc 7b be 9c 3d 84 61 ab bd
       -0.022419507 -0.026135353 0.07653519 -0.08368209
0000a0 65 38 2d 3e 68 53 a2 bd 3c e6 27 be 62 3a 06 3e
       0.16916044 -0.07926065 -0.16396421 0.13108209
0000b0 94 a2 e3 bd 0a ff 86 3c 02 a4 85 bc a1 8d 13 bd
       -0.11114994 0.016479034 -0.016313557 -0.03602374
0000c0 2b 0c 99 b9 6f 4b 2f be a1 40 20 3e 55 f7 e7 bd
       -0.000291915 -0.1711862 0.15649654 -0.11326472
0000d0 3b 54 d9 3d be 90 d2 bd 99 25 2e bd e3 8c 7a bb
       0.10611769 -0.10281514 -0.042516325 -0.0038230948
0000e0 4a 98 8c bd f0 ba 9a bd 29 5e 16 be 00 9e f5 bd
       -0.06864984 -0.07555187 -0.14684357 -0.11993027
0000f0 2c 42 0e bc 49 76 50 bd 70 47 ca bc af ad 35 3d
       -0.008682769 -0.050894056 -0.024692267 0.04435509
000100 cc 0f b8 bc 4c c4 28 be 5a 9e 82 bd 08 0f 5a 3d
       -0.02246847 -0.16481131 -0.063778594 0.05323699
000110 41 d3 80 3d cc 84 ac 3d 69 e3 0d 3c 46 a4 f3 3d
       0.062902935 0.084237665 0.008660176 0.11896567
000120 62 10 f4 bd 04 ab 15 be 3c 0a 3d bd ff 37 b0 3a
       -0.11917187 -0.14616019 -0.04615234 0.0013444423
000130 7c 6c 01 3e 07 17 cd bd 24 3a fa bd 6e bd ac bb
       0.1263904 -0.10014158 -0.12218121 -0.005271605
000140 ab f9 34 3d a5 c6 22 be 4b 7a 8f bd 69 f5 0b be
       0.044183414 -0.1589609 -0.070057474 -0.13667835
000150 89 e1 25 3d 26 75 86 3c 3e 41 1e be 54 f2 ee bd
       0.04049829 0.016413283 -0.15454575 -0.11667314
000160 21 b4 03 3c 60 6f 3e bd 5e d6 09 be 7c 97 5a bd
       0.008038552 -0.046492934 -0.13460681 -0.053367123
000170 19 c1 23 be 54 5c a0 bc c4 1f a4 bc 3c 2a 19 3c
       -0.1599163 -0.019575275 -0.020034678 0.009348448
000180 09 c7 6f 3c 3c 4c f7 bc 3b e9 0d 3e 54 93 7f bd
       0.014634856 -0.030187719 0.13858502 -0.062396362
000190 80 13 a1 3d 4a 9d 86 3d ab 01 a9 bc be e2 02 be
       0.078650475 0.06572969 -0.020630678 -0.12781808
0001a0 12 20 16 be 91 03 45 3d 04 ff 59 3d 68 45 d8 3d
       -0.14660671 0.048099104 0.053221717 0.10560113
0001b0 98 18 9e bd ff 50 0f 3e cb 6c 32 3e b7 1b e2 bc
       -0.07719535 0.13995741 0.17424314 -0.027601106
0001c0 cd b9 8a bd 33 a1 60 bd c4 a3 1b be 05 05 ce 3d
       -0.0677372 -0.05484123 -0.1519919 0.10059551
0001d0 7b 94 9b 3c ef 05 a4 3d cf ad e5 3d eb 34 97 bd
       0.0189917 0.08008944 0.11214792 -0.0738314
0001e0 e9 53 9e 3a 75 a4 0f 3e b2 84 09 be f6 24 1d 3e
       0.001207945 0.14027579 -0.13429525 0.1534613
0001f0 1e f6 b9 3d b4 81 60 bd ea 7b 11 be 38 4c bb 3d
       0.09080146 -0.054811195 -0.14207426 0.09145397
000200 67 05 aa 3d 8c 65 a1 bd 7a da a9 3d e8 2f 53 3d
       0.08301812 -0.07880697 0.08293624 0.05155936
000210 e9 6b 2f 3e 3b f4 b5 3d c4 f6 dc 3c e5 37 30 be
       0.17131008 0.08884474 0.026973136 -0.17208822
000220 35 b4 10 3e da 99 19 3e cd f8 45 bd a5 58 59 bc
       0.14131244 0.15000096 -0.048332978 -0.013265763
000230 95 21 e8 bb de 35 2e bc 5b 8d c1 3d 19 c3 bf 3c
       -0.0070840814 -0.01063296 0.094507895 0.02340846
000240 03 e3 1a be e5 c9 65 3d c5 6c da bd bc e6 4b 3d
       -0.1512566 0.056100745 -0.106652774 0.049780592
000250 69 9b 9b 3d 78 97 aa bd b9 fa f0 3d 80 59 8d 3b
       0.075980015 -0.083296716 0.117665716 0.0043136477
000260 2f c1 b3 bd 6a cd 18 3e cf ba e3 3d d8 fb 01 3e
       -0.08777081 0.14922109 0.11119615 0.12693727
000270 0f 2f f5 bd 67 de 08 be e5 dc 1c be 49 8a e6 3d
       -0.11971866 -0.1336609 -0.1531864 0.112568446
000280 0a 79 cf 3d 7f 19 d9 bd 35 52 8b 3d da 0c 10 3d
       0.10130508 -0.10600566 0.06802789 0.035168506
000290 d1 07 98 bd 5f 48 c5 3b 14 a4 d7 bd d9 92 51 bd
       -0.07423366 0.00602059 -0.10529342 -0.051165435
0002a0 34 32 8c 3d 6f 98 cb 3c a0 8c 04 be 1c 9d 33 3d
       0.06845513 0.02485296 -0.12944269 0.043851003
0002b0 38 af 0e bd 0b cc 02 be 3f d7 25 be 08 b5 01 3c
       -0.03483507 -0.12773149 -0.16195391 0.007916696
0002c0 64 25 03 be ae 36 db bd b0 60 2b 3d 06 68 2e 3c
       -0.12807232 -0.10703789 0.041840255 0.010644918
0002d0 d2 9e 9f bd 78 f5 e0 3c 84 07 b4 3d ff 24 8a bd
       -0.077939644 0.027460799 0.08790496 -0.06745338
0002e0 30 ae 7d bd 4a 5b fc 3c 96 7b 17 3d fc fb 76 3d
       -0.061933696 0.030805249 0.036983095 0.060298905
0002f0 9b 28 ef 3d 71 6a 2c bc 6d 63 6c 3d 2b 4e ce bd
       0.11677667 -0.0105234245 0.057712007 -0.10073503
000300 fe cb ab bc ca db 03 3e c9 83 2c be 75 7d ea bd
       -0.020971294 0.12876812 -0.16847147 -0.1144971
000310 bd 5c 1a be 21 2f 14 3e 89 0d a0 bc a1 64 23 3e
       -0.1507444 0.14471103 -0.019537704 0.15956356
000320 4d db bf bd 73 69 42 bd a4 ed e5 3d 59 c5 31 be
       -0.09368 -0.047463845 0.11226967 -0.17360438
000330 f0 c7 2d be 8f 35 ee bd d9 6b 38 3b b9 fc 22 be
       -0.16970801 -0.11631309 0.0028140454 -0.15916719
000340 b2 25 04 3d 75 d9 16 3e 4a 6b 0e bd 4a 1c f8 bc
       0.03226251 0.14731391 -0.034770288 -0.030286927
000350 f2 cc 1c be 6c 9c 16 bd 14 9a 6f 3c 6e fa 11 3d
       -0.15312555 -0.03677027 0.014624137 0.03563922
000360 7f bd 6a bd 8f e9 d9 bd 32 6a ba bd 9d 0c f6 3d
       -0.057309624 -0.10640251 -0.091022864 0.120141245
000370 87 a3 c1 bd 53 b0 53 3c 28 f3 f9 bc fc 82 8f bd
       -0.094550185 0.012920457 -0.030511454 -0.07007405
000380 8c 7e 00 bc d8 d8 06 3e e2 f5 06 3e a3 2f 14 bd
       -0.007842671 0.13168657 0.13179734 -0.036178242
000390 dd ef 0d bd f5 4c c7 bd d0 00 a6 bd 72 0d f4 bc
       -0.03465258 -0.09731475 -0.08105624 -0.029791567
0003a0 b1 fd 03 3e 7e b2 ca 3c 61 85 18 be ce 08 36 bd
       0.12889744 0.024743315 -0.1489463 -0.04444199
0003b0 65 57 1a be 55 b2 24 3e 4e 19 85 3c a3 a6 34 bd
       -0.15072401 0.16083653 0.016247418 -0.04410423
0003c0 56 0b 8f 3d 2d 1e 27 be 3e de 6c bd 70 80 86 3c
       0.06984584 -0.16320105 -0.057829134 0.016418666
0003d0 ff b9 00 3e e2 27 11 3e 37 cb b8 bb 15 0b 32 be
       0.12570952 0.1417537 -0.0056394595 -0.1738704
0003e0 53 10 04 3d 61 84 c8 bd 05 a6 20 3e 03 2f 40 bd
       0.03224213 -0.09790874 0.15688331 -0.046919834
0003f0 0f 18 41 bd cb f5 d5 bc a3 66 25 3e ea 4b 9c 3d
       -0.047142085 -0.02611818 0.16152434 0.07631667

bn1.weight f4 [400]
000000 2f 2c d2 3e 0b db a6 3e 19 37 a1 3e d0 7f c0 3e
       0.41049334 0.32588992 0.3148735 0.37597513
000010 3e 77 97 3e 57 a9 c4 3e d9 35 02 3f 6a fb aa 3e
       0.29583162 0.38410446 0.50863415 0.3339494
000020 e4 f2 d8 3e 8e 1c e9 3e 38 a1 fc 3e e4 b8 e0 3e
       0.4237281 0.45529598 0.4934175 0.4389106
000030 41 a8 b5 3e ef 6a 80 3e 3b b6 8c 3e 54 00 91 3e
       0.3547993 0.25081584 0.2748278 0.28320563
000040 18 cf a6 3e 76 b6 02 3f d7 31 0e 3a d5 6b f3 3e
       0.32579875 0.51059663 0.0005424297 0.47543207
000050 ad 53 80 3e 72 4c 7e 3e fd b0 04 3f f0 3a 17 3f
       0.2506384 0.24833849 0.5183256 0.59074306
000060 82 dc 84 3e 94 b8 00 3f 97 05 da 3e bf 33 05 3f
       0.25949484 0.50281644 0.4258239 0.52032083
000070 55 ba 1e 3e fd 2c b2 3e 02 91 a4 3e 2c 54 a7 3a
       0.15500768 0.34799948 0.32141882 0.0012766174
000080 12 9e 0b 3f 41 17 44 3e 2d 97 2e 3f 91 df b4 3e
       0.5453807 0.19149496 0.68199426 0.35326818
000090 92 90 80 3e 8b fe fd 3e 94 5e d9 3e 00 be a8 3e
       0.25110298 0.49608263 0.4245497 0.32957458
0000a0 d0 e2 05 3e 9e 15 de 3e 89 06 cc 3e f2 10 57 3f
       0.13074803 0.43375868 0.39848736 0.8401023
0000b0 ed 61 6e 3f 36 c2 94 3e d4 e7 a8 3e 55 74 c3 3e
       0.9311817 0.2905442 0.3298937 0.38174692
0000c0 90 08 3e 3d 99 de fc 3e 7d 63 c5 3e 5d d6 74 3e
       0.046394885 0.4938858 0.38552466 0.23909898
0000d0 c9 17 9b 3e 24 59 91 3e 67 cd d1 3e 98 2a d7 3e
       0.30291584 0.2838832 0.40977022 0.42024684
0000e0 7f 0b dd 3d 96 a5 a9 3e 4e fa 12 3f 35 58 c3 3e
       0.10793208 0.33134145 0.57413185 0.38153234
0000f0 c9 15 2e 3f b5 90 2e 3e 97 dd 08 3f 87 1e 8f 3e
       0.6800199 0.17047389 0.5346312 0.27952978
000100 95 66 01 3f 44 a6 b5 3e 6f 1f d2 3e 5a 74 d0 3e
       0.5054715 0.35478413 0.41039607 0.4071377
000110 78 a5 b3 3e 9c 04 0c b9 2f f0 a0 3e d2 1f c9 3e
       0.3508718 -0.00013353158 0.31433246 0.3928209
000120 03 ad 8e 3e 29 d3 7d 3e 1e c7 c1 3e 46 ec de 3e
       0.27866372 0.24787582 0.37847227 0.43539637
000130 4b 48 03 3f ab 1b f9 3e a9 5b ad 3e 9e 33 60 3f
       0.51282185 0.4865392 0.33858994 0.8757876
000140 cb 01 81 3e 7f 99 04 3f 04 95 0a 3f 34 1a 34 3e
       0.2519668 0.51796716 0.5413363 0.1758812
000150 6d 5f ad 3c 79 22 fd 3e 60 a5 eb 3e 27 30 f7 3e
       0.021163667 0.49440363 0.4602461 0.48278925
000160 09 bc db 3e 4e ce a2 3e 46 1c 80 3e e9 88 e9 3e
       0.42916897 0.31798023 0.2502157 0.45612267
000170 5c 9a d1 3e 3b 98 e2 3e 95 4d da 3e a4 b9 15 3f
       0.4093808 0.44256768 0.42637315 0.5848639
000180 83 59 ad 3e ca 96 db 3e f7 1b 10 3e d4 2f 18 3f
       0.33857355 0.4288848 0.14073168 0.5944798
000190 51 fc 35 3e 8d d3 bb 3e 0f 21 0e 3f 53 82 fb 3e
       0.17772032 0.36684838 0.55519193 0.49122867
0001a0 99 23 a5 3e 8a f4 cc 3e 4d 5c 01 bb 11 14 27 3e
       0.3225372 0.40030318 -0.0019738853 0.16316248
0001b0 a5 bc f2 3e 82 f7 bc 3e dc c7 c2 3e 35 17 82 3e
       0.4740955 0.36907583 0.38043106 0.2540833
0001c0 02 88 fa 3e b5 80 af 3e 35 76 96 3e f7 3c 76 3f
       0.4893189 0.34277883 0.2938706 0.96186775
0001d0 a6 7e c6 3e 11 f5 44 3e 31 b0 b0 3d 51 fa 50 3f
       0.387685 0.1923411 0.08627356 0.8163195
0001e0 ef b4 94 3e 0e 48 36 3f 8a ff df 3e 2e b3 80 3e
       0.2904429 0.71203697 0.43749648 0.25136703
0001f0 75 6c ab 3e 46 2e bc 3e 8e 4a 12 3f 75 ce 5f 3f
       0.33481184 0.36754054 0.5714501 0.87424403
000200 ec b8 55 3e 84 ab 98 3e d5 ad 0f 3f 0f 92 98 3e
       0.20871323 0.29818356 0.5612462 0.29798934
000210 9f 01 95 3e 48 d9 a7 3e ab d1 d3 3e 2b 48 ce 3e
       0.291028 0.3278296 0.413709 0.40289435
000220 8c c8 08 3f 72 c4 13 3f ad 5d 88 3e 30 76 0b 3f
       0.5343101 0.57721627 0.2663397 0.54477215
000230 bd c8 01 3f 9b a8 25 3e 70 dd 8f 3e ad 22 eb 3e
       0.5069693 0.16177599 0.2809863 0.45924893
000240 d5 cf e0 3e 75 ba 98 3e 1c a1 94 3e 21 83 6b 3e
       0.43908563 0.29829755 0.29029167 0.2299924
000250 9f 71 60 3e 01 f1 e1 3e 56 33 b7 3e 0e 24 f3 3e
       0.21918343 0.44129184 0.35781354 0.47488445
000260 79 f9 8f 3e a8 fe ba 3e ef 24 e1 3e ba c4 ef 3e
       0.2812002 0.36522412 0.4397349 0.46829778
000270 04 26 1f 3f a1 69 a3 3e c4 8d e5 3e 32 19 e7 3e
       0.6216738 0.31916526 0.4483472 0.4513641
000280 61 a6 9b 3e d6 16 fe 3e 7c 7a 02 3f 8f b3 91 3e
       0.30400375 0.49626797 0.50968146 0.28457305
000290 0a d3 4e 3e 0b ff 8b 3e c0 75 7f 3e 95 5b fc 3e
       0.20197693 0.2734302 0.24947262 0.49288622
0002a0 f1 52 c8 3e bb eb 88 3e d6 15 75 3e bc 16 00 3f
       0.3912578 0.26742348 0.23934111 0.5003469
0002b0 1d e0 10 3f 1d f2 ae 3e eb bd 49 3f ec bf 1e 3f
       0.5659197 0.34169093 0.78805417 0.620116
0002c0 80 08 79 3e 09 c1 d6 3e 79 97 d2 3e 6e 27 c4 3e
       0.24319649 0.4194415 0.4113119 0.38311332
0002d0 9a dc 8d 3f ad 1e be 3e 6c 1c 01 3f a6 98 63 3e
       1.1082947 0.3713278 0.50433993 0.222262
0002e0 19 d3 16 3e 18 e5 e7 3e 72 38 57 3f 68 4c eb 3e
       0.14728965 0.45291972 0.84070504 0.4595673
0002f0 7b 5f 58 3f d5 b8 88 3f 9d 70 0e 3f 04 55 02 3f
       0.8452069 1.0681406 0.55640584 0.50910974
000300 93 65 3d 3f bd 73 e3 3e 21 82 06 3f 14 98 78 3e
       0.73983115 0.4442424 0.5254231 0.24276763
000310 a5 a5 f0 3e b8 3c 13 3f 13 42 0e 3f 42 b9 c0 3e
       0.47001377 0.57514524 0.5556957 0.3764134
000320 1c 1b c8 3e d2 02 ae 3e 36 84 90 3e 8f 9d bc 3e
       0.39083183 0.33986527 0.2822587 0.36838958
000330 2c 36 db 3e a9 69 24 3f 12 cb 0c 3f 08 ea 6f 3f
       0.42814767 0.64223725 0.5499736 0.9371648
000340 9e fe 81 3e a8 fe e9 3e fe 46 0a 3f 54 c2 3f 3f
       0.2538957 0.457021 0.54014575 0.74905896
000350 70 92 7f 3e 1a 6f 2b 3e 44 57 89 3e 4f b0 98 3e
       0.24958205 0.167416 0.2682439 0.29822013
000360 8b 68 e1 3e 09 a8 a3 3e 94 4e d7 3e 4f ec 93 3e
       0.44025072 0.31964138 0.42052138 0.28891227
000370 78 d4 bd 3e 4f e1 b7 3e bd 88 c9 3e 2a 68 e4 3e
       0.37076163 0.35914084 0.39362136 0.4461072
000380 fd 2b 8e 3e b3 49 9c 3e f6 e6 91 3e 11 f3 ca 3d
       0.27767935 0.30524978 0.28496522 0.099096425
000390 6f c5 e1 3e 26 b7 a2 3e ca ea de 3e 16 ff 9d 3e
       0.44095942 0.31780356 0.43538505 0.30858678
0003a0 13 18 94 3e 9e fe 40 3e d2 b9 bc 3e 7a 5e 3a 3f
       0.28924617 0.18847129 0.3686052 0.7280041
0003b0 63 77 d6 3e a3 cc 8a 3e 07 66 af 3e 05 a8 d6 3e
       0.4188796 0.2710925 0.34257528 0.41925064
0003c0 39 fa 5d 3e b5 1e a5 3e 76 a8 6f 3e 90 80 36 3e
       0.21677484 0.3224999 0.23404106 0.1782248
0003d0 6e 14 cd 3e 2d 26 dd 3e 07 11 1f 3f 96 1d aa 3e
       0.4005465 0.43193188 0.62135357 0.33225697
0003e0 c3 9a b5 3e bf be 84 3e 84 19 ac 3e 4b 8d 0a 3f
       0.35469636 0.25926778 0.33613217 0.54121846
0003f0 df ea 67 3e 57 c0 69 3f 27 ec 99 3e f7 0b 1e 3f
       0.2264819 0.9130911 0.30062982 0.61737007

bn1.bias f4 [400]
000000 ec 41 b6 be 1f 1d 04 bf 8f 39 6b be fc 31 fa be
       -0.3559717 -0.51606935 -0.22971176 -0.4886626
000010 06 55 3c bd 99 c2 ad be 93 b1 cb be 0e 92 e7 be
       -0.045979522 -0.3393753 -0.39783916 -0.45228618
000020 3b ed 41 be 3b 22 c5 be 58 5c cf be 9c 2b aa be
       -0.18938152 -0.38502678 -0.4050014 -0.33236396
000030 cd 49 87 3d 02 41 60 bd f0 7f 9e bd e6 ee 9a be
       0.06605873 -0.054749496 -0.07739246 -0.3026039
000040 12 38 98 be 9e c4 5b be ef 2c b6 bc 34 f8 d4 bd
       -0.29730278 -0.21461722 -0.022238223 -0.103989035
000050 67 74 85 be 3d 4e 2a bd 82 89 d1 be 00 ac 03 bf
       -0.2606537 -0.04157852 -0.40925223 -0.51434326
000060 ef 1b c0 be 30 91 9c be 5d 46 16 bf b2 25 da 3d
       -0.37521312 -0.3057952 -0.58701116 0.10651721
000070 58 5b 0c 3e 4e fa a0 be e1 a5 a1 be b5 be 13 bc
       0.1370672 -0.31440967 -0.31571868 -0.009017636
000080 a2 f9 82 bc b7 bd 1c be 21 13 65 3d 3b 0b 8b be
       -0.015988175 -0.15306745 0.055926446 -0.27157006
000090 11 aa d5 bd af e2 04 bf ea fe 4f be 11 9a ac be
       -0.10432828 -0.5190839 -0.20312086 -0.33711293
0000a0 f0 bb e3 3d 2d 7f a9 be d0 ee a6 be 02 dc 75 be
       0.111198306 -0.3310484 -0.32604074 -0.24009708
0000b0 c6 b3 b4 be 35 28 77 be 26 ad ca be ef 71 cc be
       -0.35293406 -0.24136432 -0.39585227 -0.39930674
0000c0 66 f1 8e 3e d1 98 10 bf 51 65 c1 be 39 94 9a be
       0.27918547 -0.5648318 -0.3777261 -0.3019121
0000d0 e5 2f ba be 85 eb 44 3e 9c cb ff be 71 3c 06 bf
       -0.36364666 0.19230469 -0.4996003 -0.52435976
0000e0 6a ab 37 3e 82 13 a1 be af 3b d2 be 71 3e eb be
       0.17936483 -0.31460196 -0.4106116 -0.45946077
0000f0 49 32 05 bf 04 f4 81 bd 24 f1 88 be ae 08 6a be
       -0.52029854 -0.063453704 -0.26746476 -0.22854874
000100 4e 5d d8 be 47 2c a7 be 4a ef da be 91 34 7f 3d
       -0.42258686 -0.32650968 -0.42760688 0.06230599
000110 2d 45 33 be b1 b2 29 bb 48 8c 9e be fb d4 3e be
       -0.17506857 -0.0025893862 -0.309664 -0.18635933
000120 18 bf d4 be 78 7e 4b 3d 8b b4 c9 be 0f 26 e3 be
       -0.41552043 0.049681157 -0.39395556 -0.44364974
000130 07 54 06 bf ed b6 fe be 59 72 e4 be 06 d4 e6 be
       -0.52471966 -0.49748936 -0.4461849 -0.45083636
000140 e1 c2 51 be 2f f6 e6 be 4c 92 26 bf 82 9f 8f be
       -0.20484497 -0.45109698 -0.6506698 -0.28051382
000150 f7 19 8d 3e 23 ce f9 be e1 c6 a4 be b9 52 99 be
       0.27558872 -0.48790082 -0.32182983 -0.29945925
000160 a3 a1 5f be 34 2d 90 be a5 73 a7 be 10 90 b9 be
       -0.21839003 -0.28159487 -0.32705417 -0.36242723
000170 bc 95 00 bf 5d af 8e be 84 55 f7 be ce 03 c0 be
       -0.50228477 -0.27868167 -0.4830743 -0.37502903
000180 60 dc fa be 5a 93 29 bf d3 24 d0 3e 46 3f 25 bf
       -0.48996258 -0.66240466 0.40653095 -0.6454967
000190 a5 52 03 be 50 32 80 be 9e 00 e3 be 0c 9c e0 be
       -0.12824495 -0.25038385 -0.44336408 -0.43869054
0001a0 4a b1 c6 be a9 0c d5 be c0 2a db bc 21 f6 a9 bd
       -0.38807136 -0.4161122 -0.026753783 -0.082988985
0001b0 b5 8c a3 be 24 4c 05 bf f3 49 22 be 96 57 66 be
       -0.31943288 -0.52069306 -0.15848522 -0.22494349
0001c0 f6 d0 e8 be 3c 59 cc be 51 b1 86 3d 00 a0 95 be
       -0.45471925 -0.3991183 0.06576789 -0.29223633
0001d0 ff f9 e9 be 81 71 95 be 4d 40 a5 3e ff 25 d8 be
       -0.45698544 -0.2918816 0.3227562 -0.4221649
0001e0 de 34 33 be a5 43 e1 be 23 44 05 3d bb c3 b9 be
       -0.17500636 -0.4399692 0.032535683 -0.36282143
0001f0 da ca 58 be 33 73 48 be 24 94 9c be 1f df f9 be
       -0.21171132 -0.19575195 -0.30581772 -0.4880304
000200 95 91 80 be 5a f0 79 be 7e 2b 9a be 45 e3 aa be
       -0.2511107 -0.24408093 -0.30111307 -0.33376518
000210 c0 c8 95 3c 31 d1 82 be ed 0c d5 be cb 39 bc be
       0.018284202 -0.25550225 -0.41611424 -0.36762843
000220 78 1d 18 bf b2 97 08 bf 02 72 08 bf 0e de 9f be
       -0.59419966 -0.5335647 -0.5329896 -0.31224102
000230 96 d9 0c be da 58 a8 bd 2a a6 93 bc fb 33 c5 be
       -0.13754877 -0.08220072 -0.01802357 -0.3851622
000240 e8 30 9f be bd 6d 5c be 57 76 ba be 90 8c c5 bd
       -0.31092 -0.21526237 -0.3641841 -0.09645951
000250 02 fa 46 be 69 fa 58 be db f0 86 be fa 45 d6 be
       -0.19431308 -0.21189274 -0.26355633 -0.41850263
000260 7f 61 92 be 64 ac aa be 84 0f 02 bf c4 b0 0a bf
       -0.2859001 -0.3333465 -0.50804925 -0.5417597
000270 24 9b ef be 77 16 d5 be 0f d7 7b bd a2 34 14 bf
       -0.4679805 -0.41618702 -0.061484393 -0.5789281
000280 49 fb 97 bd ce 71 5f be 00 04 0e bf 08 e9 12 be
       -0.07420976 -0.21820757 -0.55474854 -0.14346707
000290 d4 64 a4 3c 6e f4 af be 3d 0e 82 bd 0c 2f b4 be
       0.02006761 -0.34366173 -0.06350372 -0.35192144
0002a0 21 80 93 3d 21 52 9f 3d ec e5 08 be aa 7c e7 be
       0.07202173 0.07779337 -0.13368958 -0.452123
0002b0 49 9d af be 67 f8 83 be ab 44 b4 be 0c b6 c2 be
       -0.34299687 -0.25775453 -0.3520864 -0.38029516
0002c0 ce 8e a5 be 84 90 cb be f3 b7 4c be 36 0f bb be
       -0.32335514 -0.39758694 -0.19992046 -0.36535043
0002d0 b3 85 98 be 23 8d 36 3e 89 1f 0c bf 29 55 7c be
       -0.29789504 0.17827277 -0.5473562 -0.24641861
0002e0 17 7f 3d bd c3 b9 c4 be e9 52 b0 be d2 9b 82 be
       -0.04626378 -0.38422975 -0.34438255 -0.25509506
0002f0 af d8 19 be e2 b4 8f bd 06 d8 a2 be bd 2a 19 bf
       -0.15024064 -0.070169225 -0.31805438 -0.5983084
000300 06 3c c4 be bf b3 11 bf 41 42 ca be 8e 38 ce be
       -0.38327044 -0.56914896 -0.39503673 -0.40277523
000310 49 7e 9f be 32 d9 05 bf de 53 d8 be 24 2b a9 be
       -0.31151035 -0.5228454 -0.42251486 -0.33040726
000320 7b 32 a8 be ec 8b 94 be e3 a1 87 be 09 34 12 bf
       -0.32851014 -0.29013002 -0.26490697 -0.5711065
000330 57 b2 de be 4f cd c4 3e 31 6a c0 be ba 43 97 be
       -0.43495438 0.38437888 -0.37581018 -0.2954386
000340 7a 03 88 be 52 f9 b2 be 7a 79 d2 be d3 fd 62 be
       -0.26565152 -0.3495584 -0.41108304 -0.22167139
000350 4e 58 ca be d5 bc 42 3e 93 de 9e be c5 f8 c4 be
       -0.39520496 0.19017346 -0.31029186 -0.38471046
000360 fb 06 18 bf 87 3d be be 07 17 df be ee 74 9c bd
       -0.5938565 -0.37156317 -0.43572256 -0.0763949
000370 78 f3 f3 be cd 2b 9f be eb e3 05 bf 9c 38 15 bf
       -0.4764669 -0.31088105 -0.523009 -0.58289504
000380 ce db 84 3e a8 28 91 be 12 e9 74 be 6e de e5 bd
       0.25948948 -0.2835133 -0.23917034 -0.11224066
000390 99 13 cf be e7 c3 90 be 3b 98 a5 bd bf 84 c7 be
       -0.4044464 -0.28274462 -0.08085676 -0.38968465
0003a0 f1 5f a3 be 4c 64 b8 bd 28 60 a7 be ed a8 dc be
       -0.31909135 -0.09003505 -0.3269055 -0.4309763
0003b0 05 fd f6 be 10 23 9f be ad 5b d9 be 68 94 19 bf
       -0.48239914 -0.31081438 -0.42452756 -0.59992075
0003c0 b4 f8 58 be ab 6c da be ae 32 85 3e 93 95 43 be
       -0.21188623 -0.42661032 0.26015228 -0.19100027
0003d0 18 85 ce be f5 ea 00 bf fe d8 90 bd 3a b2 d6 be
       -0.40335917 -0.50358516 -0.07072638 -0.4193285
0003e0 43 e4 59 3d 6e 55 93 be 1b 47 c9 be ea 6e fb be
       0.053196203 -0.28776115 -0.39312062 -0.49108058
0003f0 5c 2c c2 3e 23 e5 83 be a7 ff 19 bd a7 3f bb be
       0.3792447 -0.25760755 -0.037597325 -0.36572

bn1.running_mean f4 [400]
000000 ea c8 31 3e 61 66 98 bf 2a 71 3f be 36 e9 95 bd
       0.17361799 -1.1906244 -0.18695512 -0.07319872
000010 45 22 29 3d f3 61 45 bf 09 47 00 be d8 c6 76 bf
       0.041292448 -0.77102584 -0.12527098 -0.9639716
000020 46 c7 4b bf 66 97 c8 be 49 b1 0f bd 36 46 86 be
       -0.7960094 -0.39178008 -0.03508118 -0.26225442
000030 ad f1 5c bc 7a d1 48 3d 7c b8 09 be 1a 00 65 bf
       -0.013485354 0.049027897 -0.13449281 -0.8945328
000040 03 17 71 3e 0e d3 4e bf 31 d5 90 3e 12 44 d4 bd
       0.23543935 -0.80790794 0.28287652 -0.10364546
000050 23 f5 48 bf 16 7b 60 3f 64 07 17 3d 7b 62 bf be
       -0.7849905 0.87687814 0.036872283 -0.37379822
000060 5a 89 12 3f 1c 69 be bd 54 4d 90 bf dc 06 d3 be
       0.5724083 -0.09297392 -1.1273599 -0.4121617
000070 0b 59 1e bf 9f ed c8 bd ac e2 eb be e3 86 a3 3d
       -0.6185462 -0.098109476 -0.46071374 0.07984712
000080 7e 64 5c be bc 7a f7 bd 02 f9 ff 3e bf 72 4d be
       -0.2152271 -0.120839566 0.49994665 -0.20063303
000090 28 b2 58 bc 26 04 97 bf 16 71 d0 bd 9f 39 de 3c
       -0.0132260695 -1.1798141 -0.101778194 0.027127085
0000a0 e2 f5 43 3f 84 7b d3 bd 26 80 e5 3e a8 ea d2 3e
       0.7654706 -0.10326293 0.44824332 0.41194654
0000b0 a1 21 a6 bd 4e 07 6f bf 95 ca 4e bf 00 c7 3f 3e
       -0.08111883 -0.9337052 -0.80777866 0.18728256
0000c0 a7 54 1d 3f 10 ff c0 be de a2 4e 3f 3a d6 81 be
       0.61457294 -0.37694597 0.80717266 -0.25358754
0000d0 13 04 2d be 2b 1c 97 3d df 7e 69 bf cc 54 a6 bf
       -0.16896085 0.073784195 -0.91209215 -1.2994628
0000e0 b2 c4 d5 bd eb 55 a6 be 29 ce 22 3f 50 63 b9 bd
       -0.10437907 -0.32487425 0.63595825 -0.090521455
0000f0 04 0a 8c 3d c6 a7 21 3f 24 17 47 be 0b 4a fc 3d
       0.06837848 0.63146627 -0.19442421 0.1231881
000100 a6 9a bc 3e 40 d5 0c bf 95 c4 34 be ef 0d c7 3e
       0.36836737 -0.55012894 -0.17653115 0.38877818
000110 a2 c5 ec bd f4 34 d0 bc c2 db 88 be 86 4c 38 3e
       -0.11561133 -0.025415875 -0.26730162 0.17997941
000120 ac 79 c4 be 2d 47 c8 3f 16 bf 8c 3f 16 78 6b bf
       -0.38374078 1.5646721 1.0995815 -0.9198011
000130 4b 3e 60 3f 59 42 33 3e 56 f0 f6 bf f8 8d 87 3d
       0.8759505 0.17505778 -1.9292095 0.06618875
000140 13 23 3e 3e 3f e8 29 3e 1f 87 13 3e 40 fb 9b be
       0.18568067 0.16592501 0.14407013 -0.30465126
000150 04 88 33 3d 2c 97 05 bf 0d f4 cd 3f c0 2a 72 bf
       0.043830886 -0.52183795 1.6090103 -0.9459648
000160 10 81 bc 3e 17 fd e8 be d9 a3 46 3e 90 95 3d bf
       0.36817217 -0.45505592 0.1939844 -0.7405634
000170 18 ff 2e bf 9c cb 95 bf b3 fd a6 3e 6a 70 58 3e
       -0.6835799 -1.1702762 0.32615432 0.21136633
000180 a8 3f 77 bf bf 72 79 bf 0a 75 8a bd e9 ed 8a 3d
       -0.96581507 -0.97440714 -0.06760605 0.06783659
000190 33 59 82 bf 1f ae 2c be 88 e4 aa 3e 0e 3d 48 be
       -1.0183471 -0.16863297 0.3337748 -0.1955454
0001a0 cb 5d c5 bd 4a 44 d0 be c0 e9 59 3d f5 d7 24 bf
       -0.0963703 -0.406771 0.053201437 -0.64392024
0001b0 e9 dd 96 be 46 30 10 bf 0b bf a5 3f 87 ec 32 3f
       -0.2946618 -0.5632366 1.2948927 0.6989216
0001c0 65 6d 18 bf 42 0e 7a 3e 9d 7d 49 bf 84 87 e3 3d
       -0.5954192 0.24419501 -0.78707296 0.11109832
0001d0 cc 94 33 bf b2 31 e9 3c ce 11 27 3f c5 88 d4 bc
       -0.7014892 0.02846608 0.6526154 -0.025944123
0001e0 25 bd 22 bf 1d ba d6 3e 36 9c 4d 3f 0b b2 f8 3e
       -0.6356986 0.41938868 0.80316484 0.48573336
0001f0 60 b1 0a bf 49 a3 90 3d 32 17 91 bf f0 fb 82 bd
       -0.541769 0.07062394 -1.1335204 -0.063957095
000200 eb 38 76 bf 15 7e 93 be ad 9b 07 3e 6e c8 2f 3f
       -0.961806 -0.2880713 0.1324298 0.68665206
000210 21 34 0c be ea e4 46 bf e9 cb b6 3e cb 4c 34 bf
       -0.1369176 -0.77693045 0.35702446 -0.70429677
000220 34 23 89 3e 9d 7e 4b 3e 21 42 9d bf 4e 56 ae 3c
       0.2678467 0.19872518 -1.2285806 0.021281388
000230 1f 45 1f 3f a8 f6 08 3f 87 3f 48 3e 24 04 5b 3f
       0.62214845 0.5350137 0.19555484 0.85553193
000240 0a a2 e5 be 30 74 2c be ee ec d3 be 5c 1e 77 3e
       -0.44850188 -0.16841197 -0.413917 0.24132675
000250 89 a9 82 3e 32 1b aa 3f 7a 72 f2 3e f9 48 78 3e
       0.2551997 1.3289549 0.47352964 0.24246587
000260 91 2b 1f 3d 78 f8 0e bf 81 73 62 bf 31 f5 ef 3d
       0.038859908 -0.55847883 -0.88457495 0.117166884
000270 2e ba cc be 75 10 a4 bc e3 d9 aa 3e 55 d6 bc be
       -0.39985794 -0.020027379 0.3336936 -0.36882272
000280 82 70 44 be 8c 79 3f bd 60 ea bf be 63 8a 3c bf
       -0.19183543 -0.046746776 -0.374835 -0.7364866
000290 c0 34 35 3f ae df cc be 37 eb ad be 1a aa a2 bd
       0.70783615 -0.40014404 -0.33968517 -0.079426005
0002a0 e3 f4 3c 3f 78 88 f2 3e b3 30 03 bf 0d 81 44 3f
       0.7381117 0.47369742 -0.51246184 0.76759416
0002b0 00 35 eb bd a9 75 04 be 49 5c 61 be 08 aa 04 3f
       -0.11484718 -0.12935509 -0.2200786 0.5182195
0002c0 20 29 3c bf c0 2f 84 bf 5f 5d 5a 3e 24 74 df be
       -0.7350025 -1.0327072 0.21324681 -0.43643296
0002d0 ec a4 7f bd 79 b2 a1 3e b0 a6 1d 3e df 9d b1 be
       -0.06241314 0.31581476 0.15395617 -0.3469076
0002e0 c9 3c 78 3f 63 aa 26 3d 50 39 6b 3e 07 af 24 3f
       0.9696775 0.040689837 0.22971082 0.6432957
0002f0 56 a7 6a 3e a9 15 9a 3e 6f 71 c4 bc 8f 29 ad bd
       0.22915396 0.3009465 -0.02397987 -0.08455192
000300 ce 29 b4 3d 78 c6 a5 bc cc 2c 61 bf 1a 1d e7 3e
       0.08797036 -0.020236239 -0.8795898 0.4513939
000310 aa c1 b6 3e c1 f0 20 be 57 6b 89 bd 1d 2a c4 3e
       0.3569463 -0.1571684 -0.067099266 0.3831338
000320 2b 82 89 be 6c b5 f8 be 36 96 9d bd 64 2e 86 bf
       -0.26857123 -0.48575914 -0.07694666 -1.0482907
000330 ab bd 21 ba 0f 50 6d 3e 6b e2 da be d0 76 9c bd
       -0.00061699253 0.23175071 -0.42750868 -0.07639849
000340 25 ea 38 bf 8a 36 8e 3e ee 69 31 bf c5 65 14 be
       -0.72232276 0.27775985 -0.6930226 -0.14491947
000350 37 a5 46 bd ba db 48 bf 63 66 a2 be d3 60 53 bf
       -0.048497405 -0.78460276 -0.3171874 -0.8256962
000360 a4 4d 2a 3f 57 b8 9d bf e7 80 3f bf 73 87 d2 bc
       0.6652472 -1.2321881 -0.74806064 -0.025699353
000370 96 96 a1 be ad b5 04 3e 6d 16 16 bf 9a b1 2d 3d
       -0.315602 0.12959929 -0.5862797 0.042405702
000380 d6 da a8 3d 25 24 0c 3f 7d 02 7d be be 97 14 3e
       0.08244865 0.5474265 -0.2470798 0.1451101
000390 cf 04 90 3f e7 c1 18 3f 92 51 a1 be 7e a8 9a 3e
       1.1251467 0.5967087 -0.31507546 0.30206674
0003a0 3d 8b 4a 3f c3 ce 1a 3f b7 00 97 3e bf 79 d9 be
       0.7911871 0.60471743 0.29492733 -0.42475697
0003b0 11 81 71 bd 30 0b 13 3f c9 64 0c 40 a1 8f 42 be
       -0.058960978 0.57438946 2.1936514 -0.19000103
0003c0 7b d4 de be ad 3c fc be 6d 28 5f be 69 c5 9b bd
       -0.43521485 -0.49265042 -0.21792765 -0.076060124
0003d0 d0 e5 33 3f 72 6d 42 bb 57 f1 60 3f 24 d1 9a 3f
       0.7027254 -0.0029667285 0.87868255 1.2095075
0003e0 f9 70 11 3f fc 08 d0 3f 02 86 82 be 9f ba a2 bd
       0.5681301 1.6252742 -0.25492865 -0.079457514
0003f0 bd af 96 be 33 9f 8c bd 5b 0d 94 3f 4f ca 81 bd
       -0.29430953 -0.06866302 1.1566576 -0.063374154

bn1.running_var f4 [400]
000000 71 2d 4c 3f d7 e3 b5 3f 71 d4 46 3f cc 80 2a 3f
       0.7975684 1.4210156 0.7766791 0.6660278
000010 39 67 30 40 b3 25 86 40 22 05 9b 3e e3 42 b0 3f
       2.7563002 4.192102 0.30277354 1.3770412
000020 51 46 f1 3f a6 4f 6e 40 ca a9 f7 3e 8a a2 f8 3e
       1.8849584 3.7236114 0.48371726 0.48561507
000030 f4 7e 4b 3e 75 93 a8 3f c2 4a 7f 3f d9 07 06 3f
       0.19872648 1.317 0.99723446 0.52355725
000040 3b 21 7e 3f b8 8b 01 3f 19 f2 94 3e c8 8e 2b 3f
       0.99269456 0.5060382 0.29090956 0.6701474
000050 2c 80 cc 3e 41 02 25 3f d4 e8 86 3f 36 60 1d 3f
       0.39941537 0.64456564 1.0539804 0.6147493
000060 76 60 39 3f fd b3 55 3e b7 0e 58 3f 0e db 38 3f
       0.7241281 0.20869441 0.84397453 0.7220925
000070 af 5a f2 3f 81 03 25 3f 47 c5 42 3f 21 7d d8 3d
       1.8933924 0.6445847 0.7608227 0.105707414
000080 91 6f b8 3f cc 23 b6 3e b7 d7 17 3f 59 80 61 3f
       1.4409047 0.35574186 0.5931353 0.8808647
000090 8e dc 40 3f 51 4c 88 3f e7 dd b6 3e c4 df 3b 3f
       0.7533654 1.064829 0.35716173 0.73388314
0000a0 d0 41 90 3f 67 c4 9d 3f ed 25 c8 3f 9f 70 92 3f
       1.1270084 1.2325562 1.5636574 1.1440619
0000b0 b0 23 e2 3f 97 9d c2 3f d2 35 2d 3f 97 92 c4 3e
       1.7667141 1.5204343 0.6766025 0.3839309
0000c0 96 12 2c 40 4d 97 e6 3e 61 53 fa 3e 0d e6 22 3f
       2.6886344 0.45037308 0.48891738 0.6363228
0000d0 9a 47 56 40 aa 57 b3 40 02 f9 22 40 3a 1b 72 3f
       3.3481202 5.604451 2.5464482 0.94572794
0000e0 2b f6 ea 3f 28 37 09 3f 9d 0c b9 3f 61 13 a8 3e
       1.8356375 0.53599787 1.4456974 0.32827285
0000f0 27 1d 90 3f 7d f5 32 3f 01 07 2d 3f 1c ac 8f 3f
       1.1258897 0.69905835 0.6758881 1.1224399
000100 f5 e8 6f 3f d9 f1 87 3e a7 b4 01 3e 37 62 37 40
       0.9371484 0.26551703 0.1266657 2.8653696
000110 4a b0 52 3f 2d c7 30 3d d1 8c ae 3f 93 ad 9f 3f
       0.82300246 0.0431587 1.3636724 1.2474846
000120 5c 84 36 3f c4 99 7b 40 e2 0f 05 3f 5c 1c 72 3f
       0.71295714 3.93126 0.5197736 0.9457452
000130 30 91 77 3e 25 df 9b 3f ee d4 18 3f 5a 7c cb 3f
       0.24176478 1.2177473 0.59699905 1.5897324
000140 cf c8 4f 40 90 30 ef 3e 49 7d 23 3f dc 4a c7 3f
       3.2466314 0.46716738 0.63863045 1.556972
000150 96 41 4f 40 eb 5c 8e 3f 16 9c 07 40 6b df a1 3e
       3.238378 1.1122106 2.1189017 0.31615767
000160 bc 48 db 3e c3 d5 bd 3f 61 e0 7f 3f 23 ca 97 3f
       0.4282893 1.483086 0.9995175 1.1858562
000170 dd 74 21 3f 3b 1e a0 3f 35 05 d4 3e 0c 4a 84 3f
       0.63068944 1.2509226 0.41410223 1.0335097
000180 62 f5 7c 3f 00 49 75 3f c7 65 22 41 2e 0b 2a 40
       0.98811924 0.95814514 10.149848 2.6569324
000190 36 a7 2c 40 f2 0d 17 3f ae 01 98 3e f7 ee 38 40
       2.6977057 0.59005654 0.29688781 2.8895853
0001a0 f6 30 48 3f 67 a5 1b 40 b1 eb 11 3e 61 0b 77 3f
       0.7819971 2.4319704 0.14250065 0.9650174
0001b0 4b d8 09 40 8e e3 65 3f da cf 74 3f 11 b2 96 3f
       2.1538265 0.89800346 0.95629656 1.1773092
0001c0 6e f9 15 3f bb 56 da 3f db 25 6c 40 61 5f 71 3f
       0.58583724 1.7057718 3.6898105 0.9428616
0001d0 c8 13 df 3f 0c 65 13 40 5f 87 bb 3f 6c 12 85 3f
       1.7427912 2.3030424 1.4650687 1.0396247
0001e0 fe c8 1e 3f 8e 1c 0a 3f 82 2c 6a 40 e8 d6 97 3e
       0.6202544 0.5394982 3.6589665 0.29656148
0001f0 bc 82 b2 3e 9b 88 5c 3f 31 00 44 3f 92 2c eb 3f
       0.34865367 0.86145943 0.7656279 1.8372977
000200 49 68 15 3f 5b b4 f7 3f 45 7d b2 3e 02 04 7f 3f
       0.5836225 1.9351915 0.34861198 0.9961549
000210 a9 ca 2e 3f 84 be 3e 40 be 77 c8 3e 27 de 54 3e
       0.68277985 2.9803782 0.39153856 0.2078787
000220 93 d7 ed 3e e4 fa 46 3f 50 4d 96 3f 00 9f ed 3e
       0.46453533 0.7772658 1.1742344 0.4641037
000230 db 66 35 3f 00 12 05 3f 69 c3 0b 3f 91 1f c5 3f
       0.7086007 0.5198059 0.5459505 1.5400258
000240 a1 5d 30 3f 95 32 75 3f 88 4f 42 3f 70 2c fc 3f
       0.68892866 0.9578031 0.75902605 1.9701061
000250 d3 1d 33 3f 13 de 12 40 9e 3d 51 40 80 a6 a7 3f
       0.69967383 2.2948043 3.2693858 1.3097687
000260 b4 ba 11 3f 2d a2 11 40 29 f4 9e 3f a1 8e c9 3e
       0.5692551 2.2755234 1.2418262 0.3936663
000270 4f 0e 8d 3f 99 34 15 40 1e c4 97 40 16 14 11 40
       1.1019992 2.3313353 4.74269 2.266851
000280 81 c8 a4 3f d7 f1 13 3e 24 ee 71 3f 58 5f 1a 3f
       1.2873689 0.14447723 0.94504 0.60301733
000290 5b 10 6e 3f 56 53 38 3f 54 0a 50 3e 5f 4f b1 3f
       0.92993706 0.7200216 0.2031644 1.3852347
0002a0 0c 90 4c 3e 0a f0 2e 3f 66 40 75 3f f1 86 74 3f
       0.19976825 0.6833502 0.9580139 0.95518404
0002b0 90 15 7e 3f f9 e0 14 40 45 ff 9c 3f 57 32 90 3f
       0.9925165 2.3262312 1.2265402 1.1265363
0002c0 ee b8 3b 3f fd ba cd 3e db b4 13 40 b3 41 47 3f
       0.73329055 0.40181723 2.3079135 0.77834624
0002d0 47 32 9a 3f f2 d8 15 40 39 46 bf 3f 5e a5 1a 40
       1.2046593 2.3413663 1.4943305 2.4163432
0002e0 2f 28 75 3f dc 0c 8a 3f f8 8f 05 40 fd 8f d3 3f
       0.9576444 1.0785174 2.0869122 1.6528317
0002f0 e2 63 c3 3f e1 d7 76 3f 3b 1f 4b 3f 4f 7b ba 3f
       1.5264857 0.96423155 0.7934453 1.4568881
000300 35 a3 b0 3f a5 94 f7 3e 8c ff e8 3e fd 8d f5 3f
       1.3799807 0.48355594 0.45507467 1.9183956
000310 ac f7 8f 40 60 41 86 3e 62 15 8a 3e a1 07 72 3f
       4.4989834 0.26221752 0.2696944 0.9454289
000320 26 ef 93 3f 9e 05 ab 3e e6 6a f4 3e bd c2 d4 3e
       1.1557357 0.33402723 0.47737807 0.41554824
000330 14 61 80 3f 36 68 74 40 53 27 24 3f 25 82 0c 40
       1.0029626 3.8188605 0.64122504 2.1954434
000340 1b 95 cf 3f 36 1f 29 3f ae a0 e7 3e 94 83 db 3f
       1.6217378 0.6606325 0.45239776 1.714953
000350 7f c2 5c 3f df 48 4e 40 1f 1a 73 3e 5a 25 4a 3f
       0.8623428 3.2231977 0.23740433 0.78963244
000360 21 45 e9 3f 5a 82 60 3f c4 2a 15 3f b4 fd 9c 3f
       1.8224221 0.876989 0.5826838 1.2264924
000370 39 68 c3 3f d9 c1 b8 3e d6 98 38 40 bc 71 f1 3f
       1.5266181 0.36085394 2.8843284 1.8862834
000380 39 cd a9 40 11 b1 93 40 b6 60 58 40 b8 35 a1 3f
       5.3063016 4.6153646 3.3809028 1.2594519
000390 4b cf 66 3f ff 61 c3 3e e5 31 c1 3e b2 49 f3 3f
       0.90160054 0.38160703 0.3773338 1.9006865
0003a0 33 62 b6 3f b7 e0 3a 40 e8 c7 7a 3f 32 8b 59 3f
       1.4248718 2.9199655 0.9796128 0.8497802
0003b0 63 3b bc 3f ba b8 fa 3f 41 4a 7e 3f ec 63 3d 3f
       1.4705623 1.9587624 0.9933205 0.73980594
0003c0 05 27 a6 3f 90 50 2d 3f c9 57 66 40 64 1a 3d 3f
       1.2980658 0.67701054 3.599108 0.73868394
0003d0 a2 21 6c 3f ca b3 92 3f 21 62 03 3f f9 56 8b 3f
       0.9223882 1.1461117 0.5132161 1.0885917
0003e0 34 0f ed 3f 59 55 0f 3f 53 73 de 3f 84 43 5e 3f
       1.8520265 0.55989605 1.7378944 0.8682177
0003f0 e6 2b de 40 97 6c b9 3f 56 67 7d 3f b9 ba ea 3f
       6.9428587 1.4486264 0.98985803 1.8338233

fc2.weight f4 [300, 404]
000000 83 2c 13 bd 3d 04 8d bd 5c 3f fa bc 72 56 2b bd
       -0.03593112 -0.06885574 -0.03054779 -0.041830488
000010 38 20 2f bd d2 37 9b 3a ad a7 11 bc 65 84 03 bd
       -0.042755336 0.0011842197 -0.008890075 -0.032108683
000020 87 f8 e9 bb a5 9b a8 3c 16 02 fd bc e0 c4 3b bd
       -0.0071402225 0.02058203 -0.030884784 -0.04584205
000030 05 f3 ee 3c 19 10 0f 3d 34 f7 92 bd 62 56 56 bd
       0.029168615 0.03492746 -0.071760565 -0.052328475
000040 6f 76 a7 bc 55 7d 84 bd f1 5d 10 3d 5d 83 f5 3c
       -0.020442216 -0.06469218 0.03524584 0.029969865
000050 4f b5 d9 3c 55 6d b2 bc 2b b6 0b bd 48 54 72 bd
       0.026575712 -0.02178065 -0.034109276 -0.059162408
000060 97 a0 c8 bc 27 0f 41 bd de fc e0 bc 2a 85 00 3c
       -0.024490638 -0.04713359 -0.027464326 0.007844249
000070 6c 2c 24 3d ef 64 2b bc f8 76 45 bd 6b 98 d7 bc
       0.040081427 -0.010461076 -0.04820916 -0.026317796
000080 08 49 80 bd 5a d4 82 bd 86 c8 03 bd e6 04 3d bd
       -0.062639296 -0.06388159 -0.032173656 -0.04614725
000090 24 f0 74 3d 0b c7 29 3c a9 f0 b4 3c 79 d6 08 bc
       0.05979933 0.010362397 0.022087412 -0.0083519155
0000a0 f9 65 06 3c 26 d6 6a bd f9 ab 8f 3b 8c 59 50 bd
       0.008203023 -0.057333134 0.0043845144 -0.05086665
0000b0 7d 6c 7d bb 8a 89 14 bd 68 07 24 bc 9c ab 97 3b
       -0.00386694 -0.03626398 -0.010011531 0.0046286117
0000c0 0e 20 2b bd 3f 0b 43 3d fc 67 75 bc dd 8f 98 bc
       -0.041778617 0.047618147 -0.014978405 -0.018623287
0000d0 6d 33 d8 3a 04 fb c5 3c 12 f5 4f bc f2 7e 60 ba
       0.0016494818 0.024167545 -0.012692707 -0.0008563838
0000e0 cf f1 02 bd 95 e8 b9 3b 89 22 a6 bc 92 48 f3 3c
       -0.031968888 0.005673478 -0.02028014 0.02969769
0000f0 5a 13 1c 3d 17 69 d0 3b 1d 93 03 ba 13 af 4a bb
       0.038104393 0.006360184 -0.0005019175 -0.0030927106
000100 bf 83 9f bc ff 2a 0c 3d 5f 0a 95 bc bb 1f d9 3c
       -0.019472001 0.03422069 -0.018193422 0.026504388
000110 a0 21 d0 3c 42 0b 9a bb eb 7a 61 3d c4 99 41 3d
       0.025406659 -0.004701049 0.055048864 0.047265783
000120 82 30 ce 3c 92 b6 c3 3c d0 23 6f bb cf 21 38 3d
       0.025169615 0.023890767 -0.0036489852 0.044954117
000130 43 6c 4a bd 6a 12 12 bd 24 d8 d6 3c 81 d0 b2 3c
       -0.049419653 -0.035662092 0.02622611 0.021827938
000140 1c 7d f5 bc e8 2c cb 3c 0f fc d5 3b 95 74 7b bc
       -0.029966883 0.024801686 0.006530292 -0.01534762
000150 66 a1 83 bd 3d 27 8f bd 2e 3e f7 bc 3d 29 5a bc
       -0.06427269 -0.06989906 -0.030181017 -0.013315496
000160 16 55 2c bd a0 a1 62 3b 12 e9 42 3d ae 66 07 3d
       -0.04207333 0.00345812 0.047585554 0.033056907
000170 94 c3 aa 3a 73 42 10 bc d0 3b f7 bc fb 70 9e 3c
       0.0013028258 -0.008804905 -0.030179888 0.019340983
000180 fd 17 66 bc fd 23 25 3b d4 4a 8b 3c 80 7f 15 3d
       -0.014043805 0.0025198453 0.017003454 0.036498547
000190 55 44 5d 3c 94 35 51 3c dc 13 f5 3b ee d5 08 bd
       0.013505061 0.012769122 0.007479174 -0.033407144
0001a0 90 ce 3b bd 33 78 3d 3d c7 99 c8 bc 9f 56 60 bd
       -0.04585129 0.04625721 -0.02448739 -0.05477011
0001b0 b3 23 76 3c 8c e1 46 3d 2e 26 62 bd f6 d2 8e 3c
       0.01502316 0.048554942 -0.055212192 0.017434578
0001c0 dd e1 7a bd fe 0b b3 bb a2 19 77 bd 32 6a 8b bc
       -0.061250556 -0.005464076 -0.06032718 -0.017018411
0001d0 d0 1b 6b bd 7a 00 65 bd 29 89 85 3c 36 b2 4a bd
       -0.05739957 -0.055908658 0.016300755 -0.04948636
0001e0 55 f6 81 bd ca e8 45 bd 4e 98 c8 bc c9 cc 5a bd
       -0.06345812 -0.048317708 -0.024486687 -0.053417955
0001f0 83 1c 63 bd 60 7c 4c 3c 10 3c dc 3b 04 8f 42 bd
       -0.055447113 0.012480825 0.006721027 -0.04749967
000200 26 c0 56 bd ad fd 24 3d c2 92 c6 bb 6f 8e 38 bd
       -0.05242934 0.040280987 -0.0060599754 -0.04505771
000210 74 c0 c1 bc 00 af 64 bd a1 bd 17 bd ca df 27 bd
       -0.02365134 -0.055830956 -0.03704608 -0.040984906
000220 25 a2 4d bd 49 57 a8 3c 25 f8 9d 3c c1 a2 8a 3c
       -0.05020346 0.020549433 0.019283364 0.01692331
000230 fa bd ea 3c 23 22 27 bc 2a 84 a8 bc 1e 14 ac bc
       0.028655041 -0.01020101 -0.020570833 -0.021005686
000240 c5 14 40 bd e4 b9 3d bd 8c 06 38 bd 70 4b 1e bd
       -0.046894807 -0.046319857 -0.04492812 -0.03864616
000250 01 81 fd bc 78 8c fd 3c 45 3e ba bc f9 2e a5 bb
       -0.030945303 0.03095077 -0.02273477 -0.005041
000260 14 09 01 3d 3b 2c 00 bd c1 fa 28 bc 19 df 1a 3d
       0.0315028 -0.03129218 -0.010313691 0.03781042
000270 bf 1c 9d 3c 11 65 25 3d 5e d7 11 3d 08 0a 10 bd
       0.019178746 0.040379588 0.03560578 -0.035165817
000280 ac 57 f1 3c 17 42 36 bd 22 68 7c bd 0f 4e 89 bb
       0.02946075 -0.044496622 -0.061622746 -0.0041902135
000290 3d 17 5b 3c 92 62 11 3d d7 5f cc bb 07 ac 3b 3d
       0.01337224 0.035494395 -0.006237011 0.045818355
0002a0 50 ad 6d 3a b1 b1 49 bd 5b f5 35 3d b0 a5 d6 3b
       0.0009066658 -0.049241725 0.044423442 0.006550513
0002b0 d7 7a c3 bc 3e b6 22 bd 2b 0c 9c bd 13 5b 27 bd
       -0.023862286 -0.03972458 -0.07619508 -0.04085834
0002c0 4d 43 15 bd e5 4c 48 3d 41 6a 40 bd e5 13 8c bd
       -0.036441136 0.048901457 -0.04697633 -0.06839732
0002d0 9c 8c be 3c 55 26 be bd dc 49 5b bd 37 6f 6b bd
       0.023260407 -0.09284655 -0.053537235 -0.05747911
0002e0 99 ba 53 3d 4e 2e 47 3c 46 a1 2f bd 4f af d2 bb
       0.051691625 0.012157036 -0.04287841 -0.00642959
0002f0 6e 02 8e bd a4 50 7b bd 86 9d f4 bb 00 4e 86 3c
       -0.06934057 -0.0613562 -0.0074650673 0.016394615
000300 3a 3c 7e bd 06 c9 61 3d 1e 31 23 3b 7a f5 59 3d
       -0.062069155 0.05512335 0.0024901102 0.05321262
000310 ad e8 b1 b9 7e 89 96 3c 9c 5b 8f bd c9 0c c1 3c
       -0.00033933428 0.018376108 -0.06999895 0.023565667
000320 d1 1e 11 bd 3d 5b 90 3c fb 27 b5 3c 33 67 0f 3b
       -0.03542978 0.01762163 0.02211379 0.002188158
000330 a4 88 89 3c b3 4f 8b bd 80 c4 90 bd 6f 49 24 bc
       0.016788788 -0.06802311 -0.070687294 -0.010027274
000340 00 fe 1f bd f6 c1 0c 3d 49 a8 6b bd 48 08 59 bd
       -0.039060593 0.034364663 -0.057533536 -0.052986413
000350 01 be 5c bc 40 4d b7 bb 1b dc 86 bc ee 50 25 bd
       -0.013473035 -0.0055939257 -0.016462376 -0.040360384
000360 fd a1 9e bd 90 cb 89 bd 81 e9 ad bb b0 92 91 bd
       -0.077457406 -0.067282796 -0.005307377 -0.071080565
000370 62 aa dc bc ed e6 05 3c eb a3 43 bd 63 a8 69 bd
       -0.026936714 0.008172733 -0.047763746 -0.05704535
000380 17 3c 5a 3c 1e bc 79 ba e4 63 8d 3c 2b ab 4a 3d
       0.013319991 -0.0009526628 0.017259546 0.049479645
000390 c6 b9 9a 3c aa ca b7 bc 5a 8c 93 bd a7 4f 35 bd
       0.018887412 -0.022435505 -0.07204504 -0.044265416
0003a0 f2 ea 29 3c 00 66 cc 3c dd db 4b bd fd 33 11 3d
       0.010370957 0.024950981 -0.049770225 0.03544997
0003b0 33 1c 54 bc f2 f8 b6 bc cb 06 89 3b 8e 99 63 bd
       -0.012946176 -0.022335503 0.004181718 -0.055566363
0003c0 f6 20 2c 3d fb f8 a6 3c 21 b7 4a 3c e1 01 0d bd
       0.04202362 0.020382395 0.012372763 -0.03442562
0003d0 40 fa 90 3c b4 71 89 bd d9 fe 0c bc f6 2c 69 bd
       0.017697453 -0.0671114 -0.008605682 -0.056927644
0003e0 b2 de 20 3c e8 62 4b bd 58 68 88 b9 99 7e c9 bc
       0.00981872 -0.04965487 -0.00026017684 -0.0245965
0003f0 d5 94 fa bc 92 d1 c5 bc e0 2c 1b bb c4 12 21 bd
       -0.030588547 -0.024147782 -0.002367787 -0.039324537
