solutions/Deep Reinforcement Learning/1_Navigation/checkpoint.pth (torch_old, 28395 bytes, 6 tensors)

fc1.weight f4 [64, 37]
0.18846446 0.10336354 -0.29033482 -0.12688248 -0.02947322 -0.07919654 0.056279548 0.061886813
0.08004051 -0.10402738 0.061708767 -0.04811201 -0.026301095 -0.28161985 -0.40230554 0.015782963
0.12631963 0.072175145 0.16804886 0.13181362 0.06607394 0.13926734 0.064816505 0.17597224
-0.131837 0.081466824 0.2542908 -0.2210578 -0.27876434 -0.31297454 -0.117644824 0.10776199
0.14903118 -0.47289836 -0.056522977 -0.056635257 -0.055440865 0.12164877 0.021539908 -0.0025822113
0.15733404 -0.096000366 -0.07462462 -0.34407842 0.018281836 -0.03314592 -0.19099301 0.2890483
-0.30181575 0.02784991 -0.14245783 -0.3833485 0.22697227 -0.037104607 -0.04993548 -0.1605127
-0.43590763 -0.056972746 -0.2466686 -0.20423064 0.06658207 0.0656966 -0.011523588 -0.09805833
-0.107317716 0.1325914 -0.13933988 0.02281133 0.13144697 0.075828485 -0.046011236 0.10164361
0.17970893 -0.026326688 0.11790654 0.06354087 0.10371512 0.012663608 0.16015607 -0.8642609
0.059147116 0.3143572 0.11994597 -0.60468477 -0.22724193 0.13698667 -0.0067852237 0.013335405
0.14637555 -0.1800212 0.04784825 0.07981108 0.109232605 -0.13045247 -0.31263638 0.023320107
0.09291031 -0.050944515 -0.10067361 -0.87721026 0.1801247 0.19914703 0.055178218 -0.29067907
-0.092343815 0.15915148 -0.1295002 -0.24218597 0.12418133 0.058774844 0.012639961 -0.1091559
0.26116806 0.1623673 -0.03971089 -0.5316917 -0.057016656 0.04900128 -0.050567858 0.20700575
0.08544584 -0.022957288 0.15675786 0.07765113 -0.27792802 -0.010720478 -0.22366413 -0.04928861
0.04550316 -0.08843962 -0.09706993 -0.085850105 -0.034401834 0.044131834 0.06152979 0.08799208
-0.038398556 -0.020266173 -0.092632815 0.2455258 0.26231304 0.29314977 -0.3440211 -0.555396
-0.42163143 -1.5534612 0.012749804 -0.007309356 -0.10037558 -0.18655993 -0.05137662 -0.14841862
-0.08590321 0.20852092 0.23348835 -0.22494757 -0.37297153 -1.2478738 -0.064362034 0.08464286
-0.3960443 0.076210566 -0.21217325 -0.2746979 -0.026697982 0.07491459 0.025047295 -0.0154873775
-0.08350509 -0.04702849 -0.038572017 0.11837065 0.15204564 -0.07999648 0.09030325 0.017233044
0.015808595 0.17038016 0.04418325 0.085592896 -0.13435444 0.12227098 0.08236412 -0.08739939
-0.049410634 0.054359335 -0.033686038 -0.09797984 -0.17260525 -0.12607488 0.17320092 0.04781519
-0.17394958 0.0032747684 -1.2642208 -0.14948802 0.0038932753 -0.021944372 -0.09507081 0.28144714
0.019882152 -0.12128575 0.10253217 -0.24154074 -0.09716871 -0.050255027 0.17352472 0.102811754
-0.08524084 0.023458714 -0.08663231 0.19174257 -0.09500188 -0.22193106 0.3041976 -0.15862978
-0.0005465709 0.108266085 -0.075169235 -0.4255232 -0.022170927 0.016448699 -0.029398581 -0.18819845
0.03183665 -0.25516364 -0.26857832 0.05755314 -0.32128027 -0.0877423 -0.10142256 0.16647628
0.009270345 -0.15912765 0.10966895 -0.17348982 -0.0036233773 -0.69228077 -0.051092137 0.041958246
0.16927435 0.32115975 -0.3575757 -0.19466253 0.23525643 -0.4385238 -0.003588306 -0.3061159
-0.016989147 -0.0409942 -0.44787306 0.152951 -0.5594444 0.039196756 -0.22213121 0.28842044
00000000: d4fc 403e 43b0 d33d c4a6 94be 7bed 01be
00000010: d371 f1bc cc31 a2bd 6285 663d 077d 7d3d
00000020: 47ec a33d 4f0c d5bd 55c2 7c3d 1911 45bd
00000030: 6575 d7bc 7a30 90be fefa cdbe 464b 813c
00000040: ef59 013e 90d0 933d 0015 2c3e 26fa 063e
00000050: c651 873d 199c 0e3e 84be 843d 1132 343e
00000060: 4700 07be 14d8 a63d 6732 823e fa5c 62be
00000070: 33ba 8ebe 333e a0be c5ef f0bd 51b2 dc3d
00000080: a19b 183e bc1f f2be a384 67bd 5ffa 67bd
00000090: f615 63bd fe22 f93d 7674 b03c 513a 29bb
000000a0: 2d1c 213e d79b c4bd cbd4 98bd 0c2b b0be
000000b0: cac3 953c 04c4 07bd ac93 43be 24fe 933e
000000c0: 9887 9abe 7f25 e43c 77e0 11be 4146 c4be
000000d0: 6b6b 683e 00fb 17bd 2589 4cbd 715d 24be
000000e0: 492f dfbe 415c 69bd b296 7cbe d621 51be
000000f0: 2e5c 883d f08b 863d 6ecd 3cbc ced2 c8bd
00000100: 64c9 dbbd 0ac6 073e 1daf 0ebe d4de ba3c
00000110: 099a 063e f74b 9b3d 4776 3cbd 862a d03d
00000120: 9e05 383e 11ab d7bc fc78 f13d b721 823d
00000130: 9868 d43d 067b 4f3c f4ff 233e 3440 5dbf
00000140: 3f44 723d 6df3 a03e 3ca6 f53d 9fcc 1abf
00000150: 1cb2 68be 3c46 0c3e 9556 debb be7c 5a3c
00000160: 79e3 153e 7a57 38be 87fc 433d fe73 a33d
00000170: 58b5 df3d 5595 05be e011 a0be cf09 bf3c
00000180: c347 be3d 32ab 50bd f72d cebd da90 60bf
00000190: 9c72 383e 33ed 4b3e 8e02 623d e3d3 94be
000001a0: c11e bdbd 9bf8 223e b39b 04be 99ff 77be
000001b0: c852 fe3d e4bd 703d d717 4f3c 218d dfbd
000001c0: d2b7 853e 9d43 263e e3a7 22bd f21c 08bf
000001d0: 4c8a 69bd 91b5 483d 3e20 4fbd 51f9 533e
000001e0: 3bfe ae3d ec10 bcbc 2285 203e 8e07 9f3d
000001f0: 954c 8ebe f2a4 2fbc 3608 65be dbe2 49bd
00000200: 8661 3a3d d51f b5bd 99cc c6bd 2ed2 afbd
00000210: f0e8 0cbd 95c3 343d a906 7c3d 3135 b43d
00000220: ce47 1dbd 3f05 a6bc 46b6 bdbd 1e6b 7b3e
00000230: e54d 863e ba17 963e 8923 b0be 6f2e 0ebf
00000240: 13e0 d7be d1d7 c6bf 8ee4 503c 5283 efbb
00000250: b691 cdbd 9109 3fbe 4a70 52bd 0dfb 17be
00000260: 06ee afbd 8286 553e 9217 6f3e a858 66be
00000270: 20f6 bebe 54ba 9fbf 3ed0 83bd 3c59 ad3d
00000280: 52c6 cabe 4914 9c3d f243 59be 34a5 8cbe
00000290: bab5 dabc d26c 993d fc2f cd3c c5be 7dbc
000002a0: b704 abbd f2a0 40bd b1fd 1dbd 506c f23d
000002b0: dab1 1b3e 32d5 a3bd e9f0 b83d 502c 8d3c
000002c0: 0781 813c 2378 2e3e 7ff9 343d 544b af3d
000002d0: 3694 09be 3569 fa3d 85ae a83d 74fe b2bd
000002e0: ce62 4abd e5a7 5e3d 5ffa 09bd a8a9 c8bd
000002f0: 6ebf 30be c619 01be 955b 313e dcd9 433d
00000300: d71f 32be 7f9d 563b fdd1 a1bf 6313 19be
00000310: 5226 7f3b afc4 b3bc 7cb4 c2bd d719 903e
00000320: e5df a23c aa64 f8bd 63fc d13d 7556 77be
00000330: 6300 c7bd 37d8 4dbd 77b0 313e f88e d23d
00000340: c092 aebd 7d2c c03c 486c b1bd 2a58 443e
00000350: 5890 c2bd e541 63be cabf 9b3e d86f 22be
00000360: c147 0fba 9cba dd3d 54f2 99bd 2dde d9be
00000370: ce9f b5bc 6cbf 863c 4bd5 f0bc 18b7 40be
00000380: 2667 023d cfa4 82be 1983 89be d7bc 6b3d
00000390: d97e a4be 3cb2 b3bd a2b6 cfbd c278 2a3e
000003a0: a5e2 173c 5cf2 22be 1d9a e03d 51a7 31be
000003b0: 2f76 6dbb 5039 31bf fd45 51bd 69dc 2b3d
000003c0: 4156 2d3e 0d6f a43e 2a14 b7be 9d55 47be
000003d0: 10e7 703e 3186 e0be c929 6bbb 39bb 9cbe
000003e0: d32c 8bbc 89e9 27bd 9e4f e5be 309f 1c3e
000003f0: c037 0fbf c78c 203d 5d76 63be d8ab 933e

fc1.bias f4 [64]
0.11389343 -0.104882866 -0.15495737 -0.05102389 0.1825558 -0.096936636 -0.15147698 0.0613071
-0.019125849 -0.2529588 0.17573908 0.26907414 0.092483275 0.055932183 -0.15889236 -0.13669153
-0.029346848 -0.09250333 -0.056888245 -0.19620933 0.018246675 0.08452057 -0.037291966 -0.12598303
-0.046102278 0.118544705 -0.09215989 -0.18643531 0.14337505 0.1198599 0.021857837 -0.08293098
0.10494176 -0.007696259 -0.16163619 -0.012820308 -0.10031787 0.037184473 -0.0383964 -0.21043016
-0.15077256 0.05442814 0.028625775 0.29822153 -0.059415586 -0.10527232 -0.05410894 -0.24491443
-0.13312028 0.09520702 -0.14706884 0.019146299 -0.12054157 -0.20272414 -0.16407295 -0.03271268
0.065245256 -0.05340505 -0.06663001 -0.14032404 -0.037037764 0.017609013 -0.025971677 0.071095444
00000000: f540 e93d d4cc d6bd 25ad 1ebe 6dfe 50bd
00000010: e8ef 3a3e b786 c6bd c81c 1bbe 271d 7b3d
00000020: d0ad 9cbc d183 81be f2f4 333e 16c4 893e
00000030: df67 bd3d 2519 653d aeb4 22be ddf8 0bbe
00000040: cd68 f0bc 6372 bdbd a603 69bd 19eb 48be
00000050: 0d7a 953c 1f19 ad3d 76bf 18bd b201 01be
00000060: bed5 3cbd 91c7 f23d 53be bcbd e6e8 3ebe
00000070: e9d0 123e 1b79 f53d 350f b33c b8d7 a9bd
00000080: b5eb d63d e630 fcbb f583 25be 450c 52bc
00000090: 7573 cdbd bf4e 183d 8b45 1dbd 017b 57be
000000a0: 1f64 1abe 0bf0 5e3d 9a80 ea3c 7eb0 983e
000000b0: c25d 73bd 0499 d7bd 56a1 5dbd d9ca 7abe
000000c0: af50 08be e6fb c23d 3799 16be b3d8 9c3c
000000d0: 80de f6bd eb96 4fbe bd02 28be bbfd 05bd
000000e0: 4e9f 853d 41bf 5abd 5175 88bd 1bb1 0fbe
000000f0: e9b4 17bd c740 903c 8ec2 d4bc 7d9a 913d

fc2.weight f4 [64, 64]
0.1332326 0.23782864 -0.23535632 -0.007186748 -0.058227632 0.033440907 0.011638691 -0.1918646
-0.24301209 -0.2136235 -0.046495255 -0.25396243 0.09079707 0.14868194 0.18090086 0.12837487
-0.14001147 -0.21477883 -0.11135141 -0.069460526 -0.3085005 0.4071531 -0.05788334 -0.074233584
0.077164166 -0.02612988 0.14158612 -0.15825033 -0.27470422 -0.16836035 0.39471272 0.24398267
0.10399287 -0.081490256 -0.12736192 -0.03448708 -0.11332158 0.13929158 -0.27336678 -0.17422265
-0.25089902 0.012729163 0.030818949 0.017365271 -0.07806553 -0.6094877 -0.111530386 0.07219202
-0.087996066 -0.23915918 -0.32319728 -0.28646594 -0.36319068 -0.004424401 -0.05573641 -0.06914077
-0.044436283 -0.13241668 -0.22813627 -0.23709689 0.05589365 0.6377511 -0.056495998 -0.17850505
-0.2770683 0.1317023 -0.050562978 0.15976958 0.016073456 0.029963195 -0.36924073 0.06337265
-0.10111009 0.12681668 -0.041998446 0.16341837 -0.05474809 0.20218869 -0.09757508 0.017437655
0.1359673 0.23031135 -0.3335758 -0.4898357 0.22458223 -0.0770057 -0.1829579 0.10054978
-0.08338113 -0.07294278 -0.07883963 -0.18093362 0.0029896768 -0.02274189 0.037888393 -0.10142173
-0.12240094 0.15068483 0.19420588 0.20243412 -0.05177251 0.0054191863 0.16267374 -0.42029187
-0.16431552 -0.037529342 0.09603882 0.037454367 -0.048780955 -0.2206729 -0.13126673 -0.22988479
-0.21245737 -0.33775994 0.078754105 0.18547481 0.21028124 -0.2108871 -0.051671047 -0.18300542
-0.045838337 0.0013821237 0.1482994 0.25141996 -0.1687772 -0.27334163 0.11061437 -0.16417563
-0.13505194 -0.31449193 0.17754385 -0.047958203 -0.2092856 -0.17023328 -0.20013924 -0.0921023
0.020600855 0.08618689 0.1873729 -0.081409626 -0.08953685 0.11825558 -0.19931412 0.11505897
-0.10004102 -0.052286487 0.07242966 0.13895856 -0.26750013 -0.3415479 -0.57561874 -0.13695131
-0.3714384 0.24399896 0.31245792 -0.028418357 0.03180067 0.20832597 -0.4162342 -0.041411582
0.043320008 -0.0092862155 -0.09370311 0.25908208 0.05010011 0.084833466 0.5919711 -0.24183398
0.18504329 0.12436469 -0.23257332 -0.13070446 0.06632799 -0.17435473 0.047511566 0.060052533
-0.06853411 -0.010522017 -0.44606167 -0.3697686 -0.18441848 0.41990185 -0.14935727 -0.07390918
-0.0809127 -0.102284916 -0.04624831 -0.17636915 -0.21678272 -0.35466126 0.2843492 0.019399745
0.019949825 0.06715656 0.18335025 0.03207431 0.2799233 0.2298516 -0.22878458 0.13915217
0.027303869 -0.0006912621 0.036895767 -0.038653236 -0.012998937 0.24824746 0.14824143 -0.4757117
-0.06184573 0.16730537 0.057010762 0.09911604 0.03315932 0.43606555 0.14347956 -0.064441085
0.10023142 -0.0090217395 -0.013876326 0.06887516 0.44369522 -0.07139962 0.03667137 -0.15767184
-0.06681194 0.21786723 -0.31906435 -0.22893927 -0.036207814 0.069512 0.053697 -0.1898068
0.34557778 0.3249426 0.30679044 -0.058004808 -0.12536672 -0.026887681 -0.1789424 -0.38003862
0.21106249 -0.125906 -0.2340908 -0.16632119 0.19631782 0.22848213 -0.43571737 -0.24819437
0.025758162 -0.16849545 -0.032440677 -0.08452447 -0.117668144 0.3076098 -0.37376657 -0.1316571
00000000: 206e 083e 5a89 733e 3f01 71be d07e ebbb
00000010: 1980 6ebd 55f9 083d 35b0 3e3c 2778 44be
00000020: 29d8 78be 1ec0 5abe cf71 3ebd 5d07 82be
00000030: d0f3 b93d 1440 183e 133e 393e b474 033e
00000040: 2b5f 0fbe fbee 5bbe 350c e4bd 5241 8ebd
00000050: c7f3 9dbe 5f76 d03e 1517 6dbd c707 98bd
00000060: 3f08 9e3d 550e d6bc f4fb 103e 600c 22be
00000070: 08a6 8cbe a866 2cbe c917 ca3e 98d6 793e
00000080: 37fa d43d 5de4 a6bd 2a6b 02be 5342 0dbd
00000090: 2515 e8bd 74a2 0e3e bbf6 8bbe 6c67 32be
000000a0: d675 80be fb8d 503c 0578 fc3c 9d41 8e3c
000000b0: d2e0 9fbd 6307 1cbf 0b6a e4bd 69d9 933d
000000c0: 4837 b4bd 25e6 74be 1d7a a5be aaab 92be
000000d0: 21f4 b9be 91fa 90bb dd4b 64bd ad99 8dbd
000000e0: d202 36bd 3d98 07be 8e9c 69be 87c9 72be
000000f0: bdf0 643d a843 233f 5968 67bd 07ca 36be
00000100: e5db 8dbe f8dc 063e 201b 4fbd a39a 233e
00000110: 7bac 833c 6075 f53c 1f0d bdbe 85c9 813d
00000120: cf12 cfbd 3bdc 013e 9006 2cbd 2557 273e
00000130: 893f 60bd 8d0a 4f3e 72d5 c7bd 6ad9 8e3c
00000140: 033b 0b3e bdd6 6b3e 72ca aabe bfcb fabe
00000150: e2f8 653e 2ab5 9dbd 5159 3bbe 0bed cd3d
00000160: bac3 aabd 0663 95bd ac76 a1bd aa46 39be
00000170: 74ee 433b 334d babc dc30 1b3d 32b6 cfbd
00000180: 58ad fabd 204d 1a3e e8dd 463e e44a 4f3e
00000190: 690f 54bd 6e93 b13b f293 263e 7f30 d7be
000001a0: 5442 28be 5eb8 19bd 00b0 c43d c069 193d
000001b0: 8ace 47bd 14f8 61be c96a 06be eb66 6bbe
000001c0: 6d8e 59be dfee acbe d549 a13d 1ced 3d3e
000001d0: f753 573e caf2 57be 05a5 53bd c665 3bbe
000001e0: fbc0 3bbd 6028 b53a ccdb 173e 1eba 803e
000001f0: eed3 2cbe 6ff3 8bbe c989 e23d a81d 28be
00000200: 0e4b 0abe 1605 a1be 0ece 353e d26f 44bd
00000210: f74e 56be a251 2ebe 4df1 4cbe 21a0 bcbd
00000220: 20c3 a83c c182 b03d aede 3f3e 17ba a6bd
00000230: 195f b7bd fb2f f23d 0019 4cbe 0aa4 eb3d
00000240: 4ee2 ccbd 5b2a 56bd 0056 943d 274b 0e3e
00000250: c7f5 88be 5edf aebe c05b 13bf f73c 0cbe
00000260: 2d2d bebe ddda 793e 7cfa 9f3e 9dcd e8bc
00000270: 6b41 023d 6753 553e a61c d5be 319f 29bd
00000280: 5270 313d 3625 18bc 6be7 bfbd 68a6 843e
00000290: c635 4d3d 2bbd ad3d 6b8b 173f 54a3 77be
000002a0: fd7b 3d3e eab2 fe3d b327 6ebe 64d7 05be
000002b0: f8d6 873d 0c8a 32be 7d9b 423d a5f9 753d
000002c0: 9d5b 8cbd 8a64 2cbc 3262 e4be 4f52 bdbe
000002d0: 33d8 3cbe 60fd d63e 1df1 18be b25d 97bd
000002e0: 8fb5 a5bd c17a d1bd de6e 3dbd 1d9a 34be
000002f0: 4afc 5dbe 2996 b5be 3896 913e 37ec 9e3c
00000300: d16d a33c 6189 893d 2bc0 3b3e 5a60 033d
00000310: 1b52 8f3e 385e 6b3e 8146 6abe e87d 0e3e
00000320: 5dac df3c d035 35ba 0420 173d db52 1ebd
00000330: 7ef9 54bc 9534 7e3e 9acc 173e 7c90 f3be
00000340: f351 7dbd 1952 2b3e 1e84 693d 5afd ca3d
00000350: 11d2 073d fc43 df3e 4eec 123e b0f9 83bd
00000360: 2146 cd3d ebcf 13bc 8859 63bc 6b0e 8d3d
00000370: 052c e33e f739 92bd b834 163d ba74 21be
00000380: b3d4 88bd 9618 5f3e 675c a3be 0e6f 6abe
00000390: a54e 14bd 4f5c 8e3d 63f1 5b3d b75c 42be
000003a0: 92ef b03e e05e a63e a313 9d3e 7396 6dbd
000003b0: 2260 00be 8e43 dcbc ad3c 37be 6c94 c2be
000003c0: c420 583e 81ed 00be 80b5 6fbe 1a50 2abe
000003d0: 8a07 493e 38f7 693e 5916 dfbe aa26 7ebe
000003e0: c802 d33c 128a 2cbe 84e0 04bd 2a1b adbd
000003f0: fffb f0bd 087f 9d3e 555e bfbe 1ed1 06be

fc2.bias f4 [64]
0.072997056 0.061292365 0.083702326 -0.09556774 0.32240167 0.027137924 -0.13960901 -0.10140152
0.17119172 0.6023853 -0.19244608 0.29809698 0.14928883 -0.00048164534 -0.054834515 0.2537781
-0.021572534 0.19252898 0.037365563 0.40598267 0.441273 0.69757915 -0.27711368 -0.17468834
-0.16393572 -0.27745667 0.11501224 -0.017380744 -0.116086856 0.2492814 -0.022170428 0.060468797
0.07130171 0.40573433 -0.016600804 0.07474317 0.090600796 0.12778325 0.19075432 0.060796224
0.15689789 0.63264257 0.4218021 -0.16315842 0.16584207 -0.14208256 0.4419507 -0.15659744
0.00074590725 0.057605684 -0.05128761 0.5537999 0.02625999 -0.0350709 0.49908152 -0.2559029
-0.30906853 -0.06018616 -0.027523052 -0.17248912 0.05797023 0.50333875 -0.032296278 -0.12435512
00000000: 7b7f 953d b40d 7b3d 206c ab3d 05b9 c3bd
00000010: d511 a53e 5a50 de3c aaf5 0ebe 9aab cfbd
00000020: e24c 2f3e ec35 1a3f 9610 45be 2ba0 983e
00000030: 2cdf 183e 5885 fcb9 289a 60bd 34ef 813e
00000040: e2b8 b0bc 5126 453e a20c 193d f6dc cf3e
00000050: 89ee e13e 8c94 323f d8e1 8dbe 80e1 32be
00000060: c4de 27be cd0e 8ebe 8a8b eb3d 1062 8ebc
00000070: f2be edbd a043 7f3e c29e b5bc 21ae 773d
00000080: a206 923d 69bc cf3e 69fe 87bc f212 993d
00000090: e98c b93d 9dd9 023e 1a55 433e 7605 793d
000000a0: d7a9 203e ddf4 213f 72f6 d73e 0013 27be
000000b0: 81d2 293e 177e 11be 5d47 e23e 145b 20be
000000c0: fd88 433a f0f3 6b3d f512 52bd d5c5 0d3f
000000d0: 311f d73c 81a6 0fbd 9d87 ff3e b405 83be
000000e0: 3b3e 9ebe c385 76bd 0678 e1bc fda0 30be
000000f0: 3172 6d3d cfda 003f 1a49 04bd e6ad febd

fc3.weight f4 [4, 64]
0.29308045 0.046749413 0.36064798 -0.1461372 0.22795762 0.24570046 -0.24100085 -0.21419823
0.25810218 0.17698161 -0.27664402 0.3135801 0.06510055 0.4135406 -0.073961 0.10240501
0.20611967 0.26443866 0.4360898 0.21745116 0.11705171 0.2523167 -0.051799964 -0.115506195
0.26262045 -0.11156398 -0.009459389 -0.30056778 -0.035278186 0.1088864 -0.07646937 0.1310454
0.3136475 0.24787582 0.4373398 -0.13460244 0.1422663 0.12334665 0.14071256 0.15112074
0.27681744 0.18452175 0.14658292 -0.37424096 0.07458202 0.08700017 0.18593174 0.09819588
-0.10166509 0.17391981 0.07517656 0.30293426 -0.09918824 0.07504162 0.17158765 -0.22446768
-0.28594634 -0.23644258 0.050154094 0.01957626 -0.36021596 0.21748354 -0.38508472 -0.2789919
0.4178265 0.06547036 0.580042 -0.069280095 0.22418924 0.30518645 0.045987442 -0.16451065
0.25984007 0.16335545 -0.05141885 0.16342434 0.09041983 0.353747 -0.22030425 0.17537762
0.48189393 0.1595321 0.31932366 0.1896846 0.20476258 0.34936994 -0.28862536 0.0930554
0.3771028 -0.28572312 0.12376879 -0.19366847 -0.018954355 0.044398047 -0.074435 0.14447835
0.14536384 0.2399687 0.54823494 0.15999466 0.23809317 0.16977878 0.20409468 0.12508686
0.17230637 0.20976081 0.1409012 -0.12998848 -0.04596885 0.021343015 0.19365264 -0.058736145
-0.07727566 0.18656759 0.0411202 0.18287154 -0.1439959 0.26765317 0.1656144 -0.13758636
-0.10700876 -0.21322395 -0.23781425 -0.10515851 -0.43668288 0.088039115 -0.32498735 -0.18564469
0.1343879 0.1437213 0.5599229 -0.091844015 0.21730122 0.04839756 -0.3482112 -0.06351431
0.29072434 0.1731456 -0.3705131 0.20909981 0.16389985 0.26762637 -0.14539863 0.2701654
0.018691601 0.09032025 0.25144216 0.04321531 0.17750002 0.27408564 -0.3113326 0.25998187
0.5991237 -0.05685837 -0.4067763 -0.031241665 0.04992909 0.24330348 -0.2225763 -0.032421056
0.0968396 0.31755018 0.36104587 0.2416853 -0.20395161 0.22619353 0.28182527 0.18974909
0.04729173 0.25944796 0.17737876 -0.24655588 0.15536334 -0.02537653 0.18396369 0.05945517
0.22434114 0.118034676 0.30180192 0.34831107 0.10738484 -0.20700909 0.15647484 -0.16241503
-0.24210615 -0.0301011 0.050930902 -0.30235863 -0.33138034 0.22693393 -0.011859825 -0.48773515
0.363982 0.24870428 0.057546426 -0.26691058 0.12724617 0.24119851 -0.32338017 -0.03784683
0.18277529 0.25843507 -0.09391393 0.04627151 0.3649967 0.5321771 -0.046152648 0.037305817
0.813981 0.14602381 0.48213688 0.14916383 0.09882351 0.29708573 -0.34048262 0.1665429
-0.14824615 -0.05992961 0.34017625 0.11684425 0.013212469 0.012515432 0.005560044 0.09089979
-0.035834517 0.26675525 0.08780426 0.09000397 0.09489536 0.09344112 0.22877894 0.32606322
-0.017282892 0.24143218 0.19943446 -0.118747205 0.19892782 -0.44967395 0.14806837 -0.0015362623
-0.10020138 -0.037284687 0.32950482 0.36968213 -0.73336303 0.15807906 0.17624679 0.091734014
-0.19092219 -0.4146406 -0.61069626 -0.29624206 -0.092528805 0.15356539 -0.5510987 0.0035694768
00000000: a40e 963e 507c 3f3d daa6 b83e fda4 15be
00000010: b96d 693e e798 7b3e edc8 76be c856 5bbe
00000020: f825 843e ab3a 353e 49a4 8dbe 928d a03e
00000030: 7053 853d 98bb d33e dd78 97bd b8b9 d13d
00000040: 0911 533e 8164 873e 2a47 df3e 84ab 5e3e
00000050: cfb8 ef3d a82f 813e 332c 54bd 838e ecbd
00000060: 3076 863e a87b e4bd 8efb 1abc 05e4 99be
00000070: dc7f 10bd d5ff de3d f99b 9cbd c430 063e
00000080: 6896 a03e 29d3 7d3e 01eb df3e 39d5 09be
00000090: 42ae 113e 2b9d fc3d f416 103e 65bf 1a3e
000000a0: 04bb 8d3e 45f3 3c3e d519 163e 839c bfbe
000000b0: 75be 983d 252d b23d e464 3e3e ec1a c93d
000000c0: c935 d0bd 0918 323e 2bf6 993d 331a 9b3e
000000d0: 3423 cbbd 6caf 993d acb4 2f3e dbda 65be
000000e0: 8f67 92be 011e 72be 616e 4d3d 655e a03c
000000f0: 3a6e b8be 01b4 5e3e d329 c5be 07d8 8ebe
00000100: 5bed d53e 5315 863d a27d 143f b9e2 8dbd
00000110: dd91 653e 6641 9c3e 545d 3c3d 7b75 28be
00000120: c209 853e a746 273e 929c 52bd b658 273e
00000130: 082e b93d 541e b53e 7097 61be 3196 333e
00000140: cdba f63e 625c 233e 647e a33e ae3c 423e
00000150: 48ad 513e 9ee0 b23e b4c6 93be d493 be3d
00000160: 9e13 c13e 4d4a 92be 7e7a fd3d 0751 46be
00000170: 2a46 9bbc bada 353d 6171 98bd 22f2 133e
00000180: 42da 143e 5bba 753e 2059 0c3f a4d5 233e
00000190: b2ce 733e 7dda 2d3e 32fe 503e c516 003e
000001a0: 1571 303e 8acb 563e 6748 103e b31b 05be
000001b0: d549 3cbd 8cd7 ae3c e14c 463e 5095 70bd
000001c0: b442 9ebd 930b 3f3e a86d 283d ad42 3b3e
000001d0: a973 13be d609 893e d296 293e 70e3 0cbe
000001e0: 6927 dbbd 6157 5abe 9485 73be 585d d7bd
000001f0: e694 dfbe da4d b43d be64 a6be a419 3ebe
00000200: fb9c 093e ad2b 133e 1b57 0f3f b718 bcbd
00000210: 3684 5e3e 853c 463d bd48 b2be ca13 82bd
00000220: d2d9 943e 154d 313e e5b3 bdbe 431e 563e
00000230: 5dd5 273e 5306 893e 61e3 14be 1f53 8a3e
00000240: 211f 993c d3f9 b83d 07bd 803e 8902 313d
00000250: 91c2 353e f454 8c3e fd66 9fbe 581c 853e
00000260: 2c60 193f 52e4 68bd fc44 d0be 85ee ffbc
00000270: 7282 4c3d 8c24 793e 0beb 63be f1cb 04bd
00000280: d753 c63d f095 a23e 01db b83e 5a7c 773e
00000290: b1d8 50be 479f 673e 674b 903e 964d 423e
000002a0: f9b4 413d 5dd6 843e c7a2 353e 2579 7cbe
000002b0: 9117 1f3e 71e2 cfbc fa60 3c3e 4487 733d
000002c0: afb9 653e 2abc f13d c885 9a3e d455 b23e
000002d0: 95ec db3d 31fa 53be f13a 203e 2050 26be
000002e0: adea 77be 9596 f6bc ec9c 503d c0ce 9abe
000002f0: afaa a9be 5e61 683e b64f 42bc 6cb8 f9be
00000300: d95b ba3e 56ac 7e3e cdb5 6b3d 81a8 88be
00000310: d24c 023e befc 763e 1692 a5be 4705 1bbd
00000320: 7229 3b3e 9a51 843e f255 c0bd 3287 3d3d
00000330: d9e0 ba3e c23c 083f 8f0a 3dbd fccd 183d
00000340: 0f61 503f 4487 153e a5da f63e 67be 183e
00000350: fb63 ca3d 9f1b 983e bd53 aebe 398a 2a3e
00000360: d7cd 17be c078 75bd 952b ae3e 0a4c ef3d
00000370: 1d79 583c 870d 4d3c 0831 b63b ab29 ba3d
00000380: 37c7 12bd 2594 883e b8d2 b33d 0054 b83d
00000390: 8058 c23d 0f5e bf3d 0745 6a3e c2f1 a63e
000003a0: da94 8dbc ff39 773e 8c38 4c3e bc31 f3bd
000003b0: bcb3 4b3e aa3b e6be 3c9f 173e 695c c9ba
000003c0: 6236 cdbd d4b7 18bd dbb4 a83e fa46 bd3e
000003d0: aebd 3bbf 7adf 213e 0a7a 343e 0bdf bb3d
000003e0: 1b81 43be c64b d4be 9756 1cbf 0aad 97be
000003f0: be7f bdbd 3f40 1d3e ce14 0dbf e2ed 693b

fc3.bias f4 [4]
0.43281475 0.3836906 0.26957038 0.31422263
00000000: e599 dd3e 1873 c43e 2105 8a3e cae1 a03e
