solutions/Deep Reinforcement Learning/3_Collaboration and Competition/previous_models/checkpoint_critic_0.pth (torch_old, 594767 bytes, 17 tensors)

states_normalizer.weight f4 [24]
0	0x3e1de6fb	0.15420143
1	0x3e8398c8	0.257025
2	0x3e075c3c	0.13218778
3	0x3dffd545	0.1249185
4	0x3f4e4767	0.805777
5	0x3f0719d2	0.52773774
6	0xbb090e73	-0.0020913153
7	0xbbb9f462	-0.0056748847
8	0x3e1ee864	0.15518337
9	0x3b3de8f6	0.0028977967
10	0x3d1f7e0c	0.038938567
11	0xbb163414	-0.0022919225
12	0x3f0f5b25	0.5599845
13	0x3f1b625c	0.6069696
14	0x3d9c6c36	0.07637827
15	0x3dec696e	0.115435466
16	0x3eff9fc5	0.49926582
17	0x3e9fc6bf	0.3120632
18	0x3b9a8af2	0.0047162706
19	0x3e55b400	0.20869446
20	0x3f459f2b	0.77195996
21	0x3f35efbe	0.7106894
22	0x3e4b7362	0.19868234
23	0x3d42e355	0.047580082

states_normalizer.bias f4 [24]
0	0xbb636379	-0.0034696741
1	0x3869dcbe	5.575711e-05
2	0xba9d6c62	-0.001201045
3	0x37bc32ac	2.2434942e-05
4	0xb8d47743	-0.00010131162
5	0xbae8d716	-0.0017764296
6	0x3a8e143d	0.0010839772
7	0x39cf6b1f	0.00039561928
8	0xb9c8e6aa	-0.0003831883
9	0xbad96133	-0.0016584754
10	0xba20432c	-0.0006113525
11	0xba815c6d	-0.0009869464
12	0x3c2113ea	0.009831408
13	0x3b083ca0	0.0020788088
14	0x3929c3cc	0.00016190036
15	0xbb33cf1d	-0.0027436682
16	0x3b1b809b	0.0023727778
17	0x3b84458f	0.0040366123
18	0xbafb44e3	-0.001917031
19	0xbad35563	-0.001612347
20	0x3b089699	0.0020841716
21	0x393bd5f0	0.00017913408
22	0xba5afd55	-0.00083537895
23	0xb9ca8adf	-0.0003863191

states_normalizer.running_mean f4 [24]
0	0xc0c14fd8	-6.0409966
1	0xbf412d9d	-0.75460225
2	0x40bca859	5.8955503
3	0xbe37b038	-0.17938316
4	0x3cb10880	0.021610498
5	0x4022300c	2.5341825
6	0x40bca859	5.8955503
7	0xbe37b038	-0.17938316
8	0xc0c30938	-6.0948753
9	0xbf40dbd2	-0.7533542
10	0x40a3b501	5.115845
11	0xbd968d44	-0.07351163
12	0x3d24ddec	0.040250704
13	0x402201a3	2.53135
14	0x40a3b501	5.115845
15	0xbd968d44	-0.07351163
16	0xc0c430a0	-6.1309357
17	0xbf40e3e0	-0.7534771
18	0x40b14efd	5.540892
19	0xbd3a0976	-0.04541918
20	0x3d9add15	0.07561699
21	0x4022f13f	2.5459745
22	0x40b14efd	5.540892
23	0xbd3a0976	-0.04541918

states_normalizer.running_var f4 [24]
0	0x418104c5	16.127329
1	0x3f906d5e	1.1283376
2	0x43bf71fa	382.89044
3	0x4143fc3d	12.249082
4	0x41e14950	28.160797
5	0x40509cd7	3.2595727
6	0x43bf71fa	382.89044
7	0x4143fc3d	12.249082
8	0x41811619	16.13579
9	0x3f907941	1.1287004
10	0x43c26acf	388.83444
11	0x41402cfb	12.010982
12	0x41e4f976	28.621807
13	0x4052e321	3.2951128
14	0x43c26acf	388.83444
15	0x41402cfb	12.010982
16	0x4183835f	16.439146
17	0x3f918444	1.1368489
18	0x43c652de	396.6474
19	0x413ec24d	11.922437
20	0x41e820fb	29.016104
21	0x4050cc16	3.2624564
22	0x43c652de	396.6474
23	0x413ec24d	11.922437

layers.0.weight f4 [512, 24]
0	0xbd55c98e	-0.05219417
1	0xbd4652ba	-0.048418738
2	0xbdfda7af	-0.12385499
3	0xbdd985c7	-0.10621219
4	0x3d56165f	0.05226743
5	0x3d8c53c0	0.068519115
6	0xbe37e2c4	-0.17957598
7	0xb9f8c3e5	-0.000474482
8	0xbd8b89a4	-0.06813362
9	0x3e4a82ff	0.19776534
10	0x3cba8784	0.022769697
11	0xbd305614	-0.04305084
12	0x3c879a71	0.016553136
13	0x3ce30f4f	0.02771726
14	0x3da7326e	0.081639156
15	0xbcf9da0c	-0.03049948
16	0xbc5e0219	-0.013550305
17	0x3e70eacf	0.23527072
18	0xbd64011d	-0.055665124
19	0x3e75d0ab	0.24005382
20	0xbf2a17ab	-0.66442364
21	0x3e1b3357	0.15156303
22	0xbdf89fa9	-0.12139828
23	0x3e99b56f	0.30021235
24	0xbe4ae9aa	-0.19815698
25	0x3e152fc4	0.14569002
26	0xbd60e792	-0.054908343
27	0x3d8a09f6	0.06740181
28	0xbe3620e0	-0.17785978
29	0xbdb2cf35	-0.08730928
30	0x3cd34d5a	0.02579372
31	0xbdea4ddc	-0.11440632
32	0x3d72cf23	0.059279572
33	0x3c4896b0	0.012242958
34	0x3dad0666	0.08448486
35	0x3d8363d0	0.06415522
36	0xbd997486	-0.07492928
37	0x3d3cc0ba	0.046082236
38	0x3dacb986	0.08433823
39	0x3d8fd698	0.070233524
40	0x3f056ab0	0.5211592
41	0x3e88243a	0.2659014
42	0xbddd08c3	-0.10792687
43	0x3e9f1e77	0.3107793
44	0x3e3eb2ea	0.18622938
45	0xbe42bd24	-0.19017464
46	0xbce932e7	-0.028466655
47	0x3ea2bd10	0.31784868
48	0x3cc056ea	0.023478944
49	0xbe3938ba	-0.18088046
50	0xbd310622	-0.04321874
51	0xbcb7e221	-0.022446694
52	0x3d98c375	0.074591555
53	0x3d152fd6	0.036422573
54	0xbc92edd7	-0.017935677
55	0xbd930ee2	-0.07180573
56	0xbd424405	-0.04742815
57	0xbe025b59	-0.12730159
58	0xbd7517e9	-0.059837256
59	0xbe48ef9b	-0.19622652
60	0xbd504741	-0.050849203
61	0x3e39dece	0.181514
62	0xbd27f0a2	-0.04100097
63	0xbe7c97c7	-0.24667273
64	0x3c735753	0.014852363
65	0xbf1f2bb8	-0.62176085
66	0xbd63ea2d	-0.05564325
67	0xbf0a2d12	-0.5397502
68	0x3daa3bad	0.083121635
69	0xbe4d6e94	-0.20061713
70	0xbdcbcc92	-0.09951128
71	0xbee9262c	-0.45536935
72	0x3e17fc55	0.14842351
73	0x3db1375f	0.08653139
74	0xbd12565d	-0.035726894
75	0x3dbbabc6	0.091636226
76	0xbd99dcf6	-0.07512848
77	0xbe14e251	-0.14539458
78	0x3ce810dc	0.028328352
79	0xbe17218c	-0.14758891
80	0x3f19020e	0.5976876
81	0xbd34dc89	-0.04415563
82	0x3d0b300f	0.03398138
83	0x3dbf076d	0.09327588
84	0x3c23385f	0.00996217
85	0xbda47491	-0.08030046
86	0x3cce69f1	0.025197001
87	0x3df47d4c	0.11937961
88	0x3ecd676e	0.40117973
89	0x3d4cd430	0.050007045
90	0x3d0630c7	0.03276136
91	0xbb9ed34a	-0.004846965
92	0xbede872b	-0.434625
93	0x3d9aade9	0.07552702
94	0x3dd8674e	0.10566579
95	0xbd3367d4	-0.04380019
96	0xbcc2c4a3	-0.023775404
97	0x3e318790	0.17336869
98	0xbc99ac39	-0.01875888
99	0x3db4bdf2	0.08825292
100	0xbdbee429	-0.09320862
101	0xbc5f32e8	-0.013622977
102	0xbdcad7f8	-0.09904474
103	0x3dd51b15	0.10405556
104	0x3e0de88b	0.1385824
105	0xbd70a961	-0.058755282
106	0xbd6ba1cf	-0.05752736
107	0xbdebe779	-0.11518759
108	0x3e540f82	0.20709041
109	0x3da893b1	0.08231295
110	0xbaf779fe	-0.0018880961
111	0xbdc3d9eb	-0.09563049
112	0x3e8b48bf	0.27203938
113	0x3e584573	0.21120243
114	0x3d05f359	0.032702778
115	0x3e4c27ba	0.1993703
116	0xbe9a652a	-0.30155307
117	0xbe7b0e80	-0.2451725
118	0x3d916f9a	0.071013644
119	0x3e5462d6	0.20740828
120	0xbd87ef3a	-0.06637426
121	0xbda94597	-0.08265226
122	0xbd182650	-0.037145913
123	0xbcbf4192	-0.023346696
124	0xbe935ba9	-0.2878087
125	0xbe45438f	-0.19264053
126	0x3c1ea4f7	0.009682885
127	0xbd1593c0	-0.03651786
128	0xbbe4b428	-0.006979484
129	0xbc43f1ad	-0.011959475
130	0xbdadfec5	-0.08495859
131	0xbd278e3b	-0.040907126
132	0xbe8181c7	-0.25294325
133	0x3dbca47f	0.09211063
134	0xbd5b808d	-0.053589392
135	0xbd07f19d	-0.033189405
136	0x3d83a7ed	0.06428514
137	0x3d33727d	0.043810356
138	0xbdba2287	-0.09088617
139	0xbc65c2c9	-0.014023491
140	0x3eb0f880	0.3456459
141	0x3dc36655	0.09541003
142	0xbd03f53b	-0.032216292
143	0xbca71f00	-0.020400524
144	0xbccafbf8	-0.024778351
145	0xbc8a6965	-0.01689596
146	0x3d02d9fc	0.031946167
147	0x3c60816b	0.013702731
148	0xbdbbbe31	-0.091671355
149	0xbe43bcff	-0.19115065
150	0xbac1aed8	-0.0014776839
151	0x3b6e730d	0.0036384494
152	0xbdac0749	-0.08399827
153	0x3e02bf88	0.12768376
154	0x3d0fea77	0.035135712
155	0xbd243d41	-0.04009748
156	0xbd486b92	-0.048930712
157	0xbde5f688	-0.11228663
158	0x3dcab5b7	0.098979406
159	0xbcf486d0	-0.02984944
160	0x3e10f65d	0.1415648
161	0x3e8747fe	0.26422113
162	0x3defb8d4	0.11705175
163	0x3ec5ec2b	0.38656744
164	0xbe0d2e8d	-0.13787289
165	0x3ebaf3d9	0.36514166
166	0x3e696600	0.22792816
167	0x3ecaf8b6	0.39642876
168	0x3ebb46c3	0.36577424
169	0xbe7c8aeb	-0.24662368
170	0xbebb503d	-0.36584654
171	0x3f30e077	0.69092506
172	0x3e122883	0.14273266
173	0xbe7cf4f8	-0.24702823
174	0xbe8086be	-0.251028
175	0x3e135968	0.14389575
176	0x3d5aafb2	0.053390212
177	0xbcc963ae	-0.024583664
178	0xbdacd20d	-0.084385015
179	0x3e2e9b36	0.17051396
180	0x3dc101a0	0.09424138
181	0xbdb150ad	-0.08657966
182	0xbde84ae1	-0.11342407
183	0x3ea9636d	0.33083668
184	0xbdaefc61	-0.08544231
185	0xbdfb87cc	-0.122817606
186	0x3e5bcf7b	0.21465866
187	0x3e4e82df	0.20167111
188	0xbdc45072	-0.09585656
189	0x3790969e	1.7236274e-05
190	0x3ea6d53c	0.3258456
191	0x3e4f573e	0.20248124
192	0x3c8aab08	0.016927257
193	0xbdb1070a	-0.08643921
194	0xbdee0f95	-0.11624066
195	0xbe58e814	-0.21182281
196	0x3e00c444	0.1257487
197	0xbb4ec35b	-0.0031549546
198	0xbd8c7ca9	-0.068597145
199	0x3d70f6de	0.05882918
200	0x3e37a2a6	0.17933139
201	0x3c3a7d6a	0.01138244
202	0x3be1bcd9	0.0068889675
203	0x3db9fccb	0.090814196
204	0x3e53e95c	0.20694488
205	0x3d08c009	0.033386264
206	0x3d25bfe5	0.040466208
207	0xbc624b62	-0.013811918
208	0x3ea60869	0.3242829
209	0x3d535456	0.0515941
210	0xbd345209	-0.044023547
211	0xbcd9f304	-0.026605137
212	0xbf369baa	-0.71331275
213	0x3d7989f7	0.06092259
214	0xbd0ebde9	-0.03484908
215	0x3c98b3b6	0.01864038
216	0x3ca0630c	0.01957848
217	0x3cd8478a	0.0264013
218	0x3ba6207c	0.0050697904
219	0xbc98c2ce	-0.018647578
220	0xbecfa540	-0.40555763
221	0xbdace29b	-0.08441659
222	0x3c5315d5	0.012883623
223	0x3c9e5463	0.019327348
224	0x3cdad887	0.026714576
225	0x3d4e700f	0.050399836
226	0x3d3f2d6d	0.04667418
227	0x3c3874f0	0.011258349
228	0x3e58f0bb	0.21185581
229	0xbdb73569	-0.08945734
230	0xba363f7d	-0.00069522095
231	0xbc808522	-0.015688483
232	0xbccccf9d	-0.025001341
233	0xbcea21b1	-0.028580518
234	0xbd7a1834	-0.06105824
235	0x3c55ebda	0.01305672
236	0x3ed8b0af	0.423223
237	0x3e15fa3e	0.14646241
238	0x3cdb00be	0.026733752
239	0xbbfbce48	-0.0076845028
240	0x3d9ffa15	0.07811371
241	0x3d74f3a2	0.05980266
242	0x3cb2b0ed	0.02181288
243	0xbc1ca049	-0.009559699
244	0x3e78ce90	0.24297547
245	0xbe5f0fb3	-0.21783333
246	0xbd40eab1	-0.04709882
247	0x3c445778	0.011983745
248	0xbde91946	-0.11381774
249	0x3df2237c	0.11823174
250	0x3d42d662	0.047567733
251	0xbe411685	-0.18856247
252	0x3e3bbc26	0.18333492
253	0x3e81c3c9	0.25344685
254	0x3cd4fda4	0.025999852
255	0xbe3aac02	-0.18229678

layers.0.bias f4 [512]
0	0x3e37ef37	0.17962347
1	0x3e014c81	0.1262684
2	0x3d118e40	0.03553605
3	0x3e2ddf6a	0.16979757
4	0x3e3b81f5	0.18311293
5	0xbcd84cce	-0.02640381
6	0xbe4c34de	-0.19942042
7	0x3ce4c1a2	0.027924363
8	0x3d9630b0	0.07333505
9	0x3d2c295b	0.042031627
10	0x3c184ab5	0.009295155
11	0x3e33aadc	0.17545646
12	0x3e096904	0.13418967
13	0x3d2bad31	0.041913215
14	0x3c2c6319	0.010521674
15	0x3dc97254	0.098362595
16	0xbe4dee6a	-0.20110479
17	0xbe1714c6	-0.14754018
18	0x3e450721	0.19241
19	0x3dab2e17	0.083584
20	0x3d907799	0.070540614
21	0x3c260aa3	0.010134372
22	0xbd1519cd	-0.03640156
23	0x3d3f4915	0.046700556
24	0x3e24aa6c	0.16080636
25	0xbdb633eb	-0.08896621
26	0x3d10d569	0.035359774
27	0xbe2dffe9	-0.16992153
28	0xbde52985	-0.1118956
29	0xbd3e47a8	-0.046455055
30	0x3d0ba63e	0.034094088
31	0xbdfcaa45	-0.12337164
32	0x3e1420f3	0.14465694
33	0x3e27e664	0.16396481
34	0x3e0bd8eb	0.13656966
35	0x3d1594dc	0.036518916
36	0xbd2ea926	-0.04264178
37	0x3db459dc	0.08806202
38	0xbdc427b9	-0.09577889
39	0x3d41e282	0.047335155
40	0xbe3dc917	-0.18533741
41	0x3ca237f3	0.01980207
42	0xbd0a3984	-0.033746257
43	0xbe2f6f18	-0.17132223
44	0xbe006903	-0.12540059
45	0x3e3c312e	0.18378136
46	0x3d756f49	0.059920583
47	0x3e05d83c	0.13070768
48	0xbde3b250	-0.11117995
49	0x3e347f6f	0.17626737
50	0xbdee47f4	-0.11634818
51	0xbe4be3c2	-0.19911101
52	0xbddc93fa	-0.10770412
53	0x3dcbcf26	0.0995162
54	0x3dcd049d	0.100106455
55	0x3e1dfaa5	0.15427645
56	0x3d986552	0.074412
57	0xbdb08ad2	-0.08620228
58	0x3d114ea7	0.0354754
59	0x3df6c644	0.12049535
60	0x3e097681	0.13424112
61	0x3e4f96fe	0.20272443
62	0xbdcf83ff	-0.10132598
63	0x3db2a2df	0.087224714
64	0x3de30e4c	0.11086711
65	0x3dccab20	0.09993577
66	0xbd9ee4fa	-0.077585176
67	0x3d4515d4	0.04811652
68	0x3c2afaed	0.010435802
69	0x3e4728fa	0.19449225
70	0xbd96c46f	-0.073616855
71	0xbe31e2b9	-0.17371644
72	0x3c3f8612	0.01168968
73	0x3dcf0344	0.10108045
74	0xb99e2e6c	-0.00030170695
75	0x3e3447bc	0.1760549
76	0x3d2c6d2c	0.042096302
77	0xbd0f01d4	-0.034913853
78	0xbd84cf88	-0.06484896
79	0x3d5300c7	0.051514413
80	0xbe3d8a9f	-0.18509911
81	0xbc024ab8	-0.007952385
82	0xbe07c09b	-0.13257067
83	0x3d9f384b	0.07774409
84	0x3de5109c	0.111848086
85	0x3dec4e13	0.11538329
86	0xbdebf7c0	-0.11521864
87	0xbe1eb8ae	-0.15500137
88	0xbd9ed209	-0.07754905
89	0x3e38a09a	0.18030015
90	0x3e2bcce4	0.16777378
91	0x3da98f2e	0.082792625
92	0x3e4971ee	0.19672367
93	0x3d9e084f	0.077164285
94	0x3d17ec76	0.03709074
95	0xbda69329	-0.08133537
96	0x3d1c429b	0.038149457
97	0x3be9e2fc	0.0071376543
98	0x3c07c816	0.00828745
99	0xbd382c7f	-0.04496431
100	0xbdbda868	-0.092606366
101	0xbb8f8219	-0.0043795225
102	0xbe26610d	-0.1624796
103	0x3e0f9726	0.14022502
104	0x3e30c355	0.17262013
105	0xbdc2cd13	-0.09511771
106	0x3b256dae	0.0025242376
107	0x3e4dce6f	0.2009828
108	0x3e3aa89c	0.18228382
109	0x3dfea60a	0.12434013
110	0xbdf00fcc	-0.11721763
111	0x3de01068	0.10940629
112	0x3e48675c	0.19570678
113	0x3ce2e5a3	0.02769739
114	0x3db28b55	0.08717982
115	0x3ae5de5b	0.001753758
116	0xbcb39a4e	-0.021924164
117	0x3e204bdd	0.1565394
118	0x3d855902	0.065111175
119	0xbe4bab91	-0.19889666
120	0x3b8dd84f	0.0043287645
121	0x3e181af3	0.1485403
122	0xbced3dc5	-0.028960118
123	0xbe3fd3c9	-0.18733133
124	0x3d75f237	0.060045447
125	0xbe3d3250	-0.18476224
126	0xbe1f9e9c	-0.15587848
127	0xbdaa54d5	-0.08316962
128	0xbe3f17aa	-0.18661371
129	0x3dbb1846	0.09135489
130	0x3e009f0c	0.12560672
131	0xbd455aa0	-0.04818213
132	0x3e3398ae	0.17538711
133	0xbd97d64a	-0.07413919
134	0x3dc9745f	0.09836649
135	0xbe36835c	-0.17823547
136	0x3df42869	0.1192177
137	0xbd9603c2	-0.073249355
138	0xbd91ca55	-0.0711867
139	0xbdec5d3d	-0.11541221
140	0xbe129ca8	-0.14317572
141	0x3dd8c990	0.1058532
142	0x3e204138	0.15649879
143	0x3c2255a8	0.009908117
144	0xbd97a74e	-0.07404958
145	0x3e023228	0.12714446
146	0x3d82c460	0.06385112
147	0x3e158c17	0.14604221
148	0x3d0e7494	0.034779146
149	0xbd4fcd6f	-0.050733026
150	0xbe1add59	-0.151235
151	0xbe4fe207	-0.20301066
152	0x3cde2cc2	0.027120952
153	0xbe3690e9	-0.17828716
154	0x3d35ebdc	0.044414386
155	0x3e38d88d	0.18051358
156	0xbc7d0408	-0.015442856
157	0xbd87b5ac	-0.06626448
158	0x3dc3a28d	0.095524885
159	0x3e459dd7	0.19298492
160	0x3e28b307	0.16474544
161	0x3dfe5473	0.12418451
162	0xbe2f312d	-0.17108603
163	0xbda69eb9	-0.08135743
164	0xbe490fcb	-0.19634931
165	0xbc9219c4	-0.017834552
166	0xbcd0dc12	-0.025495563
167	0xbe0dae55	-0.13836034
168	0x3da1b97d	0.07896707
169	0x3e13adc8	0.14421761
170	0x3e1428bf	0.14468668
171	0x3d9129ee	0.070880756
172	0x3d3c7701	0.04601193
173	0xbd20b58b	-0.039235633
174	0xbd8e2d88	-0.06942278
175	0x3e38fa0e	0.18064138
176	0xbe0df1c7	-0.13861762
177	0x3bf718f3	0.007540816
178	0xbe4a11d0	-0.19733357
179	0xbe1ca130	-0.15295863
180	0xbd8b354a	-0.067972735
181	0x3e026950	0.12735486
182	0x3deff800	0.11717224
183	0xbddbc14f	-0.1073023
184	0x3d320716	0.04346379
185	0x3c533ad8	0.012892447
186	0x3d8f91cc	0.070102304
187	0x3e2bcf82	0.16778377
188	0x3e50586b	0.20346229
189	0x3cafacb7	0.021444662
190	0x3d0aa697	0.03385028
191	0xbc6991fd	-0.014255998
192	0xbe4fda46	-0.20298108
193	0x3ca2e581	0.019884827
194	0xbd666caa	-0.056255974
195	0x3c8a6b60	0.016896904
196	0x3e37efba	0.17962542
197	0xbd916dc2	-0.07101013
198	0x3e0301ad	0.12793608
199	0xbe333a9d	-0.17502828
200	0x3def22f5	0.116765894
201	0xbc882807	-0.016620649
202	0xbce7f50d	-0.028315092
203	0xbdaaee3b	-0.0834622
204	0xbd8d7847	-0.06907707
205	0x3d29fb2a	0.041499294
206	0xbe034a91	-0.12821414
207	0x3e0b1248	0.13581192
208	0x3e4500d5	0.19238599
209	0x3e0c7e76	0.13720116
210	0xbd975bd3	-0.07390561
211	0x3e1d1a8f	0.15342163
212	0x3e46a3c9	0.19398417
213	0x3e1f5211	0.1555865
214	0xbe29f906	-0.16598901
215	0xbe16b393	-0.1471694
216	0x3c547d0a	0.012969265
217	0xbe2905dc	-0.16506141
218	0x3dc62287	0.09674554
219	0x3d8b1144	0.067904025
220	0xbbee0957	-0.007264297
221	0xbe21bde1	-0.1579509
222	0x3dda07b2	0.10645999
223	0xbbed8c0a	-0.00724936
224	0x3e12fd5a	0.14354458
225	0xbe29f667	-0.16597901
226	0xbddf9179	-0.109164186
227	0xbe412d2a	-0.18864885
228	0x3e420fd4	0.1895135
229	0x3dfe3ac7	0.12413555
230	0xbd7b4e9c	-0.061354265
231	0x3da5150e	0.080606565
232	0x3e3cd87f	0.18441962
233	0x3d565463	0.05232657
234	0x3e3cd246	0.18439588
235	0xbdd98749	-0.10621507
236	0xbc99194c	-0.01868882
237	0x3d95da82	0.07317068
238	0x3dff2de4	0.12459925
239	0x3a1c8ca1	0.0005971883
240	0x3dce1d93	0.100642346
241	0x3d14c774	0.036323026
242	0x3e2dbac0	0.1696577
243	0xbe2e9b19	-0.17051353
244	0xbe09b89c	-0.13449329
245	0x3e4aadf0	0.19792914
246	0x3cf0a96b	0.02937766
247	0xbdbb35fb	-0.09141155
248	0xbe1325f5	-0.14369948
249	0x3e4c81ef	0.1997144
250	0xbe18b001	-0.1491089
251	0xbe14c8e4	-0.14529759
252	0x3d3ab850	0.04558593
253	0x3dab9b09	0.0837918
254	0x3daa1d43	0.083063625
255	0xbe3e00cb	-0.1855499

layers.1.weight f4 [256, 514]
0	0xbdb4eca7	-0.088342
1	0xbd51b2eb	-0.05119602
2	0x3e3c2481	0.183733
3	0x3d809469	0.06278307
4	0xbf895b2d	-1.073095
5	0xbe599950	-0.2124989
6	0x3d3a2219	0.045442674
7	0x3e0c76e5	0.1371723
8	0x3daeca09	0.08534629
9	0xbdc83e96	-0.09777562
10	0xbdfeafde	-0.12435888
11	0xbc2aefbc	-0.010433134
12	0xbd5a366c	-0.053274557
13	0x3dc9ef55	0.09860102
14	0xbe8714f3	-0.2638317
15	0xbd155784	-0.036460415
16	0xbefc38fd	-0.4926223
17	0xbd90d44a	-0.07071741
18	0xbf7ae724	-0.9800894
19	0x3e488d85	0.19585235
20	0x3e44b140	0.1920824
21	0x3e25f124	0.16205269
22	0xbd7293ff	-0.05922317
23	0x3e0525cc	0.130027
24	0xbcf9ed4f	-0.030508665
25	0xbe75f0bc	-0.24017614
26	0x3e9f93b5	0.3116738
27	0xbe43612d	-0.19080038
28	0x3cacdbd6	0.02110092
29	0xbf062018	-0.5239272
30	0xbdb7b88d	-0.08970747
31	0xbdb3bcd5	-0.08776251
32	0x3ddbcf6e	0.107329234
33	0x3cf15a26	0.029461931
34	0xbe340b3d	-0.17582412
35	0xbe198586	-0.14992341
36	0x3d3a6007	0.045501735
37	0xbe68f0ed	-0.22748156
38	0xbe923503	-0.2855607
39	0x3e05c3de	0.13062999
40	0xbd158985	-0.036508102
41	0xbd754b29	-0.05988613
42	0xbe822635	-0.25419775
43	0x3dbb6662	0.09150387
44	0xbf0f722d	-0.56033593
45	0xbe2f3a6e	-0.17112133
46	0xbb4b3001	-0.0031003954
47	0x3a52a95f	0.00080361025
48	0xbea8c744	-0.32964528
49	0xbf64fbd3	-0.89446753
50	0x3d2e0814	0.042488173
51	0xbcf49525	-0.029856274
52	0xbd3460de	-0.044037692
53	0xbd9808ea	-0.07423575
54	0xbc34dc0f	-0.011038794
55	0xbda332ea	-0.079686955
56	0xbe515672	-0.20443133
57	0xbe30196f	-0.17197202
58	0xbdcaa5bf	-0.09894895
59	0xbb9a95cc	-0.004717564
60	0xbeff3df1	-0.49851945
61	0xbdecb573	-0.11558046
62	0xbe1bb4c8	-0.15205681
63	0xbe30ba83	-0.17258649
64	0xbe147470	-0.14497542
65	0xbde0c0ea	-0.109742954
66	0x3e8b6499	0.27225187
67	0xbe8bffd9	-0.27343634
68	0x3ea4d737	0.32195446
69	0xbe447673	-0.1918581
70	0x3e17992c	0.14804524
71	0x3d211ddb	0.039335113
72	0xbec892d3	-0.39174518
73	0x3ea0d5d1	0.3141313
74	0x3c106f67	0.008815623
75	0x3ed8390d	0.42231026
76	0x3e180b1b	0.14847986
77	0xbddad52d	-0.10685191
78	0x3da54a92	0.08070864
79	0xbce0c6f6	-0.027438622
80	0xbd2ff74b	-0.042960446
81	0xbc55f49e	-0.01305881
82	0x3e1a410f	0.1506388
83	0x3e5c390d	0.21506138
84	0xbf6bf28a	-0.9216696
85	0xbecac959	-0.3960674
86	0xbdd4916f	-0.10379302
87	0xbe840d54	-0.2579142
88	0xbd69c31b	-0.057070833
89	0x3df12e3a	0.11776395
90	0xbd44bb10	-0.04802996
91	0x3d75ecb0	0.060040176
92	0xbd405138	-0.046952456
93	0x3e09d5e1	0.13460495
94	0x3d70a5db	0.058751922
95	0xbe169adc	-0.14707512
96	0x3dc2dcb1	0.0951475
97	0x3dc4fb58	0.096182525
98	0xbdd77024	-0.10519436
99	0xbe84b030	-0.2591567
100	0xbeabf4db	-0.33585247
101	0x3e07271b	0.13198511
102	0x3e251062	0.16119531
103	0xbca5ce88	-0.020240083
104	0xbe133d42	-0.14378837
105	0x3dca4876	0.09877102
106	0xbb76531a	-0.0037586153
107	0x3d8e9a14	0.06962982
108	0x3e88b8eb	0.2670358
109	0x3d4b543b	0.049640875
110	0x3e5acf9d	0.2136826
111	0xbeb76df8	-0.35826087
112	0xbe58e45b	-0.2118086
113	0x3e4035f6	0.18770584
114	0x3d273563	0.040822398
115	0xbe882a37	-0.26594707
116	0x3e0f6d5f	0.14006566
117	0x3db957cc	0.09049949
118	0x3b0c228c	0.0021382896
119	0x3e6d7ee3	0.23192935
120	0xbd7fa8ac	-0.062416717
121	0xbbcf3c54	-0.0063243303
122	0xbe33d352	-0.17561081
123	0x3d69dffa	0.057098366
124	0x3e24289c	0.16031116
125	0x3d5c0cbe	0.05372309
126	0xbe28d05f	-0.16485737
127	0xbdeb990b	-0.115038
128	0xbddbf547	-0.10740142
129	0x3d8eef78	0.06979269
130	0xbda071bf	-0.07834195
131	0xbe41c38e	-0.18922254
132	0x3e838ca4	0.25693238
133	0x3dec304f	0.11532652
134	0xbdeb15d5	-0.114787735
135	0xbf36f502	-0.714676
136	0xbd87eb17	-0.06636637
137	0xbca5c686	-0.020236265
138	0xbd102c11	-0.035198275
139	0x3cb05fde	0.021530088
140	0xbcf55fd8	-0.029952928
141	0x3d55d5b5	0.05220576
142	0x3e447e09	0.19188704
143	0xbdcd7ffd	-0.100341775
144	0xbf359c81	-0.7094193
145	0xbe83b6b1	-0.2572532
146	0x3e0db916	0.13840136
147	0xbc044663	-0.008073422
148	0x3d3be54d	0.045872975
149	0xbcd7f493	-0.02636174
150	0x3e2fcb6f	0.17167448
151	0xbdd3ac6c	-0.10335621
152	0x3e73c2de	0.23804805
153	0xbcd95463	-0.026529497
154	0xbe11c495	-0.14235146
155	0xbd649335	-0.05580445
156	0xbe9028af	-0.2815604
157	0xbe9aede0	-0.3025961
158	0xbe6c76ce	-0.23092195
159	0xbee5493f	-0.44782445
160	0x3d1e0367	0.038577463
161	0x3e32617f	0.17420004
162	0xbc9b11ae	-0.018929329
163	0xbe075db9	-0.13219346
164	0x3e18cf63	0.14922862
165	0xbba3d7ed	-0.0050001056
166	0x3c12ce71	0.008960352
167	0xbd8715e6	-0.06595974
168	0xbe61ed37	-0.22063147
169	0x3e52399a	0.20529786
170	0x3e7df3c6	0.24800023
171	0x3c8fbc98	0.017545983
172	0xbcf366ab	-0.029712042
173	0xbf324f25	-0.69652015
174	0xbd69c392	-0.057071276
175	0xbe5f67f7	-0.21817003
176	0xbe171183	-0.14752774
177	0xbe07db10	-0.1326716
178	0x3c4085ab	0.011750619
179	0xbd77c7f9	-0.060493443
180	0xbe3f7e64	-0.18700558
181	0x3e8d5eaf	0.276113
182	0xbd9a8fd3	-0.075469635
183	0x3e3cdc09	0.18443312
184	0x3d9ba17d	0.07599161
185	0xbedc4905	-0.4302446
186	0xbdafd21c	-0.08584997
187	0x3d92b45a	0.071633056
188	0x3e48adec	0.19597596
189	0x3deb3859	0.11485357
190	0xbe5398a8	-0.20663702
191	0xbedd50d8	-0.4322574
192	0x3d43f100	0.047837257
193	0x3cd48a75	0.025944928
194	0xbe3fb258	-0.18720376
195	0x3de44493	0.11145892
196	0x3d2707e6	0.040779017
197	0x3cf4fffe	0.029907223
198	0xbedacf8e	-0.42736477
199	0xbde77268	-0.11301118
200	0xbdb2231e	-0.08698104
201	0x3dc74b0f	0.09731113
202	0x3d8b350b	0.067972265
203	0x3c6635b0	0.014050886
204	0x3d659654	0.056051567
205	0x3dda51d3	0.10660138
206	0xbe5edba8	-0.2176348
207	0xbf044425	-0.5166648
208	0xbde0449d	-0.10950587
209	0x3c2f745c	0.010708895
210	0xbd4d6c8c	-0.050152346
211	0x3f35bd96	0.7099241
212	0xbe41b44e	-0.18916437
213	0xbd55d3ed	-0.05220406
214	0x3ce9c4f1	0.028536292
215	0x3cf64f69	0.030067163
216	0xbe14bd4b	-0.14525335
217	0xbc003a05	-0.007826333
218	0x3dba9383	0.09110167
219	0xbdbf1fef	-0.09332263
220	0x3c11ab3f	0.008890926
221	0xbe0bd775	-0.13656409
222	0xbd9f2993	-0.077716015
223	0xbd189553	-0.03725178
224	0x3cf30c81	0.029669048
225	0xbe75eb83	-0.24015622
226	0xbd3ed047	-0.046585348
227	0xbe8d3847	-0.27582
228	0x3b6d295d	0.0036187985
229	0xbcb21559	-0.021738695
230	0x3e31765d	0.17330308
231	0xbd4e3f10	-0.05035311
232	0xbeaf6434	-0.34256136
233	0xbf2a7ad9	-0.665937
234	0xbd80a6a9	-0.06281788
235	0xbf13be1a	-0.57711947
236	0x3e63ff27	0.22265302
237	0xbb995386	-0.004679146
238	0x3e0182e2	0.12647584
239	0xbe93a753	-0.28838596
240	0x3e3138c7	0.17306815
241	0xbef7b63c	-0.4838122
242	0xbe550b80	-0.20805168
243	0x3d18faec	0.037348673
244	0xbd7d0452	-0.0617717
245	0xbde195b5	-0.110148825
246	0x3be1ed79	0.006894764
247	0xbd323562	-0.04350794
248	0x3e60d540	0.21956348
249	0xbecc3eed	-0.3989176
250	0x3dbd1cb6	0.09233992
251	0x3df515d0	0.11967051
252	0x3b28d88d	0.002576384
253	0xbdcfc6e7	-0.101453595
254	0x3e8d9d58	0.27659106
255	0x3c9686eb	0.01837488

layers.1.bias f4 [256]
0	0x3e06e6f4	0.13174039
1	0x3e054bc3	0.13017182
2	0x3da9e409	0.082954474
3	0xbe25cf1b	-0.16192286
4	0x3e10c837	0.14138876
5	0xbeae9ba3	-0.34103116
6	0x3c147e99	0.009063386
7	0xbd851bea	-0.06499465
8	0xbe6a5880	-0.22885323
9	0xbdf0bed4	-0.117551476
10	0xbd6a81fa	-0.05725286
11	0xbc390ba6	-0.011294281
12	0xbcb2ac13	-0.021810567
13	0xbee54c7a	-0.4478491
14	0xbd907892	-0.07054247
15	0xbccab245	-0.024743209
16	0xbe1696ab	-0.14705913
17	0x3df223a5	0.11823205
18	0xbb778671	-0.0037769342
19	0x3dbfbe9e	0.09362529
20	0x3d2014e1	0.03908241
21	0x3d5635e7	0.0522975
22	0xbd4b5938	-0.049645633
23	0x3e300623	0.17189841
24	0xbc40debf	-0.011771857
25	0xbe2b529d	-0.16730733
26	0xbd34c2da	-0.044131137
27	0x3c1801eb	0.009277801
28	0x3e52dc94	0.20591956
29	0xbe30f105	-0.17279442
30	0xbd8660e6	-0.06561451
31	0xbd993343	-0.074804805
32	0x3d553820	0.052055478
33	0x3df54735	0.11976472
34	0xbe0cfd3c	-0.13768476
35	0xbe26b784	-0.16280943
36	0x3e496763	0.19668345
37	0xbe48986c	-0.19589394
38	0x3e51d957	0.20493065
39	0xbdf266ec	-0.11836037
40	0xbd53b92c	-0.051690266
41	0xbded61fc	-0.11590955
42	0xbdf07d77	-0.117426805
43	0x3e4c57c0	0.19955349
44	0x3dfce519	0.123483844
45	0xbda87b8a	-0.08226688
46	0xbcd35f83	-0.02580238
47	0xbd8fd8cb	-0.07023772
48	0x3d4ba5a6	0.04971852
49	0xbdfed98e	-0.12443839
50	0xbe40d224	-0.18830162
51	0xbd9cba93	-0.07652774
52	0x3df5886a	0.119889095
53	0xbdb25a14	-0.08708587
54	0x3bd5ef3c	0.006528763
55	0xbcbd5ce4	-0.023115583
56	0x3d08e15d	0.03341805
57	0xbcc4124b	-0.023934504
58	0xbcd6636b	-0.026170453
59	0x3c568f59	0.0130957
60	0xba997bac	-0.0011709831
61	0xbce9d0ea	-0.028542
62	0x3e2c50ff	0.16827773
63	0xbd1a5580	-0.037679195
64	0xbe1156c9	-0.14193262
65	0xbe02285a	-0.12710705
66	0xbd9ad385	-0.075598754
67	0x3e51d251	0.20490386
68	0x3def014d	0.1167017
69	0xbd9c40d6	-0.07629554
70	0x3cc4c4f7	0.024019701
71	0xbd2db5ed	-0.042409826
72	0xbe08be8d	-0.1335394
73	0x3bfee2b9	0.0077784923
74	0xbdc7d913	-0.097582005
75	0xbe05337f	-0.13007925
76	0xbeac4f01	-0.33654025
77	0x3de87fb2	0.11352481
78	0xbc92b79e	-0.017909821
79	0x3d09dec2	0.033659704
80	0x3dca7f58	0.0988757
81	0xbd9fa5a2	-0.07795264
82	0x3d5682ee	0.052370958
83	0xbe2ba047	-0.1676036
84	0xbd639e16	-0.055570684
85	0x3d3b88b9	0.045784686
86	0xbdd5b227	-0.104343705
87	0x3db278b3	0.08714428
88	0xbd832df0	-0.06405246
89	0xbe44ad00	-0.1920662
90	0xbda295ed	-0.07938752
91	0xbcc11862	-0.023571197
92	0xbe0b06e1	-0.13576843
93	0xbe337c93	-0.1752799
94	0xbd061602	-0.032735832
95	0x3df0b022	0.11752345
96	0xbeb55d01	-0.3542252
97	0x3ddc5c0f	0.10759746
98	0x3e3ccc8e	0.18437406
99	0x3df5b3f2	0.119972125
100	0x3c5344a3	0.012894782
101	0x3e1f3329	0.1554686
102	0x39ac4203	0.0003285558
103	0xbe2e76a7	-0.1703745
104	0xbe17385b	-0.14767592
105	0xbe24be69	-0.1608826
106	0xbe164f01	-0.14678575
107	0xbe27a3e7	-0.16371118
108	0xbd9bedc7	-0.07613712
109	0xbd338706	-0.04382994
110	0xbd2d8ac4	-0.042368665
111	0x3df89628	0.12138015
112	0xbe6c1319	-0.2305416
113	0x3bba1bb5	0.0056795725
114	0xbd7581e9	-0.059938345
115	0xbe422f57	-0.18963371
116	0xbe36787e	-0.17819402
117	0xbe000dd6	-0.12505278
118	0xbe297e58	-0.16552103
119	0xbdd0f5c6	-0.102031276
120	0xbd86b8a3	-0.065781854
121	0xbe646c72	-0.22306994
122	0xbe2092bf	-0.15680979
123	0xbcd03853	-0.025417482
124	0x3cb8dfc6	0.022567641
125	0xbe123ddb	-0.14281408
126	0xbd59f9bc	-0.05321668
127	0xbdd72e44	-0.10506871
128	0xbe289e5a	-0.16466656
129	0x3d18b317	0.03728017
130	0x3e091a1e	0.13388869
131	0x3c76229e	0.015022902
132	0xbdff52ed	-0.12466989
133	0xbd4bfb3d	-0.049800146
134	0x3de68cb8	0.11257309
135	0xbd222822	-0.039589055
136	0xbc4afd86	-0.012389546
137	0x3d84b194	0.06479183
138	0xbdd8d45f	-0.105873816
139	0xbd759a18	-0.05996141
140	0x3d88ad7c	0.066737145
141	0xbd1b5a3f	-0.037927862
142	0xbd854efa	-0.06509204
143	0xbe75e2b1	-0.24012257
144	0xbe8a4671	-0.27006868
145	0xbd9f91c4	-0.077914745
146	0x3dd6fb65	0.104971685
147	0xbdfce420	-0.12348199
148	0xbee92c8d	-0.45541802
149	0x3e1c50f3	0.15265255
150	0x3daf16c5	0.08549265
151	0xbb8d812d	-0.0043183775
152	0x3d467156	0.04844793
153	0x3de421ff	0.11139297
154	0xbd807137	-0.06271594
155	0x3dee2c80	0.116295815
156	0xbe339c8c	-0.17540187
157	0xbe5d2d99	-0.21599425
158	0xbe80d8e3	-0.2516547
159	0xbc9a827b	-0.018861046
160	0x3c844b56	0.016149204
161	0x3e273345	0.16328152
162	0xbe665a7a	-0.22495452
163	0x3c0f8923	0.008760723
164	0xbcaf090d	-0.02136662
165	0x3cc12af5	0.023580054
166	0x3e38adfb	0.18035118
167	0x3e137c78	0.1440295
168	0xbd7d8e14	-0.061903074
169	0x3e0e3690	0.13888001
170	0xbe308698	-0.17238843
171	0x3d745a97	0.059656706
172	0x3b08023a	0.002075328
173	0x3dabcb7c	0.08388421
174	0x3e1e4236	0.15454945
175	0x3e5f5b47	0.21812163
176	0xbe60cf48	-0.21954072
177	0xbe19d06b	-0.15020911
178	0xbd35b1b2	-0.044358917
179	0x3bb215fb	0.005434749
180	0xbe554100	-0.20825577
181	0x3d543032	0.051803775
182	0xbc2b979b	-0.010473157
183	0xbe111b50	-0.14170575
184	0xbd586b2d	-0.052836586
185	0xbe2f82e6	-0.17139778
186	0xbe3bba7a	-0.18332854
187	0xbe24c68a	-0.16091362
188	0x3dd13582	0.10215284
189	0x3e6e1c0f	0.23252891
190	0xbdb9592d	-0.09050212
191	0xbd223280	-0.03959894
192	0x3e5b6643	0.21425728
193	0x3a19c3e1	0.0005865675
194	0xbd43ce07	-0.047803905
195	0x3d600840	0.054695368
196	0x3dd7c8d0	0.10536349
197	0x3e26fda5	0.16307695
198	0xbc20c308	-0.009812124
199	0x3d8ad4e5	0.06778888
200	0x3e4dd2b0	0.20099902
201	0xbd75cf6f	-0.060012277
202	0x3d26bc25	0.040706772
203	0x3c78dad2	0.01518889
204	0x3c9d8461	0.019228162
205	0xbd0b3372	-0.03398461
206	0xbd46a066	-0.04849281
207	0xbbad831c	-0.0052951705
208	0x3e0dd50c	0.13850802
209	0xbe3202c1	-0.17383863
210	0xbd59dc82	-0.05318881
211	0xbdaecc72	-0.085350886
212	0xbd1ad2d4	-0.037798718
213	0xbe43a437	-0.19105612
214	0xbda08f3b	-0.07839819
215	0xbdc4cb8f	-0.09609138
216	0x3e38a41c	0.18031353
217	0x3e05aedf	0.1305499
218	0x3dd3f93e	0.103502735
219	0xbcd9ad52	-0.026571903
220	0xbe43f2d8	-0.19135606
221	0x3dd86405	0.10565952
222	0x3d94352c	0.07236704
223	0xbdbdad41	-0.09261561
224	0xbe1cb718	-0.1530422
225	0x3e524483	0.20533948
226	0xbd5dc09b	-0.05413876
227	0xbd670576	-0.056401692
228	0x3e2a5b5b	0.16636412
229	0xbe2773f6	-0.1635283
230	0x3d1ee05c	0.038788185
231	0x3db485a3	0.08814552
232	0xbdbc69e2	-0.09199883
233	0xbd7969f4	-0.06089206
234	0x3d761f2f	0.060088333
235	0xbe028c56	-0.12748846
236	0x3da35285	0.07974724
237	0xbdc66c31	-0.096886046
238	0xbe5e16bb	-0.21688358
239	0xbd715ff9	-0.058929417
240	0x3d97f6a7	0.07420092
241	0x3df757ad	0.1207727
242	0x3e289e96	0.16466746
243	0xbd181194	-0.03712614
244	0xbe9ac629	-0.3022931
245	0xbcea0dcf	-0.028571038
246	0xbe0076a9	-0.12545265
247	0xbd56540f	-0.05232626
248	0xbde20883	-0.1103678
249	0x3de30c7c	0.110863656
250	0xbdee7699	-0.116437145
251	0x3bd92233	0.0066263913
252	0x3e3d6ff8	0.18499744
253	0xbd531a27	-0.051538613
254	0xbe4ea1d0	-0.20178914
255	0x3dac2c8c	0.08406934

bn.0.weight f4 [512]
0	0x3e2aeba5	0.16691454
1	0x3e7a2b81	0.24430658
2	0x3ecdb237	0.4017503
3	0x3e81a941	0.25324443
4	0x3e0f8d5b	0.14018767
5	0x3f2040cb	0.62598866
6	0x3e95ed0d	0.29282418
7	0x3e8f510e	0.27991527
8	0x3f492991	0.7857905
9	0x3e8a6f39	0.2703798
10	0x3e97aa89	0.29622295
11	0x3f619121	0.88112074
12	0x3e5bccd2	0.21464851
13	0x3e4132ff	0.1886711
14	0x3e52d22b	0.20587985
15	0x3ec58a96	0.38582295
16	0x3e2c1360	0.16804266
17	0x3ed99aab	0.42500815
18	0x3e27a1f7	0.16370378
19	0x3e10e732	0.14150694
20	0x3e543f36	0.20727238
21	0x3d50eca2	0.05100692
22	0x3e827728	0.25481534
23	0x3e61e04b	0.22058217
24	0x3e2b7fa8	0.16747916
25	0x3eb07adc	0.34468734
26	0x3e923968	0.28559422
27	0x3ebad4ad	0.36490384
28	0x3e4df707	0.20113765
29	0x3e460d5e	0.19341037
30	0x3f282d43	0.65694064
31	0x3e415694	0.18880683
32	0x3ea45400	0.32095337
33	0x3e8fe564	0.281047
34	0x3e87f3d8	0.26553226
35	0x3ed37a01	0.4130402
36	0x3e8d0335	0.2754151
37	0x3ddb2363	0.10700109
38	0x3cde3fe9	0.027130084
39	0x3ed198a6	0.40936774
40	0x3ec6c792	0.38824135
41	0x3eb53a22	0.35395914
42	0x3e50c838	0.20388877
43	0x3e71b23d	0.23603149
44	0x3f1cd762	0.6126615
45	0x3ed5e75b	0.41778073
46	0x3e4fdb24	0.2029844
47	0x3eaac36f	0.3335223
48	0x3e8e55a9	0.2779973
49	0x3eb6aa50	0.35676813
50	0x3a26b2f0	0.0006359061
51	0x398c5a50	0.0002677017
52	0x3e9cc38b	0.30617937
53	0x3e1623d4	0.14662105
54	0x3ebd9d14	0.37033904
55	0x3e280fff	0.16412352
56	0x3e8a0171	0.26954225
57	0x3e8c82b0	0.27443457
58	0x3e5f8e85	0.2183171
59	0x3c8a8715	0.016910115
60	0x3e7ad500	0.24495316
61	0x3ec25567	0.37955782
62	0x3ed42531	0.41434625
63	0x3ed137f9	0.40863016
64	0x3e69dc3b	0.22837918
65	0x3e8fa293	0.28053722
66	0x3e4498dc	0.19198936
67	0x3e40e920	0.1883893
68	0x3e96afa4	0.29430878
69	0x3e11c766	0.1423622
70	0x3d68eef7	0.05686852
71	0x3f1df706	0.6170505
72	0x3f0a9b1c	0.5414293
73	0x3e8a098f	0.26960418
74	0x3eb938a7	0.36176035
75	0x3e56c940	0.20975208
76	0x3e460eef	0.19341634
77	0x3e3ca488	0.18422139
78	0x3e32c1da	0.17456761
79	0x3ec7721b	0.38954243
80	0x3ebba86a	0.36651927
81	0x3e917a4e	0.28413624
82	0x3ea1c3ec	0.3159479
83	0x3eadbe67	0.33934328
84	0x3e5fc59b	0.21852724
85	0x3ed41b69	0.41427162
86	0x3e43c3ac	0.19117612
87	0x3e9be08f	0.30444762
88	0x3ed1679a	0.40899354
89	0x3ea52363	0.3225356
90	0x3ebb8fd4	0.3663317
91	0x3e170fe4	0.14752156
92	0x3ad2e6cc	0.0016090511
93	0x3ecd3abc	0.40083873
94	0x3e53bfec	0.20678681
95	0x3e5fc0f2	0.21850947
96	0x3e47cdbf	0.1951208
97	0x3ecbe8c3	0.3982602
98	0x3ebcc984	0.36872494
99	0x3e238d8e	0.15971968
100	0x3e2e81c7	0.17041694
101	0x3e8c111d	0.27356806
102	0x3f067182	0.5251695
103	0x3e697a79	0.22800626
104	0x3e0a57da	0.13510075
105	0x3e1f9453	0.15583925
106	0x3ec19d15	0.37815157
107	0x3ec1e37c	0.3786887
108	0x3eb5ad96	0.35483998
109	0x3f0f483a	0.55969584
110	0x3e79b83c	0.24386686
111	0x3ef4c38d	0.47805443
112	0x3ebe2754	0.3713938
113	0x3eb024d2	0.34403092
114	0x3e60907b	0.21930115
115	0x3eac7094	0.3367964
116	0x3e412356	0.18861136
117	0x3e94ab4d	0.29036942
118	0x3e3fc27e	0.18726537
119	0x3e529a0e	0.2056658
120	0x3ed68171	0.4189563
121	0x3e11c269	0.14234318
122	0x3e83535a	0.2564953
123	0x39804c3a	0.00024470856
124	0x3e716e3d	0.23577209
125	0x3ba9d3d7	0.005182724
126	0x3ee4c932	0.4468475
127	0x3e2388f5	0.15970214
128	0x3eb04941	0.34430888
129	0x3ed011fb	0.40638718
130	0x3eb38012	0.35058647
131	0x3c1e5034	0.009662677
132	0x3e5247c3	0.20535187
133	0x3dcb8654	0.099377304
134	0x3eb11920	0.3458948
135	0x3e4abb62	0.19798043
136	0x3eff6870	0.49884367
137	0x3ec8bbd5	0.39205804
138	0x3e875525	0.26432148
139	0x3e333c75	0.17503531
140	0x3c5206e2	0.012819024
141	0x3e73544b	0.23762624
142	0x3e8965aa	0.26835376
143	0x3e8b5b3a	0.27218038
144	0x3e4e33de	0.20136973
145	0x3ec06393	0.3757597
146	0x3e86fea5	0.26366153
147	0x3e1ad341	0.1511965
148	0x3f0091fc	0.50222754
149	0x3e5fd0de	0.2185702
150	0x3e5cfe47	0.21581374
151	0x3edbc42a	0.429231
152	0x3efd7360	0.49502087
153	0x3e36458e	0.1779997
154	0x3e75d4dd	0.24006982
155	0x3e4c97a9	0.19979729
156	0x3e3a2693	0.18178777
157	0x3e7786ee	0.24172565
158	0x3e4815d0	0.19539571
159	0x3f0afd17	0.54292434
160	0x3e156c79	0.1459216
161	0x3ebd40a7	0.36963388
162	0x3f071525	0.5276664
163	0x3ece022a	0.40236026
164	0x3e3e10a0	0.1856103
165	0x3e7a693e	0.24454209
166	0x3e88f1a2	0.2674685
167	0x3e162862	0.14663842
168	0x3ebbc60c	0.36674535
169	0x3e1f09a5	0.15531023
170	0x3ebbaa75	0.36653486
171	0x3e8cef76	0.27526444
172	0x3e9fcd7f	0.3121147
173	0x3e8edb5c	0.27901733
174	0x3ea7e1be	0.32789415
175	0x3e65e595	0.2245086
176	0x3ee0d2e9	0.43910912
177	0x3eb2a139	0.34888628
178	0x3e8468d8	0.2586124
179	0x3ef5cb5c	0.48006713
180	0x3ecbdd86	0.39817446
181	0x3eaad2a4	0.3336383
182	0x3eadc647	0.33940336
183	0x3ef05fb5	0.4694802
184	0x3e69c445	0.22828777
185	0x3f471317	0.77763504
186	0x3ee8942f	0.45425555
187	0x3e375b19	0.17905845
188	0x3ebb6277	0.3659856
189	0x3e469fd6	0.1939691
190	0x3ec39a41	0.38203624
191	0x3f358ead	0.7092083
192	0x3eacbdda	0.33738595
193	0x3e2dd8bc	0.16977209
194	0x3f078ec8	0.5295224
195	0x3ec7f3d7	0.39053223
196	0x3e120d98	0.14262998
197	0x3e314323	0.17310767
198	0x3e783f38	0.24242866
199	0x3e904627	0.28178522
200	0x3e465ff1	0.19372536
201	0x3eabee8a	0.33580428
202	0x3e72f221	0.23725177
203	0x3e9e13ca	0.30874473
204	0x3e28fc18	0.16502416
205	0x3e26f7e2	0.16305497
206	0x3e5a514a	0.21320072
207	0x3eb64b13	0.35604152
208	0x3ed53c6f	0.4164767
209	0x3e77912d	0.24176474
210	0x3e4675de	0.193809
211	0x3e510cf2	0.20415094
212	0x3f006197	0.5014891
213	0x3ecc7503	0.39933023
214	0x3e986cbc	0.29770458
215	0x3ed2874b	0.41118845
216	0x3dc16585	0.094431914
217	0x3eff57c7	0.49871656
218	0x3e68f7b1	0.22750737
219	0x3e8f4f61	0.2799025
220	0x3f003e72	0.50095284
221	0x3e62a73b	0.22134106
222	0x3e961387	0.29311773
223	0x3e6c660f	0.23085807
224	0x3ea5acdd	0.32358447
225	0x3e8aca46	0.27107447
226	0x3de5ca8d	0.11220274
227	0x3eafbdbc	0.34324443
228	0x3e31086d	0.1728837
229	0x3e61b8ec	0.22043198
230	0x3e8bf711	0.27336934
231	0x3ea9ff10	0.3320241
232	0x3e7f26c0	0.24917126
233	0x3e7868f3	0.24258785
234	0x3ac6e741	0.001517512
235	0x3f0324c1	0.51227957
236	0x3e6c9a8c	0.2310583
237	0x3dfaf0d5	0.12252966
238	0x3e90274b	0.28154978
239	0x3e89bdc2	0.26902586
240	0x3ea61de6	0.32444686
241	0x3e8c2485	0.27371612
242	0x3e278f9d	0.16363378
243	0x3e78b596	0.2428802
244	0x3e4318c8	0.19052422
245	0x3e96bb12	0.29439598
246	0x3e9ccb50	0.30623865
247	0x3e93a26d	0.2883486
248	0x3f2ff997	0.6874022
249	0x3f2a1ab4	0.66446996
250	0x3ea9a459	0.331332
251	0x3f19c76b	0.6006991
252	0x3e902715	0.28154817
253	0x3e75b6c1	0.23995496
254	0x3e407e4e	0.18798181
255	0x3ea9c2ad	0.33156338

bn.0.bias f4 [512]
0	0xbe4c09af	-0.19925569
1	0xbe9955cc	-0.2994827
2	0xbe7f464c	-0.2492916
3	0xbebd8c14	-0.37020934
4	0xbe805da2	-0.25071436
5	0xbeb62d01	-0.3558121
6	0xbebc6823	-0.367982
7	0xbebdab6a	-0.3704484
8	0xbeaa02f8	-0.3320539
9	0xbe0b9a39	-0.1363305
10	0xbe5ad064	-0.21368557
11	0xbf3c3905	-0.73524505
12	0xbe8f8f79	-0.28039148
13	0xbdc84268	-0.09778291
14	0xbe93e51b	-0.2888573
15	0xbea42663	-0.32060537
16	0xbe4e3d28	-0.20140517
17	0xbd34f81d	-0.04418193
18	0xbe8f8cc3	-0.2803708
19	0xbe81b1b5	-0.25330892
20	0xbe30b562	-0.17256692
21	0xbcd38aa8	-0.025822952
22	0xbe963edc	-0.29344833
23	0x3cdb7402	0.026788715
24	0xbe36e29f	-0.17859887
25	0xbd45aef9	-0.04826257
26	0xbebf228c	-0.37331045
27	0xbe6214c3	-0.22078232
28	0xbe59c361	-0.21265937
29	0xbe3fa343	-0.18714623
30	0xbeab859b	-0.3350037
31	0xbe289cfb	-0.16466133
32	0xbeaae29e	-0.3337602
33	0xbe926ae6	-0.28597182
34	0xbe8a015b	-0.2695416
35	0xbe6ef13a	-0.23334208
36	0xbe9e4ae7	-0.3091652
37	0xbbec66bb	-0.007214395
38	0xbdbd1b7b	-0.09233757
39	0xbea815e5	-0.32829204
40	0x3cb2863c	0.021792524
41	0xbe4c4829	-0.19949402
42	0xbe59b3d1	-0.21260001
43	0xbeccfad3	-0.40035114
44	0xb9aafb48	-0.00032612146
45	0xbeb8e2b8	-0.36110473
46	0xbea7e5c5	-0.32792488
47	0xbe4dd625	-0.20101221
48	0xbe9fed88	-0.3123591
49	0x3c1c4f3a	0.009540373
50	0xbbec6b4c	-0.007214939
51	0xbab3a26d	-0.0013705023
52	0xbecfc1f3	-0.4057766
53	0xbe33e295	-0.17566903
54	0xbf01f8b2	-0.50770104
55	0xbd6fb0a9	-0.058518086
56	0xbe9ea392	-0.3098417
57	0xbe8a6d4d	-0.27036515
58	0xbd986da9	-0.07442791
59	0xbd65105b	-0.0559238
60	0xbe4a612b	-0.19763629
61	0xbeaa944a	-0.3331626
62	0xbee1677d	-0.44024268
63	0xbe6d47f3	-0.23171978
64	0xbe92ce22	-0.28672892
65	0xbec63b2f	-0.38717028
66	0xbe2c09c7	-0.16800605
67	0xbe7a57b0	-0.24447513
68	0xbeb8bfd0	-0.3608384
69	0xbe6081c1	-0.21924497
70	0xbd557533	-0.052113723
71	0xbca17d80	-0.019713163
72	0xbeb80d2b	-0.35947546
73	0xbe5dd7d8	-0.21664369
74	0xbed213e3	-0.41030797
75	0xbe42bcc1	-0.19017316
76	0xbe43871c	-0.19094509
77	0xbd60a8df	-0.054848548
78	0xbdf3c4dd	-0.11902783
79	0xbe05a128	-0.13049757
80	0xbdbf2f93	-0.09335246
81	0xbeb1663f	-0.3464832
82	0xbde9e0c6	-0.11419825
83	0xbe856537	-0.26053783
84	0xbe092948	-0.13394654
85	0xbed5e51c	-0.4177636
86	0xbd963d6f	-0.07335936
87	0xbea26475	-0.31717268
88	0xbd3fb8f8	-0.04680726
89	0xbe8a2031	-0.26977685
90	0xbeaa00d2	-0.3320375
91	0xbdee7da8	-0.11645061
92	0xbbf1ff8f	-0.0073852013
93	0xbdba8077	-0.09106534
94	0xbd796224	-0.06088461
95	0xbeda4eaf	-0.42638156
96	0xbe7ff8cc	-0.24997252
97	0xbe2b77b9	-0.1674489
98	0xbdf71f59	-0.12066526
99	0xbd67f175	-0.056626756
100	0xbe3cb20a	-0.18427292
101	0xbe76f270	-0.2411592
102	0xbdef1825	-0.11674527
103	0x3d1fdef0	0.03903097
104	0xbe36aa7e	-0.17838475
105	0xbdd22306	-0.102605864
106	0xbe41fc6d	-0.18943949
107	0xbf0f80f7	-0.5605616
108	0xbedbe595	-0.42948595
109	0x3e9051e9	0.28187492
110	0xbec0eb14	-0.3767935
111	0xbe8774a8	-0.2645619
112	0xbec41698	-0.38298488
113	0xbefc8916	-0.49323338
114	0xbe216f2d	-0.15765066
115	0xbe84a366	-0.25905913
116	0xbe720f65	-0.23638685
117	0xbed29bbb	-0.41134438
118	0xbd10ae25	-0.035322327
119	0xbe748544	-0.23878962
120	0xbd93b320	-0.072119
121	0xbd3dd439	-0.04634497
122	0xbdf4f783	-0.119612716
123	0xbb33d40b	-0.002743962
124	0xbe84424d	-0.25831833
125	0xbd081e7b	-0.033232193
126	0xbed4e8d0	-0.41583872
127	0xbe3016be	-0.17196175
128	0xbe3bbbd0	-0.18333364
129	0xbda95037	-0.08267253
130	0xbeac5cec	-0.33664644
131	0xbcc559b9	-0.024090635
132	0xbea653e4	-0.32485878
133	0x3b88c04c	0.004173314
134	0xbed38b07	-0.41317007
135	0xbe96c270	-0.2944522
136	0xbee4d4ed	-0.446937
137	0xbef275ec	-0.47355592
138	0xbe743245	-0.23847301
139	0xbe2d8b6c	-0.16947716
140	0xbd202548	-0.039098054
141	0xbeebcb92	-0.4605375
142	0xbebe1eef	-0.37132975
143	0xbebb3807	-0.36566183
144	0xbe9d37d4	-0.30706656
145	0xbef4d821	-0.47821143
146	0xbd8f7ea1	-0.070065744
147	0xbe1bc244	-0.15210825
148	0xbeb8a50c	-0.3606342
149	0xbd6f929c	-0.058489427
150	0xbe96aada	-0.29427224
151	0xbed16a08	-0.40901208
152	0xbea76bd7	-0.32699463
153	0xbe3f8f97	-0.18707119
154	0xbe5ddc5e	-0.21666095
155	0xbe885f27	-0.26635095
156	0xbe61905b	-0.22027723
157	0xbef9fdc9	-0.48826435
158	0xbe980723	-0.29692945
159	0xbec606cb	-0.38677058
160	0xbd9fdfb1	-0.078063376
161	0xbe9959bd	-0.29951277
162	0xbf1e1f49	-0.6176649
163	0xbd38ab34	-0.045085147
164	0xbe29efb4	-0.16595346
165	0xbe5a7bad	-0.21336241
166	0xbea3c072	-0.31982762
167	0xbe5de9c1	-0.21671201
168	0xbe32bba1	-0.17454387
169	0xbe69229c	-0.22767109
170	0xbe9375d0	-0.2880082
171	0xbe8bd204	-0.27308667
172	0xbec669d9	-0.3875263
173	0xbee34dbd	-0.44395247
174	0xbea63ed7	-0.32469818
175	0xbe6c2cd0	-0.2306397
176	0xbebc7a9c	-0.36812294
177	0xbe2a2871	-0.1661699
178	0xbe07e632	-0.13271406
179	0xbf083d5d	-0.5321863
180	0xbea0664f	-0.31328055
181	0xbe8f87e9	-0.2803338
182	0xbec091a3	-0.37611112
183	0xbeff5507	-0.49869558
184	0xbea89257	-0.32924148
185	0xbdfb2420	-0.1226275
186	0xbec3c5d9	-0.38236883
187	0x3dd635a4	0.1045945
188	0xbec81e52	-0.39085633
189	0xbe65655a	-0.22401944
190	0xbef5d36c	-0.48012865
191	0xbef48adb	-0.47762188
192	0xbe944ff2	-0.28967243
193	0xbe6aa3ea	-0.22914091
194	0xbe67fc0a	-0.22654739
195	0xbe9cd890	-0.30633974
196	0xbe0051de	-0.1253123
197	0xbd5a9115	-0.053361017
198	0xbea0202a	-0.3127454
199	0xbe4b0bc4	-0.19828707
200	0xbe0c8d72	-0.13725832
201	0xbe055e57	-0.13024269
202	0xbec2b58a	-0.38029128
203	0xbefd65c4	-0.49491704
204	0xbe436d50	-0.19084668
205	0xbea124fd	-0.31473532
206	0xbdeca8e8	-0.11555654
207	0xbf1fb061	-0.6237851
208	0xbeaadb8b	-0.33370623
209	0xbe927fdd	-0.28613177
210	0xbe97126c	-0.29506242
211	0xbea2d4e6	-0.31803054
212	0xbe96f3fa	-0.29483014
213	0xbeb4636b	-0.352321
214	0x3cf3aa18	0.029744193
215	0xbeab48e9	-0.33454064
216	0xbc25373e	-0.010083972
217	0x3e8e068d	0.27739373
218	0x3db68103	0.08911326
219	0xbeb0ac8c	-0.34506643
220	0xbc95e4e6	-0.018297624
221	0xbec63dc9	-0.38719013
222	0xbe634eee	-0.22198078
223	0xbe34a7d6	-0.1764215
224	0xbdb2c477	-0.08728879
225	0xbe450068	-0.19238436
226	0xbe0adb8c	-0.13560313
227	0xbe8a45bf	-0.27006337
228	0xbe881604	-0.26579297
229	0xbe0ed735	-0.13949282
230	0xbe81e902	-0.25373083
231	0xbeb31bf4	-0.34982264
232	0xbe7a3405	-0.24433906
233	0xbe87de17	-0.2653663
234	0xbb9b74c3	-0.0047441437
235	0xbd81c94d	-0.06337223
236	0xbd3bf3fb	-0.045886975
237	0x3c92d607	0.017924322
238	0xbe490376	-0.19630226
239	0xbe92cc4b	-0.28671488
240	0xbe6aa427	-0.22914182
241	0xbeaee7b3	-0.34161147
242	0xbe49b01d	-0.19696088
243	0x3dc86ae1	0.097860105
244	0xbc07dbc7	-0.008292145
245	0xbf1d93f6	-0.61553895
246	0xbe44be26	-0.19213161
247	0xbeb46652	-0.35234314
248	0xbdc39701	-0.09550286
249	0xbe08aed7	-0.13347946
250	0xbc67ab7a	-0.014140004
251	0xbe53e2ae	-0.2069194
252	0xbecd12c6	-0.40053385
253	0xbecebf8c	-0.40380514
254	0xbe83a8d8	-0.25714755
255	0xbe801441	-0.25015453

bn.0.running_mean f4 [512]
0	0x3e373b05	0.17893608
1	0x3e0391a4	0.12848526
2	0x3d1080cc	0.03527908
3	0x3e2d19f1	0.16904427
4	0x3e3ea09d	0.18615957
5	0xbcd990d1	-0.026558312
6	0xbe4c9a71	-0.1998079
7	0x3ccd2384	0.02504135
8	0x3d998793	0.07496562
9	0x3d376c6d	0.044781137
10	0x3c4cf9a5	0.012510692
11	0x3e3299d3	0.17441492
12	0x3e06714d	0.13129158
13	0x3d253352	0.040332146
14	0x3b89fbfd	0.0042109475
15	0x3dd14005	0.10217289
16	0xbe4ff160	-0.20306921
17	0xbe160326	-0.14649639
18	0x3e4524e7	0.19252358
19	0x3da99f0f	0.08282291
20	0x3d8f4191	0.06994928
21	0x3be02c62	0.0068412283
22	0xbce10717	-0.027469201
23	0x3d3a1868	0.045433432
24	0x3e22f0fc	0.1591224
25	0xbdb2efd9	-0.087371536
26	0x3d09f496	0.03368052
27	0xbe2e92c1	-0.1704817
28	0xbde2c9aa	-0.110736206
29	0xbd308de1	-0.043104056
30	0x3d11d2cc	0.035601422
31	0xbdfa63e0	-0.12226081
32	0x3e15aae2	0.14615968
33	0x3e2b6621	0.16738178
34	0x3e0b8dcf	0.13628314
35	0x3d23cef1	0.039992277
36	0xbd2e4443	-0.04254557
37	0x3db9bd74	0.090693384
38	0xbdc0efee	-0.09420763
39	0x3d457d9a	0.048215486
40	0xbe3e951c	-0.18611568
41	0x3c9902a3	0.018678015
42	0xbd1543fc	-0.036441788
43	0xbe3064b3	-0.17225914
44	0xbe006a59	-0.12540568
45	0x3e407a0d	0.18796559
46	0x3d75b8bc	0.05999063
47	0x3e077d1e	0.13231322
48	0xbde9acdc	-0.114099234
49	0x3e344278	0.17603481
50	0xbded431c	-0.11585066
51	0xbe4c713d	-0.19965072
52	0xbdd4b622	-0.103863016
53	0x3dc82e28	0.097744286
54	0x3dc8b596	0.0980026
55	0x3e1f6569	0.15566029
56	0x3da62b79	0.081137605
57	0xbdaa025e	-0.08301233
58	0x3d1869c3	0.037210237
59	0x3df6e3b3	0.12055149
60	0x3e0f2cc1	0.13981916
61	0x3e4f8f15	0.20269425
62	0xbdd3ffd6	-0.10351531
63	0x3db2adce	0.08724557
64	0x3de93418	0.11386889
65	0x3dc48164	0.09594992
66	0xbd99c710	-0.07508671
67	0x3d42630f	0.04745775
68	0x3c533633	0.01289134
69	0x3e45f2ee	0.19330952
70	0xbd974cda	-0.07387705
71	0xbe2a4ccb	-0.16630857
72	0x3c7ed766	0.015554285
73	0x3dcfc147	0.101442866
74	0xbb0d5835	-0.0021567468
75	0x3e32ab74	0.17448217
76	0x3d2ce102	0.04220677
77	0xbd0060b9	-0.031342242
78	0xbd82baa9	-0.06383259
79	0x3d5b1ad6	0.05349239
80	0xbe3ada73	-0.18247394
81	0xbc21cfaa	-0.009876171
82	0xbe054beb	-0.13017242
83	0x3da19cf3	0.07891264
84	0x3dec6e6b	0.11544498
85	0x3deb24ad	0.11481605
86	0xbdeec9ea	-0.11659606
87	0xbe1c9b0b	-0.15293519
88	0xbd9e8422	-0.07740046
89	0x3e376b7b	0.17912094
90	0x3e2836d1	0.16427161
91	0x3da7f478	0.082009256
92	0x3e49b4f9	0.19697942
93	0x3d9d5aa5	0.07683305
94	0x3d0ad83e	0.03389763
95	0xbda6ff13	-0.0815412
96	0x3d1e85bf	0.03870177
97	0x3c0f9f89	0.0087660635
98	0x3c2813d6	0.0102586355
99	0xbd382d91	-0.04496533
100	0xbdbf10d9	-0.09329385
101	0xbb79261d	-0.0038017102
102	0xbe228257	-0.15870033
103	0x3e0c4a79	0.13700284
104	0x3e322b30	0.17399287
105	0xbdbf3c0c	-0.09337625
106	0x3b8cf731	0.0043019284
107	0x3e4bcd3c	0.1990251
108	0x3e3aa3ad	0.182265
109	0x3e01bb8e	0.12669203
110	0xbdf0e1d5	-0.11761824
111	0x3de62ced	0.11239038
112	0x3e47ea75	0.19523032
113	0x3cda03a6	0.026613068
114	0x3db22877	0.08699124
115	0x3b36e810	0.0027909316
116	0xbccb4181	-0.024811508
117	0x3e1e6fea	0.1547238
118	0x3d815595	0.063151516
119	0xbe468dc2	-0.19390014
120	0x3be53a2c	0.00699546
121	0x3e15a16e	0.14612362
122	0xbceb6233	-0.028733348
123	0xbe4048f2	-0.18777826
124	0x3d7b5555	0.061360676
125	0xbe3d4aa1	-0.184855
126	0xbe1ec9a2	-0.15506604
127	0xbda232c3	-0.07919838
128	0xbe4046e6	-0.18777046
129	0x3dbaeb31	0.091268905
130	0x3dff19f6	0.124561235
131	0xbd321fdc	-0.043487415
132	0x3e30bfec	0.17260712
133	0xbd9da5a3	-0.07697608
134	0x3dc1bfd0	0.094604135
135	0xbe3513f6	-0.17683396
136	0x3dea91b2	0.114535704
137	0xbd94442e	-0.07239567
138	0xbd8e590c	-0.06950578
139	0xbde9a488	-0.11408335
140	0xbe0f5de7	-0.14000665
141	0x3dd4bd10	0.10387623
142	0x3e1ec06f	0.15503095
143	0x3c196bd8	0.009364091
144	0xbd98f85a	-0.07469244
145	0x3dfdaf01	0.12386895
146	0x3d8ad19c	0.06778261
147	0x3e18a753	0.14907579
148	0x3d0e6f95	0.03477438
149	0xbd552bc3	-0.052043688
150	0xbe1734fc	-0.14766306
151	0xbe515091	-0.2044089
152	0x3cdc2bad	0.026876295
153	0xbe38006f	-0.17968915
154	0x3d412ef3	0.047163915
155	0x3e3770a2	0.1791406
156	0xbc6b6d19	-0.014369273
157	0xbd8927bb	-0.06697031
158	0x3dc18366	0.094488904
159	0x3e43aa19	0.19107856
160	0x3e28f5c0	0.16499996
161	0x3dfc901f	0.123321764
162	0xbe2eac21	-0.1705785
163	0xbda038d0	-0.07823336
164	0xbe4613c3	-0.19343476
165	0xbc8a041c	-0.016847663
166	0xbcea98c1	-0.028637292
167	0xbe0e30d6	-0.13885817
168	0x3d9cb01b	0.07650777
169	0x3e128647	0.14309035
170	0x3e160051	0.14648558
171	0x3d8af208	0.06784445
172	0x3d2d830d	0.042361308
173	0xbd250b64	-0.040294066
174	0xbd8903fc	-0.06690213
175	0x3e36f3cf	0.17866443
176	0xbe0cfb22	-0.13767675
177	0x3bb5b98e	0.0055458015
178	0xbe4cbdb0	-0.19994235
179	0xbe1cdc46	-0.15318403
180	0xbd8afbcc	-0.06786308
181	0x3e04fd25	0.12987192
182	0x3df6d551	0.120524056
183	0xbdde61bc	-0.10858485
184	0x3d2d215b	0.04226814
185	0x3cb30a9f	0.02185565
186	0x3d8e53bf	0.06949567
187	0x3e2da7f9	0.16958608
188	0x3e4c3abe	0.19944283
189	0x3cd271a5	0.025688956
190	0x3d0d748d	0.03453498
191	0xbc429f06	-0.011878734
192	0xbe541573	-0.20711307
193	0x3ca618c5	0.020275483
194	0xbd4cc2c9	-0.04999045
195	0x3c895fd0	0.01676932
196	0x3e3e1931	0.18564297
197	0xbd9393ed	-0.07205949
198	0x3e033257	0.12812172
199	0xbe367df7	-0.1782149
200	0x3deaaa73	0.11458292
201	0xbc60ebf5	-0.013728132
202	0xbcff6470	-0.031175822
203	0xbda8e85e	-0.082474455
204	0xbd960296	-0.07324712
205	0x3d313f38	0.04327318
206	0xbdff7dbc	-0.12475154
207	0x3e0bb5ae	0.13643524
208	0x3e43518c	0.19074076
209	0x3e0ac05a	0.13549939
210	0xbd8c4ba4	-0.06850365
211	0x3e1e32f8	0.1544913
212	0x3e43a46e	0.19105694
213	0x3e22ca9f	0.15897606
214	0xbe254ce8	-0.16142619
215	0xbe150871	-0.14554001
216	0x3c7798c4	0.015112106
217	0xbe26cde6	-0.16289482
218	0x3dc88948	0.09791809
219	0x3d912dcd	0.07088814
220	0xbb7452df	-0.003728084
221	0xbe22e3ed	-0.1590726
222	0x3ddf7585	0.10911087
223	0xbbdd1c82	-0.006747783
224	0x3e14e81c	0.14541668
225	0xbe235e5e	-0.15953967
226	0xbddd4100	-0.108034134
227	0xbe3e5a50	-0.18589139
228	0x3e41b0eb	0.18915145
229	0x3dfc6fcb	0.1232601
230	0xbd8400bb	-0.06445452
231	0x3d99b652	0.07505478
232	0x3e3d93d8	0.18513429
233	0x3d5ea2ee	0.0543546
234	0x3e3c6f50	0.18401837
235	0xbdbd16df	-0.09232878
236	0xbc912106	-0.017715942
237	0x3d967faf	0.073485725
238	0x3dfd7e34	0.12377587
239	0x392eca43	0.00016669281
240	0x3dcfbb71	0.101431735
241	0x3d0ea3fe	0.034824364
242	0x3e2ba039	0.16760339
243	0xbe2fe424	-0.17176872
244	0xbe09ba1c	-0.13449901
245	0x3e4ad2ab	0.19806926
246	0x3d05e014	0.0326844
247	0xbdc0c5f2	-0.09412755
248	0xbe11c4fd	-0.14235301
249	0x3e4f7fd8	0.20263612
250	0xbe17b550	-0.14815259
251	0xbe1114e0	-0.1416812
252	0x3d4a9e73	0.049467515
253	0x3daa9a5d	0.08330224
254	0x3da848a1	0.08216978
255	0xbe3bd00d	-0.18341084
