solutions/Deep Reinforcement Learning/3_Collaboration and Competition/previous_models/checkpoint_critic_1.pth (torch_old, 594767 bytes, 17 tensors)

states_normalizer.weight f4 [24]
000000 55 00 28 3e 71 3a 88 3e 96 c8 0a 3e e7 a0 0f 3e
       0.16406377 0.26607087 0.1355308 0.14026223
000010 08 89 4a 3f 89 28 0f 3f 92 15 bb ba 51 9b bf 39
       0.79115343 0.55921227 -0.0014273396 0.0003654608
000020 4e 31 0b 3e b4 e5 cd 3b fc f6 ab 3d 90 15 5f 3b
       0.13593027 0.0062834863 0.08396718 0.0034039952
000030 70 0d 0d 3f 9a 2b 1d 3f f7 f9 54 3d 51 ba 07 3e
       0.5509863 0.61394656 0.051996198 0.13254668
000040 3a 8b 04 3f 0d 09 a2 3e 2b a4 77 3a 52 16 10 3e
       0.5177494 0.3164753 0.0009446765 0.14071015
000050 4c 91 41 3f 10 69 37 3f 32 28 40 3e 8d 21 e9 3d
       0.7561233 0.7164469 0.18765333 0.113833524

states_normalizer.bias f4 [24]
000000 5b 9f 5f ba f0 73 e3 ba 67 60 4d 38 b5 e4 8f 3a
       -0.0008530521 -0.0017353278 4.896559e-05 0.0010978194
000010 cf d1 7b bb f1 d4 cd ba d8 ea 2f ba 0e 56 86 3a
       -0.0038424616 -0.001570372 -0.00067107147 0.0010249035
000020 b6 a0 8a 3a fd c3 14 ba cb 64 a2 ba b5 f2 77 3a
       0.001057646 -0.00056749565 -0.0012389658 0.00094584684
000030 27 ee 9b bb 67 8e 30 3b b9 92 00 bb b2 bd c3 3a
       -0.0047586146 0.0026940347 -0.0019618704 0.0014933853
000040 ea d6 5c 3a f3 aa e8 ba fe ef 80 b9 b6 b4 f3 ba
       0.00084243587 -0.0017751142 -0.0002459287 -0.0018593285
000050 c6 44 ce bb e5 8a 74 3b 21 9a fe 3a dc 9b 11 ba
       -0.0062948195 0.0037314233 0.0019424596 -0.0005554536

states_normalizer.running_mean f4 [24]
000000 58 3e bb c0 f3 0c 3a bf 2c 80 c9 40 0a c3 25 be
       -5.8513603 -0.7267601 6.296896 -0.16187683
000010 18 b1 4b 3d 12 6a 2b 40 2c 80 c9 40 0a c3 25 be
       0.049729437 2.678349 6.296896 -0.16187683
000020 cd 46 bd c0 d8 7c 3a bf f3 bc b2 40 74 2f d8 bd
       -5.9148927 -0.72846746 5.585565 -0.10555926
000030 c4 d9 1a 3d 97 c3 2a 40 f3 bc b2 40 74 2f d8 bd
       0.037805334 2.6681879 5.585565 -0.10555926
000040 32 b1 be c0 64 a7 3b bf b4 6d b7 40 dd 57 10 be
       -5.9591303 -0.7330229 5.7321415 -0.14096017
000050 09 a7 21 3d f6 6c 29 40 b4 6d b7 40 dd 57 10 be
       0.039465938 2.6472754 5.7321415 -0.14096017

states_normalizer.running_var f4 [24]
000000 61 fd 86 41 82 23 94 3f 45 77 be 43 db dd 37 41
       16.87372 1.1573336 380.9318 11.491664
000010 73 7b da 41 fd 74 4b 40 45 77 be 43 db dd 37 41
       27.310278 3.1790154 380.9318 11.491664
000020 c8 1e 86 41 52 98 93 3f 07 e2 c1 43 a4 bc 3b 41
       16.76503 1.153086 387.76584 11.733555
000030 ce 5e de 41 73 f8 4a 40 07 e2 c1 43 a4 bc 3b 41
       27.796291 3.1714141 387.76584 11.733555
000040 74 aa 84 41 64 11 93 3f 74 24 c3 43 1d e9 3b 41
       16.58323 1.1489682 390.2848 11.744412
000050 cc 5f e3 41 03 93 4e 40 74 24 c3 43 1d e9 3b 41
       28.421776 3.227723 390.2848 11.744412

layers.0.weight f4 [512, 24]
000000 41 fe 7a bd c5 67 36 3c d9 4c 2d 3d a3 2b f8 bc
       -0.06127763 0.011133139 0.042309616 -0.030294245
000010 77 7d 9f 3c ab f9 7b 3d dd ea 5d 3c d3 5f 91 3d
       0.019469006 0.0615174 0.013544765 0.07098355
000020 68 49 00 be a5 4d fc 3c 8b 54 4b bb 31 4c 56 3d
       -0.12528002 0.030798743 -0.0031025733 0.052318756
000030 f2 cc 20 3d 5c 2d f4 bb 89 52 29 3d 75 86 ae 3d
       0.03925795 -0.0074516963 0.041338477 0.085217394
000040 c3 b8 ab 3b f6 fc a7 3e 55 7c dc 3d 48 61 6e 3d
       0.005240531 0.3281018 0.10765902 0.058198243
000050 c0 b5 1d bf 53 df 32 3e 44 09 de 3c 73 3a fe 3d
       -0.61605453 0.17468004 0.027104028 0.12413492
000060 90 38 f0 3d f3 87 ca 3d 11 4d 86 3d 7b d9 fc 3e
       0.117295384 0.098892115 0.06557668 0.49384674
000070 ce e1 e6 bd 3f b8 7d 3c 08 94 0e 3e fb 0f 93 3c
       -0.112735376 0.015485822 0.13923657 0.017951956
000080 80 ad 12 3e 70 bb a4 3d 39 29 c1 3d 09 44 3e 3e
       0.14323997 0.08043563 0.09431691 0.18580641
000090 28 a1 0b bd 9f 89 22 bd 2d ff 97 3d ed a8 32 3e
       -0.034089237 -0.039682027 0.07421718 0.17447253
0000a0 36 9c a4 3e ce 44 7f 3e 8a f8 d3 3c 7b e1 eb 3e
       0.3215043 0.2492859 0.025875349 0.46070465
0000b0 82 a8 06 bd 7c 8f 83 be 84 07 3a 3e ae 05 f0 3e
       -0.032875545 -0.25695407 0.1816693 0.46879333
0000c0 94 74 0e bc d7 00 01 be 3e 1f 91 3b eb e1 7b bd
       -0.008694787 -0.12597977 0.004428773 -0.06149475
0000d0 f1 44 81 3e 77 31 7e 3e 90 68 22 bd 96 9e c6 bd
       0.2524791 0.24823557 -0.0396505 -0.096982166
0000e0 01 84 2b 3c 75 cd e5 bc 29 f0 64 bd 66 da ce bd
       0.010468484 -0.028052071 -0.055893097 -0.1010025
0000f0 0e dd 29 3b 77 55 50 3e 46 30 26 bd 66 31 9a be
       0.0025919112 0.20345102 -0.04057338 -0.30115813
000100 c7 7a e0 3c b0 52 43 be 34 2a e8 bd 32 b8 99 be
       0.027402295 -0.19074512 -0.113361746 -0.30023342
000110 94 66 c7 bd ba ff 9b be fc c0 9b bc e7 9e 6f be
       -0.09736362 -0.3046854 -0.01901292 -0.2340046
000120 72 20 6b bd 30 ed 63 3e 9d 93 37 bc 83 3e e1 3c
       -0.05740399 0.22258449 -0.011204627 0.027495628
000130 62 96 76 be c2 c3 0f 3d 29 bf 52 bd 15 8d 32 3d
       -0.24080804 0.0350988 -0.051451836 0.043591578
000140 ac 6c 24 3e 34 14 23 3e a4 b7 0c bd 78 42 aa 3b
       0.1605708 0.15925676 -0.03435482 0.005195912
000150 c1 3d 02 3f ed 2a 75 be 9e ac 35 bc fa 06 30 3e
       0.5087548 -0.23942156 -0.011088518 0.17190161
000160 62 21 d8 bc 82 55 3f be 6d 71 b2 3c 71 c5 30 3d
       -0.026383106 -0.18684962 0.021782601 0.043157045
000170 cf 1f 89 bc 1d 49 0d 3e e1 47 2b 3c cd eb 89 39
       -0.0167388 0.13797422 0.010454149 0.00026306362
000180 f2 d4 f6 3d 47 07 85 3d 64 c7 1c bf ac 93 e4 3d
       0.12052335 0.06495529 -0.61241746 0.11160979
000190 fc 24 aa be 5e 75 1e bd 57 2f fc be 72 1a 90 3c
       -0.33231342 -0.03868615 -0.49254867 0.017590735
0001a0 99 c3 62 3c 99 07 cc bd 35 a3 67 be 1c 33 c8 bd
       0.013840579 -0.09962387 -0.22620852 -0.09775373
0001b0 22 9a 96 3e 0d 0d ba bd 23 b3 3b be 5e 50 85 bd
       0.2941447 -0.090845205 -0.18330054 -0.065094694
0001c0 ad 71 f8 3d 83 4d 7c bb a7 a1 0d bd 39 2f f8 3d
       0.12131057 -0.003849835 -0.03457799 0.12118382
0001d0 af d4 12 3d cf fd 69 bc 11 7e 87 be 02 ae 0c 3e
       0.035847362 -0.014281704 -0.2646337 0.13738254
0001e0 47 12 15 3d 02 97 e8 3e 87 e2 3f 3e da f4 80 be
       0.036394384 0.4542771 0.18738757 -0.25186807
0001f0 f5 88 09 bd 1a 74 68 bc d1 f3 e5 3d 37 46 ea bd
       -0.033577878 -0.014187837 0.11228145 -0.11439174
000200 d2 71 34 3c 12 f9 c0 3e d3 24 c1 3e 20 07 52 bd
       0.011013465 0.37690026 0.37723407 -0.051276326
000210 4f 8f 37 bd 3c d2 63 3e 54 29 d1 3e a9 40 d9 bd
       -0.044814404 0.22248167 0.40851843 -0.10608036
000220 9b 5e b5 3c 6a da 97 3e 0e 6a 85 3e 4d fe 33 be
       0.022139838 0.29658824 0.26057476 -0.17577477
000230 e8 c2 48 3e 9b 91 4b 3d e9 f3 cc 3e 99 38 45 be
       0.19605601 0.049699407 0.4002984 -0.19259872
000240 da c4 25 be 07 52 a1 bd d6 87 31 be b2 9e 87 3d
       -0.16188374 -0.078769736 -0.17336974 0.066220656
000250 61 58 97 be 9d 1b a6 bd f1 b9 ca bb 7d 28 5b 3c
       -0.29559615 -0.081107356 -0.0061867167 0.013376352
000260 a9 56 78 bd aa 79 75 3d c0 26 18 3d 26 4a 95 bc
       -0.06062952 0.05993048 0.03714633 -0.018223833
000270 5a 38 13 be 15 94 92 bd 50 ab c2 3d de e5 15 3c
       -0.14376965 -0.07157151 0.095053315 0.009149043
000280 09 db 46 3b 86 33 75 be 78 42 11 bd 93 ac 92 be
       0.0030342957 -0.23945436 -0.03546378 -0.2864729
000290 9d 09 14 3e b5 d7 a5 3e 2c df 5a 3d b5 1d 86 be
       0.14456792 0.32391134 0.05343549 -0.2619454
0002a0 8a e1 13 be 05 24 95 be e5 7e e7 bc 14 23 51 3c
       -0.14441505 -0.29129043 -0.02825875 0.012764711
0002b0 f2 7f d6 3d 79 83 67 3d 94 aa 4b bd 05 06 18 3d
       0.104736224 0.056521866 -0.049723223 0.037115116
0002c0 1d 94 8f bd e9 f4 72 be 11 fa 10 be 12 e1 c2 3d
       -0.07010672 -0.23726238 -0.14157893 0.09515585
0002d0 1c 4f 8d 3d 23 6c 50 3d d8 64 2a be 30 a5 df 3d
       0.068998545 0.050884377 -0.16640031 0.10920179
0002e0 b1 d7 d4 3d 44 70 42 be 7e 35 5b bc bc 6b 04 3f
       0.10392702 -0.18988138 -0.013379453 0.5172689
0002f0 99 68 9a 3d 73 e3 bd 3e c7 62 ee bd d9 34 06 3f
       0.07539482 0.37087592 -0.11639934 0.5242439
000300 2e 96 1e bd aa 26 33 be 87 8c a8 bd b0 55 fe bd
       -0.03871744 -0.17495218 -0.082299285 -0.12418687
000310 41 36 4b 3e 8b c8 a1 bc 5c 7b 3b bd 08 74 5f 3c
       0.19844915 -0.019748947 -0.04577194 0.013638504
000320 5d e6 d6 3d 91 f4 f2 3a 36 47 f8 3c d8 d7 3a 3b
       0.10493157 0.0018536021 0.030307394 0.002851
000330 0f c4 12 3f 05 95 38 3d 33 89 a9 3c a4 fb a5 bd
       0.5733041 0.04506399 0.020695304 -0.08104637
000340 7a 76 8e 3e 7c b0 ca 3d 62 cb 81 bd 51 36 8a bd
       0.27824765 0.09896943 -0.0633762 -0.06748641
000350 a3 27 83 bf da 19 3e 3d ad 60 b0 bd ec a3 b5 bc
       -1.0246471 0.046411373 -0.086121894 -0.02217289
000360 2c 80 18 be 66 0c 10 be 52 2e ec bd 3f b9 35 be
       -0.14892644 -0.1406723 -0.115322724 -0.17746447
000370 7b 1a d0 3d a4 27 21 3e c0 4b 54 bd 9e ba cc bd
       0.10161301 0.15737778 -0.051830053 -0.09996532
000380 56 12 3b be 3a 19 e3 3b 3b c7 5b be 43 68 9f bc
       -0.18268713 0.0069304975 -0.21462719 -0.019458896
000390 08 c0 b6 3e 9d a9 75 3e 43 5b 80 be 72 e8 25 be
       0.35693383 0.23990484 -0.25069627 -0.16201952
0003a0 53 ca 09 3e b7 12 62 3d ad a2 bc bd a8 49 70 be
       0.13456087 0.05519363 -0.092107154 -0.23465598
0003b0 de ed 85 bd cb 6b 5d be 77 5e 18 be 0d 34 83 be
       -0.0653951 -0.21623151 -0.14879785 -0.2562565
0003c0 98 d0 be 3d 61 94 00 3f 46 52 a0 be 5c 7c 83 be
       0.0931713 0.5022641 -0.3131277 -0.25680816
0003d0 48 7a bf 3c 20 1a 52 be 43 19 8e bd ab fc c0 3d
       0.023373738 -0.20517778 -0.06938412 0.094231926
0003e0 98 0a ca 3d 4f f4 28 3e 46 d0 9e bd e1 71 ad be
       0.09865302 0.16499446 -0.07754569 -0.33875945
0003f0 3c 5e 84 3d 20 b5 21 3c ee 84 8f bd a3 2c 17 bf
       0.06463286 0.009869844 -0.07007776 -0.59052485

layers.0.bias f4 [512]
000000 f3 c1 37 3e 0a e5 00 3e d4 08 12 3d 3a 7c 2b 3e
       0.1794508 0.12587371 0.03565295 0.16746607
000010 a4 f1 3c 3e 52 f2 d6 bc 89 97 4c be 75 e0 e4 3c
       0.18451554 -0.026238594 -0.19979681 0.02793906
000020 65 d5 94 3d 7f b4 2c 3d ae 0e 17 3c 5a 4a 32 3e
       0.07267264 0.042164322 0.0092198085 0.17411175
000030 0c 98 09 3e 71 a5 29 3d 36 cf 2d 3c f8 b4 c9 3d
       0.13436908 0.041417543 0.010608485 0.0984897
000040 3e 3c 4e be 33 b3 16 be d3 f6 45 3e 8c 70 ab 3d
       -0.20140168 -0.14716797 0.19332437 0.08371076
000050 29 1a 90 3d 17 b3 26 3c 34 b2 15 bd a6 ea 39 3d
       0.0703624 0.010174534 -0.0365469 0.045389794
000060 c6 a7 24 3e 99 fa b5 bd c4 08 11 3d 72 bb 2e be
       0.16079625 -0.08885688 0.03540875 -0.17063692
000070 11 f8 e4 bd dc 78 3e bd 15 a6 0a 3d 65 bb fc bd
       -0.111801274 -0.04650198 0.033849794 -0.1234043
000080 4c 3d 14 3e c9 cf 26 3e aa cb 0b 3e ee 27 17 3d
       0.14476508 0.16290201 0.1365191 0.036903314
000090 94 5f 2e bd 9e 3a b4 3d 0f 3d c4 bd 13 79 42 3d
       -0.04257162 0.08800243 -0.095819585 0.047478747
0000a0 79 b8 3d be 07 8e a1 3c a0 b1 0a bd 9b 87 2f be
       -0.18527402 0.019721044 -0.033860803 -0.17141573
0000b0 ef 4c 00 be a2 25 3c 3e 20 84 75 3d 87 fc 04 3e
       -0.12529348 0.18373731 0.059940457 0.12986957
0000c0 ec 8e e3 bd e4 70 34 3e f4 47 ee bd c2 e3 4b be
       -0.111112446 0.1762119 -0.11634818 -0.19911101
0000d0 6b b0 dc bd 86 f5 cb 3d d3 97 cd 3d c8 b6 1e 3e
       -0.107758366 0.09958939 0.10038724 0.15499413
0000e0 f8 8c 98 3d d0 8c b0 bd 60 f4 11 3d 44 c6 f6 3d
       0.07448763 -0.08620608 0.035633445 0.12049535
0000f0 3f 11 0a 3e 7e cc 4e 3e 1c 8e cf bd 6e 18 b1 3d
       0.13483141 0.20195195 -0.10134527 0.08647238
000100 7d 7b e3 3d 35 82 cc 3d e8 c1 9e bd e8 cc 44 3d
       0.11107538 0.099857725 -0.077518284 0.048046976
000110 ca a0 2b 3c 5b 48 46 3e af a8 96 bd d4 f4 3e be
       0.010475347 0.19363539 -0.073563926 -0.18648082
000120 27 22 3e 3c ad a9 cf 3d 76 03 81 b9 d5 88 34 3e
       0.011604822 0.10139785 -0.00024607376 0.17630322
000130 ff f8 2b 3d 13 ff 0e bd 20 02 85 bd 37 f3 52 3d
       0.041985508 -0.034911226 -0.06494546 0.05150148
000140 64 8e 3e be 18 5e ff bb db 5c 08 be a9 8e 9e 3d
       -0.18609005 -0.0077931993 -0.13316672 0.07742054
000150 3e 48 e5 3d e6 77 ec 3d ae 2c ed bd e4 95 1e be
       0.1119542 0.11546306 -0.115807876 -0.15486866
000160 19 54 9c bd 71 90 37 3e c0 d2 2b 3e 15 d7 a9 3d
       -0.07633228 0.17926194 0.16779613 0.08292977
000170 ee 71 49 3e 9f e3 9d 3d 12 bf 17 3d 91 85 a4 bd
       0.19672367 0.07709431 0.037047453 -0.08033288
000180 e2 31 1c 3d 46 26 fc 3b fe 1b 03 3c 51 77 38 bd
       0.03813351 0.0076949922 0.008002279 -0.045035664
000190 c0 7e bd bd d2 f6 8e bb 98 2c 26 be 90 4e 0f 3e
       -0.09252691 -0.0043629194 -0.16227949 0.13994813
0001a0 0a da 30 3e a6 cc c2 bd 81 dc 23 3b 81 73 4e 3e
       0.17270675 -0.0951169 0.0025003257 0.20161249
0001b0 64 92 3b 3e 74 fd fe 3d 26 8e f0 bd 57 1e e0 3d
       0.18317562 0.12450686 -0.11745863 0.10943287
0001c0 b2 c0 48 3e 0b 92 e6 3c ab 56 b2 3d 8a 25 f3 3a
       0.19604757 0.02814581 0.08707937 0.0018550616
0001d0 97 40 b3 bc 92 95 1f 3e 38 7d 85 3d 4f 8b 4b be
       -0.021881385 0.155844 0.06518024 -0.19877361
0001e0 8e 84 8f 3b 92 3f 18 3e df b5 f0 bc c9 d3 3f be
       0.0043798154 0.14868 -0.029383598 -0.18733133
0001f0 e3 51 75 3d da 31 3d be f7 b3 20 be 13 6a aa bd
       0.059892546 -0.18476048 -0.15693651 -0.08321013
000200 89 c1 3e be 72 f7 b7 3d fc b9 00 3e 34 9e 45 bd
       -0.18628515 0.08982743 0.12570947 -0.048246577
000210 a2 66 34 3e 29 63 97 bd 7c 9e c8 3d 9e 4f 36 be
       0.17617276 -0.0739196 0.097958535 -0.17803809
000220 98 3a f5 3d 9c 7e 96 bd 92 36 92 bd b3 01 ec bd
       0.119740665 -0.073483676 -0.07139315 -0.115237616
000230 90 f0 11 be 88 88 d9 3d 2f 0b 20 3e e1 cd 1f 3c
       -0.14251924 0.106217444 0.15629266 0.009753675
000240 82 b6 97 bd 79 e6 01 3e 2c 90 82 3d 21 81 15 3e
       -0.074078575 0.12685575 0.06375155 0.1460004
000250 a3 fa 0e 3d 37 67 4d bd 9f fa 1a be 00 cd 4e be
       0.034906995 -0.05014726 -0.15134667 -0.20195389
000260 0f 6d dd 3c db 76 36 be 1a b5 35 3d 1b f0 38 3e
       0.027029542 -0.17818777 0.044362165 0.18060343
000270 73 00 7d bc ba 3b 88 bd e4 7b c3 3d a2 e8 44 3e
       -0.015442002 -0.06652017 0.09545115 0.19229367
000280 37 9f 28 3e 5f 9a fd 3d 5f f9 2e be 5c 96 a6 bd
       0.16466986 0.123829596 -0.17087315 -0.081341475
000290 aa 6f 49 be 28 4b 96 bc e9 f6 cf bc 3d c6 0d be
       -0.19671503 -0.018346384 -0.02538629 -0.13845153
0002a0 99 15 a3 3d 14 03 14 3e ba 6f 14 3e 7f 59 91 3d
       0.07963104 0.14454299 0.14495745 0.07097148
0002b0 a2 9e 3b 3d dd cb 20 bd 01 c3 8e bd 2a 23 39 3e
       0.04580558 -0.03925692 -0.06970788 0.1807982
0002c0 d8 66 0d be 06 4b f9 3b cf 76 4a be 8e a3 1c be
       -0.13808763 0.0076078204 -0.19771884 -0.15296766
0002d0 d8 b8 8b bd de c8 02 3e 94 76 ef 3d d1 97 dc bd
       -0.068223655 0.12771937 0.11692539 -0.10771144
0002e0 fd bf 31 3d 58 5e 52 3c ac 19 8f 3d 43 a5 2b 3e
       0.043395985 0.012839876 0.069873184 0.16762261
0002f0 d2 55 50 3e dd d2 af 3c 28 e3 0a 3d 18 00 6a bc
       0.20345238 0.021462852 0.03390804 -0.014282249
000300 63 06 50 be 5a 4e a4 3c 68 6a 66 bd b9 1d 8a 3c
       -0.20314936 0.020056892 -0.05625382 0.016859876
000310 43 4f 37 3e 6b 5b 91 bd 67 f1 02 3e 5e 78 33 be
       0.1790133 -0.07097515 0.127874 -0.17526385
000320 b5 2b ee 3d ae 05 89 bc 40 03 e8 bc 91 43 ab bd
       0.1162943 -0.016726341 -0.028321862 -0.08362497
000330 23 69 8d bd ea 01 2a 3d 7f 3d 03 be 7e 1f 0b 3e
       -0.06904819 0.04150573 -0.12816428 0.13586232
000340 23 ff 44 3e b8 7b 0c 3e b9 da 97 bd 27 3a 1d 3e
       0.19237952 0.1371907 -0.07414765 0.15354215
000350 81 54 47 3e 28 cd 1e 3e fd 6e 29 be 82 09 17 be
       0.1946583 0.15507948 -0.16546245 -0.1474972
000360 11 3f 55 3c 96 c9 28 be 8b 32 c6 3d ee 7f 8b 3d
       0.0130155245 -0.16483149 0.09677609 0.0681151
000370 fd f2 f8 bb d4 ab 21 be 27 6b da 3d 9a cb f4 bb
       -0.007597326 -0.15788203 0.10664969 -0.0074705603
000380 3b 42 13 3e d5 16 2a be 31 11 df bd f1 ff 40 be
       0.14380734 -0.16610272 -0.10891951 -0.18847634
000390 a1 66 42 3e 33 24 fe 3d 01 d0 77 bd 79 f7 a4 3d
       0.18984462 0.12409248 -0.060501102 0.08055014
0003a0 0a d1 3c 3e 0b 9f 56 3d 2b d1 3c 3e ca ce d9 bd
       0.18439117 0.05239777 0.18439166 -0.10635145
0003b0 b5 c6 99 bc 3a c9 95 3d d2 57 00 3e ee 90 40 3a
       -0.018771509 0.073137715 0.12533501 0.0007345815
0003c0 94 a8 cd 3d e2 c6 14 3d a2 e3 2d 3e e9 94 2e be
       0.10041919 0.036322482 0.16981366 -0.17048992
0003d0 ca be 09 be 43 e4 4b 3e 84 d8 ee 3c 44 7e bb bd
       -0.13451687 0.19911294 0.029155977 -0.09154943
0003e0 63 20 13 be fd f2 4a 3e fd 12 18 be af 64 14 be
       -0.14367823 0.19819255 -0.14850993 -0.14491533
0003f0 05 b6 3a 3d 2c 2e ac 3d 5b 20 aa 3d 38 77 3e be
       0.045583744 0.08407244 0.083069526 -0.18600166

layers.1.weight f4 [256, 514]
000000 29 68 17 bc 78 b9 08 be db be 49 be de e1 c9 3e
       -0.009241142 -0.13352 -0.19701712 0.39430135
000010 91 0b 42 3e 76 82 1c 3e 1d 4f 9d 3d dd 71 80 be
       0.18949725 0.15284142 0.07681105 -0.2508687
000020 c0 53 80 be ef 14 4f be dd a7 4e 3d 2c 4d 0b be
       -0.25063896 -0.2022283 0.050453056 -0.13603657
000030 6f b7 dd bc a7 76 a8 bd 37 4a ad 3b b6 d6 ae bd
       -0.027065007 -0.08225756 0.005288388 -0.085370466
000040 9c 72 34 bd ee 9f d4 be bb 94 e7 3c 6e 36 80 3e
       -0.044054613 -0.41528267 0.028269162 0.25041527
000050 ea f5 b3 be b6 4a 28 bf c0 65 29 3e 88 37 13 be
       -0.35148555 -0.65739 0.16542721 -0.14376652
000060 db 46 a9 be a1 f2 96 be c8 4e 75 be 12 5e 8b bd
       -0.3306187 -0.29481986 -0.23955834 -0.06805052
000070 0e 49 a1 bd 88 d3 8b be e6 00 c0 3c 03 c1 07 bd
       -0.07875262 -0.27309823 0.023437928 -0.033143055
000080 60 cc 9e be 05 2c 70 bd 29 13 0e 3d 49 10 c0 be
       -0.310153 -0.05863573 0.03468624 -0.37512425
000090 30 2b 8d bd 95 cb 8f bd ab bc 76 3e fe 96 a2 3e
       -0.06893003 -0.07021252 0.24095409 0.31755823
0000a0 5b 2b a4 3c 12 28 5b 3e 94 f6 eb be 5b aa 93 3c
       0.020040205 0.21402004 -0.46086562 0.018025568
0000b0 f1 ef 43 be 9f 69 17 be 11 05 c5 be 96 bf 50 3d
       -0.19134499 -0.14786385 -0.38480428 0.05096396
0000c0 ee 3e 1b be cb 6f 0c bf 8d 77 30 3d 38 ae f5 bc
       -0.15160725 -0.5485808 0.043082763 -0.0299903
0000d0 b4 5a d0 be 5e db 80 be 2a eb f9 bc 0d 57 1e 3e
       -0.406942 -0.25167364 -0.030507643 0.15462895
0000e0 a2 52 4e 3d 6d 1c ad be d8 9e 08 be cf 74 43 bb
       0.050371774 -0.3381075 -0.13341844 -0.0029824262
0000f0 56 12 d7 3c 27 48 9f bd bc 4c fb be bc b0 cc bd
       0.02625386 -0.07777434 -0.4908198 -0.09994647
000100 40 88 19 bd a0 05 1e be 2a 2e 23 be a9 db 7f bc
       -0.037483454 -0.15431833 -0.15935579 -0.015616336
000110 4f 5d 59 3e bc 18 d1 bc 58 05 1c 3e 8d ea a4 3c
       0.21227 -0.02552449 0.15236413 0.020131374
000120 0d b3 22 3e ae bd d9 bd 9e 44 9a 3d b8 45 ce be
       0.15888615 -0.10631882 0.07532619 -0.40287566
000130 17 31 13 3e 64 8e a7 3e 41 e5 80 be f1 a3 db bd
       0.14374195 0.32725823 -0.25174907 -0.10724629
000140 d8 6e b1 bc e1 71 0a bf 47 ac e2 bc 9b 48 5c be
       -0.0216593 -0.54080015 -0.027670039 -0.21512072
000150 3f 2b 8f be e2 97 0a be de fa 0a be 2a 81 9f bc
       -0.27962682 -0.13534501 -0.1357226 -0.01947077
000160 ec 7a b0 bb b6 82 a4 be c6 e6 2d bd 4c e1 0c bd
       -0.005385747 -0.32130975 -0.04245641 -0.034394547
000170 30 6b 3f bd 7f 57 32 bd ee c6 f8 bd bd 39 d7 3d
       -0.04673308 -0.043540474 -0.12147318 0.105090596
000180 87 5f 23 bd ef 9a 45 be 41 8a fd bd 65 ea 6a be
       -0.039886024 -0.19297384 -0.123798855 -0.22940977
000190 1b ae 3f 3e 2c 8c 7f bd 9f 62 0c bd 89 fc 13 bb
       0.1871876 -0.062389538 -0.03427374 -0.0022580943
0001a0 3d e5 21 be 11 65 83 be 8b fd 6d be e3 4f 9d be
       -0.15810104 -0.25663045 -0.2324125 -0.3072501
0001b0 8a e7 24 3e 8a 1c 18 3e 9c 5c 29 be d9 3f f9 3c
       0.1610395 0.14854637 -0.16539234 0.030425953
0001c0 e6 dc 97 be 35 4b 39 3d 24 e6 1e 3d 67 62 05 be
       -0.2966072 0.04523774 0.038793698 -0.13025819
0001d0 c8 ab b4 bc 87 8e 93 bd 9f ef b0 bd fb d4 3d 3e
       -0.022054568 -0.07204919 -0.08639454 0.18538277
0001e0 d7 1d 19 bf f9 aa 87 bd c0 41 97 be 68 02 6a 3d
       -0.59811157 -0.06624407 -0.2954235 0.0571312
0001f0 fd bd c2 bd ae e0 aa be 78 f0 a3 be 0f 1c 19 3e
       -0.09508894 -0.33374542 -0.320194 0.1495211
000200 09 54 96 bd 6d ba 80 3e fc ce 12 bd 73 f2 70 be
       -0.07340247 0.25142232 -0.035841927 -0.23529987
000210 64 ed 1f 3e ce c9 a7 bd e4 51 4c 3c f2 9a 3d bd
       0.15617901 -0.08192788 0.012470696 -0.046290345
000220 87 48 64 be ff 74 2e bd 47 e1 85 bc 98 95 0a 3d
       -0.22293292 -0.042592045 -0.016342772 0.03383407
000230 06 f5 9f be a1 7a ba 3c 33 d5 ae bc e3 c5 65 bc
       -0.31241626 0.022763552 -0.021341896 -0.014024231
000240 40 2d 0b 3d 85 c2 eb bc 68 a5 03 be 2c 3b d2 be
       0.0339787 -0.028779278 -0.12856066 -0.4106077
000250 ab 41 f1 be d6 cf a1 be 9e 8a 54 be e3 8b 12 be
       -0.47120413 -0.3160388 -0.20756003 -0.14311175
000260 d7 bb 90 be 74 3d 70 be 8b c5 10 bd 51 bb 8e 3b
       -0.2826831 -0.23460943 -0.03534464 0.004355826
000270 cc 9e fa bc fd 17 f4 3e c1 ff 6f bd 14 ce e6 3d
       -0.030593298 0.47674552 -0.058593515 0.11269775
000280 75 24 82 3e 50 79 7d 3d 02 79 76 3e 2b ff 47 be
       0.2541844 0.06188327 0.24069598 -0.19530933
000290 41 c2 25 bf d7 e1 10 be b3 d2 8a 3d 6c d7 c5 bd
       -0.6474953 -0.14148651 0.06778469 -0.09660229
0002a0 ae 22 10 3e 02 d8 07 be 5d c3 78 3c 97 50 46 bb
       0.14075729 -0.13265994 0.015183297 -0.0030260438
0002b0 9b c4 43 3e 95 9c 88 bd 5a e6 10 3d 2f d3 2e be
       0.19117968 -0.06670491 0.03537593 -0.17072748
0002c0 01 86 c3 3b 54 6e cf bc b0 af f2 be 33 85 e1 bd
       0.0059669022 -0.025321163 -0.47399664 -0.11011734
0002d0 f7 65 24 bd b3 d0 d4 bd 0f 51 1e bd 57 c2 01 3e
       -0.040136304 -0.10391369 -0.038651522 0.12671791
0002e0 3a 72 92 bd fb 47 21 bf 09 6d 3b be 70 db 4b bd
       -0.07150693 -0.6300046 -0.18303312 -0.04976982
0002f0 84 7e 1f be 1e 22 fa be df 2f a7 3e 19 a4 84 be
       -0.15575606 -0.48854154 0.3265371 -0.25906447
000300 6b ff fd 3d 63 3c ea bd 13 ab 27 3b f8 e5 41 3e
       0.12402233 -0.11437299 0.0025584146 0.18935382
000310 3e c8 7c bd d2 c2 8b bc 8c f5 56 bd 72 d1 23 3d
       -0.061714403 -0.017060671 -0.052480265 0.039994664
000320 88 66 04 bf 0e 8d 21 3e 58 44 61 bd 6b 8f 09 be
       -0.5171895 0.15776464 -0.05499682 -0.13433616
000330 a5 78 59 be b4 19 5a bf ad 8d 90 be 6e ea e3 bc
       -0.21237428 -0.8519547 -0.2823309 -0.027821746
000340 46 b9 55 3d 5d af 56 bd 6f d6 0d 3e 44 24 7a bd
       0.052178644 -0.052413333 0.13851331 -0.06106974
000350 64 b6 c9 bd 28 65 a3 3c 3c a2 7e bd 4b 5d 9a 3a
       -0.098492414 0.019945696 -0.062166438 0.0011777071
000360 99 af 64 bf b2 ba 19 bf 57 0f d7 3c 7a 75 1b 3e
       -0.8933044 -0.600505 0.026252432 0.15181533
000370 a5 f2 d5 bb 4c 43 3d 3d 6b 31 57 bc fa 78 40 bd
       -0.0065291696 0.046206757 -0.013134341 -0.046990372
000380 13 ab 01 be b1 e1 03 3c 6b 0c 1d be b9 42 4f be
       -0.12662916 0.0080494145 -0.15336768 -0.20240296
000390 c4 ab 9c be 8f 88 3b bd d2 28 e9 bd 0a e6 04 3e
       -0.30599797 -0.04578453 -0.11384739 0.12978378
0003a0 95 bf 20 bf 55 d9 55 bd 83 32 91 bd 95 a0 1e 3e
       -0.6279233 -0.052209217 -0.070897125 0.15490945
0003b0 38 c2 2e 3d 58 5b 37 be 91 3a 7e bc c3 83 4f 3e
       0.04266569 -0.17905939 -0.015516893 0.20265107
0003c0 3e f5 da bd 9a 03 9e be fc ff a6 bc f5 89 d5 bd
       -0.106913075 -0.30862123 -0.020385735 -0.10426704
0003d0 76 fc 6a be 76 a2 02 bf 9c fd be 3a 58 06 43 3a
       -0.22947869 -0.51029146 0.0014571431 0.0007439605
0003e0 9d ea 4f bd e8 ce 97 3d a8 6b 2f be 3f b2 27 bf
       -0.050760854 0.07412511 -0.17130911 -0.65506357
0003f0 ae 5b 84 3e 89 bd c9 bc c7 ce 13 3d 13 de b0 be
       0.25851196 -0.02462651 0.03608587 -0.3454443

layers.1.bias f4 [256]
000000 aa f5 a3 bd f5 4f 8c bd f5 ab 33 3e 03 37 41 3d
       -0.08005841 -0.06851188 0.17546065 0.047171604
000010 e9 d1 b2 3d 4e 5d 1d be e5 b6 62 3e b9 06 31 3e
       0.087314434 -0.15367624 0.22140081 0.1728772
000020 41 ad 00 3e a7 16 2d be f6 1b 06 bd 2b 26 32 3d
       0.12566091 -0.16903172 -0.03274151 0.04349343
000030 14 a7 41 3e a5 05 86 be cf 72 9b 3d 40 23 28 3e
       0.18911391 -0.2617618 0.075902574 0.16419697
000040 b2 49 90 bd 1d f4 87 bd c0 0c 4e 3c 60 82 21 be
       -0.07045306 -0.06638358 0.012576282 -0.1577239
000050 18 83 f4 bd 7d 22 07 be be 14 41 bd 2f 50 f9 3d
       -0.11939067 -0.1319675 -0.047138922 0.12173497
000060 66 9c 3e be 2a a6 5c bd 19 2d 29 be 22 39 8a bd
       -0.18614349 -0.053869404 -0.1652111 -0.067491785
000070 21 a8 6e bd 04 36 4f 3e 49 d8 6b bd d1 7b 68 3e
       -0.05826581 0.20235449 -0.057579312 0.22703482
000080 6d 5f 42 be 95 d0 41 bd f7 28 0e bc 22 ab 28 3e
       -0.18981715 -0.04731806 -0.008676759 0.16471532
000090 af 32 96 bd 0c 5b 1c be f0 30 2f 3e a3 cf a6 bd
       -0.07333886 -0.15269107 0.17108512 -0.08145072
0000a0 50 f6 bc bc 3e 83 cd bd b7 e8 9f bd 36 f2 bf 38
       -0.02306667 -0.10034798 -0.07808059 9.152705e-05
0000b0 71 86 0b be cf d5 d4 bd f1 46 b9 bd 4d ff 49 be
       -0.13625504 -0.10392343 -0.09046734 -0.19726296
0000c0 5a 7b 36 3e e2 de 00 bc 3c ea 24 be 8e 03 37 bd
       0.17820492 -0.007865639 -0.16104978 -0.044681124
0000d0 a9 7c 6d bd 90 e2 e5 3c f9 6b 57 bd 0d f6 3b bd
       -0.057980213 0.028062135 -0.052593205 -0.04588895
0000e0 03 03 e3 bc 01 49 b2 3d a4 8e 6d bd bd e5 60 bd
       -0.027711397 0.08705331 -0.05799736 -0.054906595
0000f0 ba 8f 8c bc e5 53 01 be 22 97 60 3e 59 50 b4 3c
       -0.017158378 -0.1262966 0.21932653 0.022010969
000100 63 b2 b8 3d 83 4c 31 3e b1 54 b1 bd cd 81 5a 3e
       0.090183996 0.17314343 -0.08658732 0.21338578
000110 47 7c 4b be 08 4e 57 3d 04 bf 7e 3d d2 87 22 bd
       -0.19871627 0.05256465 0.062193885 -0.03968031
000120 cd e0 0b 3c 6f d5 47 3e e9 f1 37 3d 8a a5 04 be
       0.008537483 0.19515012 0.044908438 -0.12953773
000130 f8 9d 07 bd 1f 13 da bd c1 ad 52 be 2f 08 ae 3d
       -0.033109635 -0.10648178 -0.20574094 0.08497655
000140 13 d9 ab 3d 41 4e f5 bd 2d ef f1 bd d4 86 5b be
       0.08391013 -0.119778164 -0.11813197 -0.21438152
000150 56 d9 1e 3e 6d 6a f1 bd 42 e1 40 be 4e 8c 09 be
       0.15512595 -0.11787877 -0.18835929 -0.13432428
000160 d8 2e 9a bd ce 6c 30 3c a3 f3 90 bc fb dd c5 3d
       -0.07528466 0.010768129 -0.0176943 0.0966148
000170 b5 ba b9 bb c8 af 00 bc f0 ca 53 3d 5c e2 4e 3d
       -0.005668009 -0.0078544095 0.05170721 0.050508842
000180 da 43 f7 bd df ab 09 3e 67 57 ab bd b8 a7 20 be
       -0.120734885 0.1344447 -0.0836628 -0.1568898
000190 a9 a6 01 bf cf 7f a5 3d f6 9c 5e 3d 5b 9b 62 bd
       -0.5064493 0.08081018 0.05434891 -0.05532394
0001a0 d6 8b 5d be 56 e3 07 be 10 19 60 bd 11 61 74 be
       -0.21635374 -0.13270316 -0.0547114 -0.23865153
0001b0 08 0f b3 bd b3 aa 48 bd 2b 4c 26 be 8a cc c2 bd
       -0.08743101 -0.048990916 -0.16239993 -0.09511669
0001c0 24 6b ad 3d c0 5d 15 3e b4 d9 41 be 38 36 be bd
       0.08467701 0.14586544 -0.18930703 -0.09287685
0001d0 26 8e 88 be 1f 0a 47 be 2a 4c d2 3d 13 00 fe 3d
       -0.2667095 -0.19437455 0.102684334 0.12402358
0001e0 b9 e5 93 bd 4d de ae 3c f6 30 c2 3d b1 27 c0 bd
       -0.072215505 0.021346236 0.09481995 -0.093825705
0001f0 2c f8 db 3d f2 fe 58 be d2 c8 36 3e 9a ca 8d bb
       0.107406944 -0.21191004 0.17850044 -0.0043271305
000200 dd cd 2d be 75 a2 dc 3d bf cf f7 3c 4b fd db bd
       -0.16973062 0.10773174 0.030250428 -0.10741671
000210 e4 d9 b7 bd 47 31 24 bd d5 de 01 3e 64 0a 32 bd
       -0.08977106 -0.040086057 0.1268266 -0.04346694
000220 be 88 14 3d dc 89 fa bc ea 92 8f 3d 80 38 01 3c
       0.03626322 -0.030583315 0.070104435 0.007887006
000230 a9 b2 2f bd eb 6a 04 bd e3 0f 6d bd ad 70 09 be
       -0.042894993 -0.032328527 -0.05787648 -0.13421889
000240 8d 16 e0 bd df 21 09 3d ed 1a 3b 3e fb da 13 be
       -0.10941801 0.033479568 0.1827199 -0.14439003
000250 08 e1 c0 be fa ea 52 3d 7f a6 1d bd 75 e8 dc bc
       -0.37671685 0.051493622 -0.03848886 -0.026966313
000260 13 98 96 bd f2 df e4 bb 75 35 65 3e 56 5b e9 3d
       -0.073532246 -0.006984704 0.22383673 0.11394374
000270 57 e9 f9 be 35 cf 91 bd 59 e2 ef b9 91 cd 78 3d
       -0.48810837 -0.071196 -0.00045754274 0.06074292
000280 c6 a3 f8 bc 57 2f 62 bc 2b 72 a4 bd 65 d7 9f 3d
       -0.03035153 -0.013805232 -0.08029588 0.07804755
000290 02 c2 eb 3c e0 eb 95 bc 6c 09 a6 3d d5 41 b0 bd
       0.028779034 -0.01830095 0.08107266 -0.086063065
0002a0 07 d0 c6 bd 3e 95 0c 3e 79 65 09 3c 20 f3 c2 3d
       -0.09707647 0.13728806 0.008386009 0.09519029
0002b0 cf 10 51 bd 31 9c 44 bd ee 01 26 be b7 51 84 3e
       -0.05104142 -0.04800052 -0.16211674 0.25843593
0002c0 ca d9 19 be e3 f0 00 be cf d4 09 be c2 13 97 3d
       -0.15024486 -0.12591891 -0.13460086 0.073768154
0002d0 f0 73 90 bd 04 4c ca 3d 75 61 24 be 6a 11 f9 3d
       -0.07053363 0.0987778 -0.16052802 0.121615246
0002e0 d2 34 fc 3c 89 4f f5 bd 10 1c 0e 3d f7 79 be bc
       0.030786905 -0.11978061 0.03469473 -0.023251517
0002f0 72 e6 03 3e c7 7e 69 3e 4d 87 c4 bd 0f ef 0f 3e
       0.12880877 0.22802268 -0.09596119 0.14056037
000300 5d d5 54 be ba ba 85 bd 26 4e 35 3d 38 12 9b bd
       -0.20784517 -0.06529756 0.04426398 -0.07571834
000310 1e 50 ac bd e2 c3 8b 3d 5c 84 94 3d c5 1e 28 be
       -0.08413719 0.06824471 0.07251808 -0.16417988
000320 e9 07 60 bd 33 62 69 bd 4f 24 25 3e ac 21 60 bc
       -0.054695044 -0.056978416 0.16127132 -0.013679903
000330 0e ce 95 3c aa 07 21 be de be 18 3e 76 a4 70 bd
       0.018286731 -0.1572558 0.1491656 -0.058750592
000340 ae ac 52 bd 9c 85 e6 bc 63 dc bb 3d 8f fb 47 be
       -0.05143421 -0.028139882 0.09172895 -0.19529556
000350 3c 43 ff 3d 6e 7d 74 3c 6c 45 c0 bd bd 3c 06 bd
       0.12463996 0.014922483 -0.09388241 -0.03277277
000360 e8 14 8f 3c e8 d4 25 bd 07 48 8e bd 00 d1 03 bd
       0.017466024 -0.040486246 -0.06947332 -0.03218174
000370 71 c3 f9 bd fd c1 3b be 55 39 f7 3d 8f 85 ca 3d
       -0.121954806 -0.1833572 0.12071482 0.098887555
000380 da ba 9e 3d 13 8d fc 3d 02 41 8e bd 68 4e 0a 3e
       0.07750483 0.12331595 -0.06945993 0.13506472
000390 0a c1 89 3d f6 4f b5 bd f5 d9 23 bd 80 e4 8c bd
       0.067262724 -0.08853142 -0.040002782 -0.068795204
0003a0 9e 22 d6 bd cd 66 65 bd 27 4c 10 be 13 db 43 be
       -0.104558215 -0.05600624 -0.1409155 -0.19126539
0003b0 18 89 b5 be 36 c9 92 bc cb 67 2b bd c7 3c 22 be
       -0.35456157 -0.01791821 -0.04184703 -0.15843497
0003c0 df 8a 03 3e d8 9f 24 3e 77 77 77 bd 5a ac 4f bd
       0.12845944 0.160766 -0.060416665 -0.050701477
0003d0 66 35 d7 be 24 2a 03 be e7 d2 9a bc b1 62 5d 3d
       -0.42032927 -0.12809044 -0.018899394 0.054049198
0003e0 d7 e0 31 bd 8e 5e 03 be 6f 83 9a 3d 98 d5 ca bb
       -0.043427315 -0.12829039 0.075446 -0.006190013
0003f0 c4 72 fe bc 3a f3 60 3e 29 91 e8 bd 74 30 f2 3d
       -0.031060584 0.21967784 -0.11355812 0.11825648

bn.0.weight f4 [512]
000000 07 e3 4f 3e 29 19 5c 3e 26 d8 6d 3e d3 0e 9d 3e
       0.20301448 0.21493973 0.23226985 0.30675372
000010 69 e4 0b 3e ba 00 b2 3e 32 a4 c2 3e 66 a0 ee 3e
       0.1366135 0.3476618 0.38015896 0.4660675
000020 09 2a 5e 3f 36 6f 03 3e 34 33 97 3e 84 60 03 3e
       0.8678289 0.12835392 0.29531252 0.12829787
000030 f4 ce b4 3e 80 96 30 3f f1 fa 40 3e 9c c2 0a 3f
       0.35314143 0.68979645 0.18845727 0.542032
000040 a8 81 42 3e de 2f a8 3e c8 1d 6e 3e 55 55 52 3e
       0.18994772 0.3284902 0.23253548 0.20540364
000050 58 32 e3 3d f5 ac 20 3d 55 7d a4 3e 8d 6a 8f 3e
       0.11093587 0.039227445 0.3212687 0.2801098
000060 1e b8 95 3e f1 71 b1 3e 8c 7d 85 3e b8 7c 17 3f
       0.29242033 0.34657243 0.26072347 0.5917468
000070 77 77 61 3e 82 41 90 3e 8f 91 29 3f 6f c3 42 3e
       0.22018228 0.28174978 0.6623773 0.19019864
000080 fc 1c ea 3e 08 42 30 3e b0 94 14 3e 8f b8 c8 3e
       0.45725238 0.17212689 0.14509845 0.39203307
000090 06 f9 7e 3e ba 96 b6 3e 4e cd 09 3e 96 2f e1 3e
       0.24899682 0.3566187 0.13457224 0.43981618
0000a0 ac eb 7e 3e 44 bb e0 3e a7 97 85 3e 62 47 65 3e
       0.24894589 0.43892872 0.26092264 0.22390512
0000b0 2d fc ba 3e de a6 52 3d 4b 3c e8 3e 80 e0 f8 3e
       0.3652052 0.05142867 0.453585 0.4860878
0000c0 aa 11 78 3e d9 96 9b 3e 3b bc 10 3a ce a6 d4 b6
       0.24225488 0.30388525 0.00055212126 -6.337511e-06
0000d0 bd b8 4f 3e c8 9d 39 3e d4 e9 c0 3e 6a 1c 10 3e
       0.20285316 0.18126595 0.37678397 0.14073339
0000e0 98 1c 55 3e 07 8f bf 3d 3c 3a 57 3e 5d 27 1a 3c
       0.20811689 0.09353452 0.21018308 0.009408799
0000f0 ad 7f 25 3e f9 25 c3 3e 51 f4 d9 3e 57 82 3c 3f
       0.16161986 0.38114908 0.4256921 0.7363638
000100 b9 16 70 3e 38 84 af 3e 10 00 59 3e 7a 6b 51 3e
       0.23446168 0.34280562 0.2119143 0.20451155
000110 7f d1 56 3e 78 f9 8c 3e 66 26 3b 3e 2f 2e 70 3e
       0.20978354 0.2753408 0.18276367 0.23455118
000120 7a f5 6a 3e 3c a3 82 3e 0f f7 99 3e 82 a8 19 3e
       0.22945204 0.25515163 0.30071303 0.15005687
000130 06 ec ae 3e 27 b3 94 3e d8 e1 66 3e 97 63 54 3e
       0.34164447 0.29042932 0.2254709 0.20741116
000140 3d be 4d 3f 6c 84 db 3e 7a 40 82 3e 9a e2 c9 3e
       0.80368406 0.42874467 0.25439817 0.39430696
000150 6e 32 82 3e cf d2 83 3e 01 da de 3e 65 c2 6e 3e
       0.254291 0.25746772 0.435257 0.23316343
000160 90 56 70 3e 91 77 99 3e c4 c8 af 3e 21 c3 9c 3e
       0.23470521 0.29974034 0.3433286 0.30617622
000170 1f 6f 1f 3c 7c 1b c8 3e 89 79 45 3e 8f e6 9a 3e
       0.009731083 0.3908347 0.19284643 0.30254027
000180 74 58 6c 3e 99 6b e4 3e 18 43 d4 3e ce 25 78 3e
       0.23080617 0.4461334 0.41457438 0.24233171
000190 c5 27 53 3e 9b 86 fd 3d 42 20 9b 3e 2d 2b 4f 3e
       0.2062064 0.123791896 0.30298048 0.20231314
0001a0 53 d0 1d 3e 13 22 bc 3e 0b d7 2d 3f 4b 36 9f 3e
       0.154115 0.36744747 0.67906255 0.3109611
0001b0 5a f2 de 3e b7 6c 9e 3e 47 bd 8e 3e 54 59 fc 3e
       0.43544275 0.30942318 0.27878782 0.49286902
0001c0 f2 21 c6 3e 13 d9 9d 3e 5e 57 1b 3d 00 1c e2 3e
       0.38697773 0.30829677 0.037925117 0.44161987
0001d0 0d b2 41 3e 2e 8d a2 3e 48 cf 56 3e b0 4e 19 3e
       0.18915577 0.31748337 0.20977509 0.14971423
0001e0 9c e5 ea 3d 0e 56 7d 3e e2 e1 af 3e 4b 00 9c b9
       0.11469576 0.24739859 0.34352022 -0.00029754857
0001f0 d5 57 62 3e ce 2a 57 3e d6 9e df 3e 8a 9b 4d 3e
       0.22103818 0.21012422 0.4367587 0.20078865
000200 ab 28 0d 3f d3 75 57 3e 21 12 94 3e bb cd 02 3f
       0.5514018 0.2104104 0.2892008 0.5109517
000210 a6 d2 f6 3e 70 d6 a6 3e f5 13 ab 3e f9 e2 8a 3e
       0.48207587 0.32585478 0.33413664 0.2712629
000220 9d 79 00 3f bb 14 9e 3e 75 eb 4d 3e c8 eb 11 b9
       0.5018557 0.3087519 0.20109351 -0.00013916113
000230 3b e9 0e 3e 6e 5d ad 3b ce 04 4d 3e 15 7a 78 3e
       0.13956158 0.0052906787 0.20021364 0.2426532
000240 f9 be 6d 3e 60 19 3b 3d de d5 b4 3e e1 ed 66 3e
       0.23217382 0.045678496 0.35319418 0.22551681
000250 f3 b9 8d 3e 56 e4 0b 3f bc 23 5c 3e b4 37 10 3f
       0.2768093 0.5464529 0.21498007 0.56334996
000260 2f 5c 60 3e f3 ba e0 3e 76 7b cd 3d 57 b9 7e 3e
       0.21910165 0.4389263 0.10033314 0.24875389
000270 20 7b 57 3e 6e b1 8a 3e 3b 6e ac 3e 3a 2b c9 3e
       0.21043062 0.27088493 0.3367785 0.39290792
000280 4c f0 41 3e 55 f9 2d 3f 90 dd 01 3f 3e 76 94 3e
       0.18939322 0.67958575 0.507287 0.28996462
000290 2c 10 34 3e 26 c2 b5 3e 2a d1 a8 3e 4d 91 59 3e
       0.17584294 0.35499686 0.3297208 0.21246834
0002a0 6e eb a7 3e 9a 46 9f 3e 49 e0 f2 3e 51 11 85 3e
       0.32796806 0.31108552 0.4743674 0.25989774
0002b0 88 a2 a2 3e 15 85 16 3e 10 eb a0 3e 60 ec 84 3e
       0.31764627 0.14699204 0.31429338 0.2596159
0002c0 79 fc b3 3e c2 d1 81 3e 2b ad e5 3e f4 2e dc 3e
       0.3515356 0.25355345 0.4485868 0.43004572
0002d0 a3 a7 53 3e 04 7b ab 3e d3 5b 71 3e 52 23 48 3f
       0.20669417 0.3349229 0.23570184 0.78178895
0002e0 33 73 4d 3e cd 25 96 3e 3d e8 a5 3e 1e 47 9a 3e
       0.20063476 0.29325715 0.32403746 0.30132383
0002f0 a8 f3 8a 3e c6 f6 0c 3e be 40 71 3e 56 79 f7 3e
       0.2713902 0.13766012 0.23559853 0.4833476
000300 d0 11 4b 3e e8 9f 28 3e a0 9c ab 3e e2 f6 a4 3e
       0.19831014 0.1646725 0.33517933 0.32219607
000310 b3 1a 41 3e 87 2a 36 3e 00 d8 87 3e 78 c6 a1 39
       0.18857841 0.1778966 0.26531982 0.00030856184
000320 ce be cb 3e b8 e8 8c 3e 47 58 aa 3e 69 ae 59 3e
       0.3979401 0.275213 0.33270475 0.21257938
000330 24 2f 18 3e b6 0a a5 3e 5c 67 66 3e 38 82 ae 3e
       0.14861733 0.32234734 0.22500366 0.34083724
000340 e7 1e ff 3e d0 8d 28 3e 73 e3 cb 3e a3 99 70 3e
       0.49828264 0.16460347 0.39821967 0.23496108
000350 0b be e2 3e 01 3e 7e 3e 62 46 b9 3e 13 ec f4 3e
       0.44285616 0.2482834 0.3618651 0.4783636
000360 93 5b fa 3e 01 c1 d3 3e c9 9f 8e 3e 06 77 c1 3e
       0.4889799 0.41358188 0.2785628 0.3778612
000370 08 2f 53 3f b1 c4 a2 3e af 92 82 3e 80 89 c9 3e
       0.8249364 0.3179069 0.25502536 0.39362717
000380 a7 10 7b 3e 72 c1 f0 3e ed d7 37 3e 2c eb a2 3e
       0.24518071 0.47022587 0.17953463 0.31820047
000390 4d a9 79 3e 07 53 79 3e a5 e2 e4 3e 45 f4 c4 3d
       0.2438099 0.24348079 0.44704166 0.09616903
0003a0 d0 47 54 3e dc 74 09 3e 43 f6 ef 3b 8b 0b 50 3e
       0.2073052 0.13423485 0.007323058 0.20316903
0003b0 14 af c3 3e 42 9e 3f 3e ba be ce 3e e1 97 a4 3e
       0.38219512 0.18712714 0.40379888 0.32147124
0003c0 e7 74 7d 3e e9 f5 88 3e b8 89 ec 3d 12 9f 3b 3e
       0.24751626 0.26750115 0.11549705 0.183224
0003d0 c6 1e ca 3e 92 0e 80 3e 9c 9f cb 3e 4f 8d 50 3e
       0.39476603 0.25011116 0.3977021 0.20366405
0003e0 05 07 76 3e ec 03 42 3f af 3f bc 3e 98 17 75 3e
       0.24026115 0.75787234 0.36767337 0.23934782
0003f0 16 44 55 3e ce 4c 46 3e db 76 49 3e ce 3b 90 3e
       0.20826754 0.19365236 0.19674246 0.28170627

bn.0.bias f4 [512]
000000 25 ee 66 be 91 17 88 be f1 f1 9b bd af bc bc be
       -0.22551782 -0.2658048 -0.07614506 -0.36862704
000010 1b 26 7d be 7a 42 95 be 11 84 97 be b7 92 e4 be
       -0.24721567 -0.2915228 -0.29592946 -0.44643185
000020 52 dc be be a7 b2 d2 bc e9 a2 3e be 68 da b9 ba
       -0.37277466 -0.025719954 -0.18616833 -0.001417947
000030 f4 d5 8b be 6b 9e 35 be cc 98 5d be bd 02 99 be
       -0.2731167 -0.17736213 -0.21640319 -0.29884902
000040 04 02 5b be 9b 63 3e bd 90 1e 98 be b8 b4 89 be
       -0.21387488 -0.04648171 -0.29710817 -0.2689569
000050 28 03 36 be ba 17 13 bd c0 1f ab be 6c 82 81 bd
       -0.17774642 -0.0359113 -0.3342266 -0.06323704
000060 ee b7 6c be 1f 71 dc be 6e d8 62 be f7 bf 99 be
       -0.23117039 -0.43055055 -0.22152874 -0.3002927
000070 a5 5f a4 be 4a 30 99 be 6a ff a9 be c8 7c f8 bd
       -0.3210422 -0.29919654 -0.33202678 -0.12133175
000080 e0 c0 75 be e2 fe 49 be 5c 04 40 3c 28 6d b6 be
       -0.23999357 -0.19726136 0.011719789 -0.35630155
000090 6b d5 55 be f1 47 92 be d3 9f de bd 3e b9 2d be
       -0.20882194 -0.28570512 -0.10870328 -0.16965196
0000a0 d1 48 1a be af b8 c3 bd bc 63 a3 be 4d f3 71 be
       -0.1506684 -0.0955671 -0.3191203 -0.23627968
0000b0 da 96 19 bd 48 ba 11 be 03 3d 84 be 91 1e bd be
       -0.03749738 -0.14231217 -0.25827798 -0.36937383
0000c0 ff c2 a8 be 68 2a 16 be e6 8c b3 bb 42 c3 8d ba
       -0.3296127 -0.14664614 -0.005479443 -0.0010815638
0000d0 7a c0 28 be 15 31 c5 be da c3 aa be 08 df 9d bc
       -0.16479674 -0.3851401 -0.33352548 -0.019271389
0000e0 54 61 3d 3d 8a e4 81 bd 82 fd 88 bd 0a d8 98 bd
       0.046235397 -0.063424185 -0.06688978 -0.07463081
0000f0 8b e4 0d be 0f 99 27 3d 0b 90 6c be 71 08 13 be
       -0.13856713 0.040917452 -0.23101823 -0.14358689
000100 1c 16 9d be 43 df 9c be 5c 40 87 3e 2e 4b 89 be
       -0.3068093 -0.30639085 0.2641629 -0.2681517
000110 cc 12 97 be 70 7b 04 bf 38 a7 bd ba 56 4b 86 be
       -0.29506528 -0.5175085 -0.0014469391 -0.26229352
000120 15 90 b4 bd 84 8e 88 be 34 ce d7 be 1a dc 5f be
       -0.08816544 -0.2667123 -0.42149508 -0.21861306
000130 0e 24 69 be 74 2b bc be 1c c8 9c be 97 e2 50 3d
       -0.2276766 -0.36751902 -0.3062142 0.050997343
000140 23 86 1b bf 5a 81 b6 be 3d 5f cc be 20 9c 08 bf
       -0.6075155 -0.35645562 -0.3991641 -0.5336323
000150 df ab ba bd 68 5f 8d be be 3a 9f be 5c 35 98 be
       -0.09114813 -0.27611852 -0.31099504 -0.2972821
000160 61 b1 9b be e8 f9 b6 be 60 ea 2a be 6b 2b c8 be
       -0.30408767 -0.35737538 -0.1669097 -0.39095625
000170 08 19 10 bd fc 41 8b be c5 0c ef bd b5 9f d5 bc
       -0.03518012 -0.2719878 -0.116723575 -0.02607713
000180 6c 97 67 be 39 d3 23 be df a6 63 be e7 2f 4f be
       -0.22616357 -0.15998544 -0.22231625 -0.20233117
000190 0a 90 eb bd f9 0d d6 bd 5b 39 62 be c5 cc 88 bd
       -0.11502083 -0.10451884 -0.22092192 -0.06679682
0001a0 80 7d 30 be 6c d8 2d be 29 85 2e bf ef b5 d9 be
       -0.17235374 -0.1697709 -0.68171936 -0.42521617
0001b0 75 48 26 be 3c dd 1f be f4 95 e6 be b3 b2 ad be
       -0.16238578 -0.15611738 -0.4503628 -0.339254
0001c0 63 fc 63 be 0e a9 05 bf 1c 33 21 be 34 c8 f3 be
       -0.22264247 -0.5221108 -0.15742153 -0.4761368
0001d0 b1 b6 8c be 67 88 01 bf 2b 13 6b bd f9 cc a0 3c
       -0.27483132 -0.5059876 -0.057391327 0.019628989
0001e0 05 d7 2e bd ea 95 da bd f3 58 45 be ce d9 44 bb
       -0.042685527 -0.10673125 -0.19272213 -0.0030037048
0001f0 bc d4 0b be 81 ba 6d be a2 d4 c3 be 39 6e a4 be
       -0.1365537 -0.23215677 -0.38248163 -0.32115343
000200 2d a9 a7 be 93 9b 24 be ac bb ab be 05 de bb be
       -0.32746258 -0.16074972 -0.3354162 -0.36692825
000210 bf 47 c5 be 07 50 04 3e cf fb c9 be 8b 7e ab be
       -0.385313 0.12921153 -0.39449927 -0.33494982
000220 be 40 4d bf 02 22 18 be f0 95 b1 be 69 01 18 bd
       -0.80176914 -0.14856723 -0.34684706 -0.03711072
000230 2e 71 51 bd 98 dc 13 bd df 8c 1c be 8a 5a 8f be
       -0.051133327 -0.036099046 -0.15288113 -0.27998763
000240 2d f4 bb be a4 87 e7 3b 28 fe b5 bd 42 e3 87 be
       -0.3670973 0.00706573 -0.08886367 -0.2654057
000250 76 89 2e be e4 6f eb bd ff ca d8 be ee 42 a4 be
       -0.17044625 -0.11495951 -0.42342374 -0.32082313
000260 2d fe 5c be b9 8e 05 bf e7 07 d6 bd 25 6e 45 be
       -0.21581335 -0.521709 -0.10450726 -0.19280298
000270 ee bb ca be 3b a1 9e be 20 b0 c5 be f6 36 36 be
       -0.39596504 -0.30982384 -0.38610935 -0.17794403
000280 dc a8 40 be dd e6 5a bd c1 c8 85 be 09 80 e0 bd
       -0.18814415 -0.053442825 -0.26129726 -0.10961921
000290 c3 dd ee bd cc 63 9b be 39 4d 4b be 04 3f a4 be
       -0.116633914 -0.30349576 -0.19853677 -0.32079327
0002a0 4c b7 8f be 4d 87 23 bf 9b 3b a0 be f7 86 7c be
       -0.28069532 -0.6387833 -0.31295475 -0.2466086
0002b0 d0 2a fc bd 5d e9 28 be 66 c3 0f 3d c9 c8 89 be
       -0.12312853 -0.16495271 0.035098456 -0.26911
0002c0 7d 62 43 be 3e 4b 0b be a7 64 15 bf 5a 25 26 bd
       -0.19080539 -0.13602921 -0.5835671 -0.040562965
0002d0 8a 85 90 be 21 e8 a0 be 57 d8 9d be 33 f3 72 bd
       -0.28226882 -0.314271 -0.30829117 -0.059313964
0002e0 f9 21 1e be 8b f3 89 be 86 63 1c be 1f 06 b0 be
       -0.15442647 -0.2694362 -0.1527234 -0.3437967
0002f0 6a e5 9b be 8f 56 08 be 31 c6 75 be 63 a7 de be
       -0.30448467 -0.1331427 -0.24001385 -0.4348708
000300 aa c1 38 be 85 a8 36 be 76 d8 c7 be 7d 7c 98 be
       -0.18042627 -0.17837723 -0.39032334 -0.29782477
000310 14 02 6c be eb 7a bc bd 71 cb f0 be 1b bc b5 bb
       -0.23047668 -0.09203132 -0.47030213 -0.0055461056
000320 41 3e 8d be 3c ba ef 3c cc 0f 9d be 9c b8 3a be
       -0.27586558 0.029263608 -0.30676115 -0.18234485
000330 03 3b ad bd d7 55 2f be a4 70 93 be 9e f3 c4 be
       -0.08458521 -0.17122589 -0.28796875 -0.38467115
000340 fc a8 05 bf 87 02 35 be 0d 49 da be 49 d4 b3 be
       -0.52210975 -0.17676745 -0.42633858 -0.35122898
000350 20 20 8f be 0c 93 72 bd f5 b9 42 be c9 fd f7 be
       -0.27954197 -0.059222266 -0.1901625 -0.4843581
000360 5e bc a7 bd 58 52 18 be 53 aa 8f 3d 74 39 22 be
       -0.08190225 -0.14875162 0.07014909 -0.15842229
000370 96 72 17 bf d0 ef 9c be 87 59 8a be 1d 8e c0 be
       -0.5915922 -0.30651712 -0.2702143 -0.37608424
000380 94 cd 8a be 3b 40 d8 3b af 08 ab be ee 3c e4 be
       -0.2710997 0.0065994537 -0.33405063 -0.44577736
000390 8a 31 9c be 65 f8 56 be 76 21 28 bf 30 10 af bc
       -0.30506545 -0.20993192 -0.6567606 -0.021370023
0003a0 d9 8f 5e be 64 7b a2 bd 60 2c b8 bc f4 bc 17 be
       -0.21734561 -0.07933691 -0.022482097 -0.14818174
0003b0 83 df 60 be 8b a4 09 be 2d 5e e8 be e3 9c 54 be
       -0.21960263 -0.13441674 -0.4538435 -0.20762973
0003c0 7e 54 ae be 02 1f 80 be 38 a4 20 3e 94 ff 97 be
       -0.34048837 -0.25023657 0.15687644 -0.29687178
0003d0 de 97 35 be 6f 3e 85 be 4f fb 09 bf db ec 86 be
       -0.17733714 -0.26024196 -0.5389909 -0.2635258
0003e0 4d 28 2e be 25 3a 1d be 13 ee 43 3c 15 d9 a7 bc
       -0.17007561 -0.15354212 0.011958617 -0.020489255
0003f0 6b e6 5e be c6 be d5 be 8d ab ed be 53 ad 78 be
       -0.21767585 -0.4174711 -0.46419945 -0.24284868
